experiments/models/landS_maml_model.pt (torch, 31039 bytes, 7 tensors)

regressor.0.weight f4 [40, 10]
000000 55 0b 8a be aa 50 82 be 69 06 42 3e 8d 34 8f 3c
       -0.2696177 -0.25452167 0.18947758 0.017481113
000010 4b ea 82 be 61 d9 71 bd 18 39 98 3e d2 ec 50 be
       -0.25569376 -0.0590452 0.2973106 -0.2040284
000020 66 2d 40 3e 56 ed 4d 3e e5 f2 a3 bd 05 8a ca bd
       0.18767318 0.20110068 -0.08005313 -0.098896064
000030 7e 96 9a 3d 4b a0 1b 3e 1d 97 8c 3e e8 48 3a be
       0.07548235 0.15197866 0.2745904 -0.18191874
000040 ab 71 2c 3e 2e ef 4a be 20 98 db 3c cc 95 e0 3d
       0.16840236 -0.19817802 0.026805937 0.109660715
000050 45 b0 a4 3e a9 81 0d 3e 4e eb 9e be 6e 69 35 3e
       0.32165733 0.13818993 -0.31038898 0.17716
000060 d8 a3 22 3e 4e 6c db 3e e8 eb c3 3e 4d 45 84 bb
       0.15882814 0.42856067 0.3826592 -0.0040365816
000070 e0 11 0d 3d a6 92 70 3e dc 69 85 be 54 49 df bd
       0.034440875 0.23493442 -0.26057327 -0.10902658
000080 c6 9b 1c 3e d3 86 3b be fd 87 1e be 8c 2a 97 be
       0.15293798 -0.1831315 -0.15481563 -0.29524648
000090 de af f2 bd 62 94 80 be c8 cb 41 bd 6e 69 79 3e
       -0.1184995 -0.25113207 -0.04731348 0.24356624
0000a0 bd 10 1f be f5 a2 8b bd 76 15 0e 3e f9 9c 61 3e
       -0.15533729 -0.06818191 0.13875374 0.22032537
0000b0 80 84 31 3b 5c 59 76 3e 57 0d fc 3e 2c cc f6 3d
       0.0027087033 0.24057525 0.49228927 0.120506614
0000c0 cb b1 62 be d1 c1 84 3e b7 fc 8f 3e d7 a4 f7 3d
       -0.22138135 0.2592912 0.28122494 0.120919876
0000d0 a7 c6 aa 3e 72 17 c1 bd c0 f2 4e 3d 01 fc b4 3e
       0.33354685 -0.094283 0.050524473 0.35348514
0000e0 24 c6 8c 3e 6b c8 cc bd 8c eb f1 bd 92 df 59 be
       0.2749492 -0.09999164 -0.11812505 -0.21276692
0000f0 5f 3c 07 3d 40 2a ae bd d1 5c 92 3c 6d 7f 45 bd
       0.03301656 -0.08504152 0.017866524 -0.048217226
000100 60 3d db 3c 6e d7 e8 3d 8c e2 ea 3e cb ef 26 be
       0.026762664 0.11369215 0.45875967 -0.16302411
000110 c0 08 4a bd 34 95 bf 3d 21 51 d5 bd a3 7a 87 be
       -0.04932475 0.0935463 -0.10415865 -0.26460752
000120 a1 3b b7 bc e6 1e a6 3e 18 0a 82 bd 8d dd 91 3e
       -0.0223673 0.3244545 -0.063495815 0.28489342
000130 9f 9c 08 bc 28 89 cb 3e 80 6a 3f bc 72 df 2b 3e
       -0.008338123 0.3975308 -0.011683106 0.16784456
000140 5b f9 9d bd 11 af b3 ba c4 c7 fa 3d 91 47 92 3e
       -0.077135764 -0.001370879 0.122451335 0.28570226
000150 00 4b 83 3b e8 6b da 3e a4 03 c6 3e ee 69 86 3e
       0.0040067434 0.4266045 0.38674653 0.26252693
000160 20 30 7d be de 7b 72 be 02 0c 5d bd 67 df 71 bd
       -0.2472539 -0.23680064 -0.05396653 -0.059050944
000170 4a 07 89 bd 2e bf db bc 6c 5b 8f 3d 00 fc a4 3d
       -0.066908434 -0.02682456 0.06999859 0.08055878
000180 f2 56 ad 3d 82 e4 65 be 1e fb 5b be fe b5 65 be
       0.08463849 -0.2245045 -0.21482512 -0.22432706
000190 6a c8 94 be e2 44 2d be 80 f1 a0 bc 28 3d 5d bd
       -0.29059154 -0.16920808 -0.019646406 -0.0540134
0001a0 26 9b 63 3e ea 08 98 be c6 d0 4b be d0 c2 d5 3d
       0.22227153 -0.296943 -0.1990386 0.10437548
0001b0 b6 60 35 3e 90 e5 3b 3d 90 12 43 bc a6 01 f2 bd
       0.17712674 0.045873225 -0.011906281 -0.11816721
0001c0 4e eb 37 3d b4 0d 3e 3e 04 74 0a 3e 24 22 49 3e
       0.04490214 0.18559915 0.13520819 0.1964193
0001d0 75 9b fa 3e e6 64 49 3e 40 32 e1 bb 4c 89 25 3e
       0.4894673 0.19667396 -0.0068724453 0.16165656
0001e0 ce ff f5 bc db ee 5a be 76 95 49 3d b4 76 26 be
       -0.030029204 -0.21380179 0.049214803 -0.16256219
0001f0 c0 cb 14 be 30 35 24 3e 00 68 8b be da f2 a0 be
       -0.1453085 0.16035914 -0.27227783 -0.3143528
000200 18 1c 2f bd 3a 91 36 3e ae 76 17 be 4d 63 b3 bd
       -0.0427514 0.17828837 -0.14791366 -0.087591745
000210 a1 c0 0f 3e 6a 4c 00 bc 30 e3 23 3d be 3d 69 3e
       0.14038326 -0.0078307185 0.040011585 0.22777459
000220 8e 0f 4b 3e 7c 64 0f 3e 74 9d 55 be cc fe f8 3d
       0.19830152 0.14003175 -0.20860845 0.12157974
000230 41 da 62 3d fc 70 3a be d4 b1 2e be c2 ae 89 3d
       0.055383924 -0.18207163 -0.17060024 0.067227855
000240 a8 98 9d bd d5 bf 84 3e 08 f3 ed 3e 6a 78 ed 3d
       -0.076951325 0.25927606 0.4647448 0.11595233
000250 44 3b 82 bd 25 f5 2c be 5f 80 25 bd 02 d1 bd bd
       -0.0635896 -0.1689039 -0.040405627 -0.09268381
000260 ea 67 73 be 3a 4c 86 3d 4b b4 8f 3e f2 59 93 bd
       -0.23770109 0.06557508 0.2806724 -0.0719489
000270 e6 cd bf 3e 7f 29 23 be c0 51 f8 3b 3c b7 a1 be
       0.37461776 -0.15933798 0.0075781047 -0.3158511
000280 e5 f9 14 3e ea 60 b8 bc 61 d5 6e 3e 4e fa 3c be
       0.14548452 -0.02250715 0.23323585 -0.18454859
000290 da aa 51 be 8e 49 a6 3e 46 3e f1 3e 51 08 77 3e
       -0.20475331 0.32477993 0.47117823 0.24124266
0002a0 2b 1e 0d be d0 fe 5f 3d 0a ab 4f 3c 27 b1 80 3e
       -0.1378104 0.054686368 0.012675056 0.25135157
0002b0 ea 76 8f 3e 55 50 2e be 80 4b c2 3d 91 c1 b5 3e
       0.28020412 -0.17022832 0.09487057 0.35499242
0002c0 6f 6e 4a 3e b4 8d 42 3e 68 56 20 3e fa c8 6b 3e
       0.1976869 0.18999368 0.15657961 0.23025885
0002d0 f1 54 c4 bd 1e aa b2 bd 5e 10 b2 3e 48 c1 3a bd
       -0.09586514 -0.087238535 0.34778112 -0.045594484
0002e0 d0 37 ce 3d d3 16 12 3e ca 50 12 3e ad 0a 77 3d
       0.10069239 0.14266519 0.14288631 0.060312916
0002f0 70 20 9a 3d c5 00 a1 be 59 8b 2a 3e 96 5f 14 3e
       0.07525718 -0.314459 0.1665472 0.14489588
000300 34 1f b5 3e a7 b7 d0 3d c8 ee 3b bd fd c0 17 bf
       0.3537537 0.10191279 -0.045882016 -0.5927885
000310 90 01 a7 be 1b 61 e9 3d d3 d3 0e be c6 79 ec bd
       -0.3261838 0.113954745 -0.13947992 -0.11546664
000320 45 01 7c 3e a0 67 d6 bd 6b fd f7 bd 4f d5 76 be
       0.2460986 -0.10468984 -0.121088825 -0.24104808
000330 7c 10 51 be c0 2b b2 3b a4 94 4e 3e 98 33 a5 3e
       -0.20416445 0.0054373443 0.2017389 0.32265925
000340 b0 75 b1 bc 84 54 92 be 0d 0c b2 3d 63 62 28 3e
       -0.021662563 -0.28580105 0.08693705 0.16443782
000350 64 72 48 be 54 93 ba bc 6c b1 31 3e d9 d0 3c 3e
       -0.19574887 -0.02277533 0.17352837 0.18439044
000360 57 ed d2 3e 5f c9 6e 3e b8 d5 8d 3d 47 47 8d be
       0.411967 0.23319004 0.06925529 -0.27593443
000370 af 39 11 be 01 43 0b be 20 fa 07 ba 46 02 d0 3d
       -0.14182161 -0.13599779 -0.0005187113 0.101566836
000380 c8 c4 25 bd be b2 cd 3e 7f 6e da bc 1b d3 75 bd
       -0.04047087 0.40175432 -0.026664017 -0.06001578
000390 1e 41 32 be 00 c5 89 3d 11 27 e5 bd a1 88 72 3e
       -0.17407653 0.06727028 -0.11189092 0.23684932
0003a0 c3 81 35 bd 33 b6 45 3e 8a b8 48 3e 95 d8 9b be
       -0.044313204 0.19307785 0.19601646 -0.30438676
0003b0 0b 63 86 3d 2b 2c 01 3d cd 17 8e 3e 40 9a 8d 3b
       0.0656186 0.031536262 0.27752534 0.0043213665
0003c0 64 cc 9b 3d 54 24 a2 bc af e6 74 bd f5 f0 0c 3d
       0.07607344 -0.019792713 -0.05979031 0.034409482
0003d0 4e 34 53 3e c8 57 ad 3e 94 8b b7 3e 88 ed 82 3e
       0.20625421 0.33856034 0.35848677 0.25571847
0003e0 36 a4 43 be a4 03 b5 3d 2c 84 85 3d 51 19 cc 3d
       -0.1910561 0.08838585 0.065193504 0.09965766
0003f0 2b 3f 82 3e 31 35 b5 bd 8a 3d 55 be a6 7c be be
       0.25438818 -0.08848036 -0.20824257 -0.37204474

regressor.0.bias f4 [40]
000000 bb 16 29 be 56 20 82 be 1c 5a 18 bd 37 6d 41 be
       -0.16512577 -0.25415295 -0.03719531 -0.18889318
000010 5b cd 1a 3e 80 10 aa 3e 4a 98 9d 3e 27 e6 00 3c
       0.151174 0.33215714 0.3078025 0.007867373
000020 9f 26 1c 3e d2 c8 80 be 26 5d a0 be 2d 37 3b be
       0.15249108 -0.25153214 -0.31321067 -0.18282767
000030 b0 9f 5d 3e 7a 29 39 bd 2c 2d 8c 3e 3f 8a 88 be
       0.21642947 -0.04520557 0.27378213 -0.26667973
000040 e7 6a 2d 3d 9a 4d 51 3e 39 0f a0 3e 5a bc 33 be
       0.04233828 0.20439759 0.31261614 -0.17552319
000050 b4 21 08 3e 98 e3 e4 bd 4f d4 23 3e 0d f1 66 3e
       0.13294107 -0.111762226 0.15998958 0.22552891
000060 67 ac d0 bd 35 df 64 3e 8f 6d 18 bb 18 7a 5c 3e
       -0.10189133 0.22350772 -0.0023258661 0.2153095
000070 c8 7e e4 3d 66 7b 67 3d 18 b1 71 be 27 a4 aa 3d
       0.11156994 0.056514166 -0.23602712 0.08332091
000080 1d 93 89 3e 93 64 10 3e 25 77 86 3e 4c 3c 6f be
       0.2687005 0.14100866 0.26262775 -0.23362845
000090 90 d6 7a be 05 68 7f 3d aa 4f 91 3e 79 39 6f 3d
       -0.24495912 0.06235506 0.2838109 0.05840442

regressor.2.weight f4 [80, 40]
000000 7d 28 44 3d f9 da 88 3d f9 85 8f 3d 26 07 9b 3d
       0.047890175 0.06682391 0.07007975 0.07569723
000010 c3 b6 49 3d a2 fb 8e 3d 7d 7d 7d bd 98 79 17 3d
       0.04924656 0.06981589 -0.061887253 0.036981195
000020 9f ce fa bd 80 f4 8b 3b 50 76 1b bc c1 a5 e2 3d
       -0.12246441 0.00427109 -0.009488657 0.11066771
000030 b6 e1 e9 bd 9f 68 a2 3c 38 a8 11 bd cf 2f 0f 3e
       -0.11420004 0.019825278 -0.035560817 0.13983081
000040 1b d0 0f 3d b0 69 f1 bd b7 7a 2c 39 e6 10 ec 3b
       0.035110574 -0.117877364 0.00016448913 0.007204163
000050 40 1d dd 3d af ef 85 3b 72 55 86 bb 06 1e 5c 3d
       0.107965946 0.0040874104 -0.0040995413 0.05373957
000060 0d 93 42 bd 83 b1 d9 3d 3f fb 08 be 68 2a 95 3d
       -0.04750352 0.10629561 -0.13377093 0.07283479
000070 e8 bd 0b be f1 0d ce 3d 2c 00 95 3d 1b c4 51 bd
       -0.13646662 0.10061253 0.072754234 -0.05121241
000080 76 9b 2a bd 99 2e 39 3e 6d cd 0c 3e f5 c2 32 3d
       -0.041652165 0.18084182 0.13750239 0.043642957
000090 a4 1e b4 3d 4a 6b cb bd bd 63 7b 3c 95 c5 09 bd
       0.08794907 -0.09932573 0.015343604 -0.033635695
0000a0 53 d6 02 3e f1 56 00 3d 6f 10 36 3d cd e2 90 bd
       0.1277707 0.031332914 0.044449266 -0.07074509
0000b0 23 b8 29 3d 37 25 ef bc d1 a3 c6 bd 81 e6 15 be
       0.041435372 -0.02919255 -0.09699214 -0.14638712
0000c0 63 e2 20 3d 4c c2 f7 bd 3a 0e 05 be d0 71 fb 3d
       0.0392784 -0.12097606 -0.12993708 0.122775674
0000d0 64 d2 28 be 11 e3 b0 bc 16 35 ef bd 4f 8a a3 3b
       -0.16486508 -0.021592649 -0.11680047 0.004990853
0000e0 b3 90 04 3d 7a df 9e 3d 7e 5b 5f 3b fa db 83 bb
       0.03236456 0.077574685 0.0034081633 -0.004024026
0000f0 bb 5d 21 3b e1 fd 67 3c 63 62 aa bd 4b 49 c6 bb
       0.0024622518 0.014159651 -0.08319547 -0.0060512177
000100 28 fb 05 3e 0f 3b 43 bd 53 1f 8a 3d 36 4b 15 3e
       0.1308409 -0.047663745 0.06744256 0.14579472
000110 50 87 9c bc 37 55 a3 bd 97 b9 81 3b 77 69 2a 3e
       -0.01910749 -0.07975238 0.0039588916 0.16641794
000120 ba 87 bf bb af 2a 1f 3e e8 ef 8f 3c 01 be 95 3d
       -0.0058450373 0.15543626 0.01757045 0.07311631
000130 7e 84 01 3e da 65 62 3c 4f b8 96 3d ac 48 83 3d
       0.12648198 0.013818229 0.07359373 0.064103454
000140 66 a5 20 3e d3 f0 16 3a 2d 45 04 be 00 58 8d bb
       0.15688094 0.00057579315 -0.12917013 -0.004313469
000150 9c 0b b6 3d fe 29 f7 bc f0 15 ad b7 65 3f fa 3d
       0.08888933 -0.03017139 -2.0633423e-05 0.12219123
000160 45 8f fe bd 54 f3 7d 3d 03 1c df bd a3 a5 bd bd
       -0.1242967 0.061999634 -0.10894015 -0.09260108
000170 77 2e f9 bd c8 0e 00 3e a5 36 93 3c 27 55 da 3d
       -0.121670656 0.12505639 0.017970392 0.10660773
000180 9f 73 01 3d 92 90 74 3d 78 40 33 3e a3 47 06 3e
       0.031604405 0.059708185 0.17505062 0.13113265
000190 3a 64 4a 3e 3b 69 04 3e dc a1 e5 bc 0a 68 03 3e
       0.19764796 0.12930767 -0.028031282 0.12832657
0001a0 44 5c a6 bd 08 52 23 3e 9d a3 87 3c bc 0d b4 bc
       -0.08123067 0.15949261 0.01655751 -0.021979205
0001b0 58 69 c0 3c 0a c7 8f bb 60 5e f9 3d 32 34 dd 3c
       0.023487732 -0.004387741 0.12176204 0.027002428
0001c0 73 13 0c bd 76 c6 d6 3d 06 a4 75 3d 70 45 c1 3d
       -0.034198236 0.10487072 0.059970878 0.09437072
0001d0 43 c6 42 3d fd 5a f4 3d 2a 9a 19 3e 7d eb 28 bd
       0.04755236 0.11931417 0.15000215 -0.041240204
0001e0 ce f3 0a bd f4 a7 f6 bd 0d 7d db bd e0 48 e6 bb
       -0.033923917 -0.12043753 -0.10717211 -0.0070277303
0001f0 c4 1c 13 be 17 0e b8 3d cd fa 03 be 02 d1 d2 bc
       -0.14366442 0.089870624 -0.12888642 -0.025734428
000200 94 30 9d 3d e7 c8 4c bd 7a 63 bf 3d c5 4c 0a 3e
       0.07675281 -0.049996283 0.093451455 0.13505848
000210 69 f8 58 bd 43 1a a2 3d 18 9c 01 3d 11 70 89 bd
       -0.052971277 0.07915165 0.031643003 -0.06710828
000220 cc 72 f3 3d 08 bc e6 bd ae 13 a0 3d 24 97 12 3e
       0.1188713 -0.11266333 0.078162536 0.14315468
000230 12 7e 08 bc f2 5a 1a 3d e5 5d 98 bd ba 4a dc bd
       -0.008330839 0.03768439 -0.07439784 -0.107564405
000240 94 b7 38 3c 86 cc 30 bc 93 36 63 bd af 62 b7 3d
       0.011274237 -0.01079095 -0.055471968 0.08954369
000250 a7 c0 0e be f6 df b9 bd dd e3 03 bd d2 56 06 be
       -0.13940679 -0.0907592 -0.03219973 -0.13119057
000260 de 68 89 3d ad f8 31 bd 47 ec 8c bd d3 40 e5 bd
       0.06709455 -0.043450046 -0.06881004 -0.11194005
000270 89 74 ab 3d 1e 4b d2 bd a5 bb 97 bc a2 17 3f bd
       0.08371837 -0.10268234 -0.018522093 -0.046653397
000280 21 57 73 3d 7d cc fc bd 21 bd f7 bd f4 56 99 3d
       0.059409264 -0.123436905 -0.1209662 0.07487288
000290 56 a5 ab bb af 64 c4 3d 14 40 0d 3e 59 fd 73 3d
       -0.0052382154 0.09589516 0.13793975 0.059567783
0002a0 db 5b f9 3d 96 8d 9c 3d 70 6d 56 bc ae bf d5 3d
       0.12175723 0.07644193 -0.013087615 0.104369506
0002b0 d9 61 e0 3d c7 fb 8e bb 88 75 ce 3d 74 cf f8 3d
       0.10956163 -0.0043635103 0.10081011 0.121489435
0002c0 6d a5 83 bd 37 91 17 3d 42 b1 f1 bc 23 80 52 be
       -0.06428037 0.037003722 -0.029503468 -0.20556693
0002d0 0c a8 9a 3d f3 71 1c 3e 73 f4 36 be c6 4d 32 bd
       0.07551584 0.15277843 -0.17866687 -0.0435312
0002e0 a6 b0 1d bd 9b 32 e5 3d 56 04 3d 3d 2d 76 14 3e
       -0.038498543 0.11191293 0.046146713 0.14498205
0002f0 2f 18 12 be f5 05 f4 3b 13 7f ec bd 26 c7 02 3e
       -0.14267038 0.007446999 -0.11547675 0.12771282
000300 1a b4 5c bd d4 6f fa 3d 38 c8 66 bd 5b a6 35 bd
       -0.053882696 0.12228361 -0.056343287 -0.044348102
000310 e9 18 0d bc 01 87 64 3d 0b 3c 2d 3d f4 fb 0f be
       -0.008611896 0.055792812 0.04229359 -0.14060956
000320 55 a2 a5 bc 38 65 b1 bd c1 d0 14 3e 5b ed 01 3e
       -0.020219008 -0.08661884 0.14532758 0.126882
000330 38 92 92 bd fd 39 fe 3d 69 4c 7b 3e d9 e8 d3 3d
       -0.07156795 0.12413404 0.24540867 0.103471465
000340 09 60 90 bd e1 1a e0 bd 12 1a 9b 3d 5a 71 49 3e
       -0.07049567 -0.10942627 0.07573332 0.19672146
000350 83 42 3d bd a7 39 c4 3d 6f 4b 50 3e 61 29 19 3e
       -0.04620601 0.09581309 0.20341276 0.14957191
000360 45 19 3b 3e 0d d7 00 3e 5c c2 bc bc 6e ff ab be
       0.18271358 0.12582035 -0.023041897 -0.33593315
000370 a5 4d 6a 3c 2d 1f 20 3c da d8 2f 3c 00 7c b8 3d
       0.014300738 0.009773058 0.010732854 0.09008026
000380 83 1a 32 bd 8e 66 7f be 2e 88 22 3e 4f 23 a5 3d
       -0.043482315 -0.24941465 0.15872261 0.08063375
000390 28 55 bb bc 22 b4 5f 3b de 9e 0b 3e 90 c6 91 3d
       -0.022867754 0.0034134467 0.13634822 0.07117951
0003a0 fb 36 24 3e a7 e4 9d 3d 90 39 45 bd 8e fe b4 3c
       0.16036598 0.077096276 -0.0481506 0.022094037
0003b0 b2 ce 85 3d 83 cc 40 be 7a d1 f9 bc 24 be f4 3d
       0.065335646 -0.18828015 -0.030495394 0.11950329
0003c0 88 8b fa 3c 94 23 3d 3e 77 a7 d4 3c 45 51 1f 3e
       0.030584112 0.18470603 0.02595876 0.15558346
0003d0 43 95 89 bd 81 c9 29 3d b8 b1 d2 bc 06 a4 d8 bd
       -0.067179225 0.041451935 -0.025719509 -0.1057816
0003e0 17 89 03 be 40 87 9e 3c d3 e5 05 be 39 a2 4d 3d
       -0.12845264 0.019351602 -0.13075952 0.050203536
0003f0 45 0b 3e be 66 9b 92 3d 2d 31 3f 3d c8 84 fb 3d
       -0.18558986 0.07158546 0.046677757 0.122811854

regressor.2.bias f4 [80]
000000 5a ce 68 bc 37 8e d7 3c b6 81 99 3d 83 3a f6 bd
       -0.014209354 0.02631293 0.074954435 -0.12022879
000010 51 d3 d2 3c 6e 1e 3c bc 82 1b 27 3c 9c be 2b 3d
       0.02573553 -0.011481864 0.0101994295 0.041929826
000020 30 04 5a bc 7e 19 7e bb e6 0e c0 3d 27 58 03 3e
       -0.013306662 -0.0038772519 0.09377842 0.12826596
000030 42 f1 49 bd 85 19 aa bd f3 e2 2a 3e cb 41 be bd
       -0.049302347 -0.08305649 0.16688137 -0.09289893
000040 ef b6 8b bd eb 5e 23 3d 9c 8e eb 3b 0f 89 92 3d
       -0.06822001 0.039885443 0.007188631 0.07155048
000050 92 bc 0b bd 67 ec c7 3d cc 1c 07 bd ab c9 3f 3e
       -0.03411538 0.09761887 -0.032986447 0.18729274
000060 9e 60 08 3e 0a dc 3d 3e 22 97 90 3d e6 5d cf 3d
       0.13318107 0.1854097 0.07060076 0.101253316
000070 b0 eb f6 bc 7d 7b 04 3e d2 a4 06 be 6a 99 b5 bd
       -0.030141681 0.12937732 -0.13148811 -0.08867152
000080 bd 4b 07 bd 09 70 3a 3e 39 66 49 bd f2 1b 11 3e
       -0.033031214 0.182068 -0.049169753 0.14170817
000090 d7 d0 e7 3d be 8d ae 3d 20 b9 5b bd 32 ff e1 3d
       0.1131913 0.08523129 -0.053643346 0.11035003
0000a0 8a a8 84 bc 02 8f 47 3c b7 e2 5d bd 8e b7 6b bd
       -0.016193647 0.012180092 -0.05417129 -0.0575481
0000b0 e3 b5 73 3d d0 e0 0a bd 3b ae 0a 3e 5f a8 a1 bd
       0.059499633 -0.033905804 0.13543026 -0.07893442
0000c0 33 31 0f be 85 b4 0b bd df 2d 11 3c 83 b7 52 3d
       -0.13983612 -0.034107704 0.008861034 0.05144454
0000d0 d0 06 93 3b 5b 7a ad bd 63 95 42 bd 72 3f b4 bc
       0.004486896 -0.08470603 -0.047505748 -0.02200291
0000e0 d3 c8 59 3e 14 06 08 bd 84 70 41 bd 79 53 05 bd
       0.21268015 -0.03320892 -0.047226444 -0.03255031
0000f0 7d 96 1e 3d 5d 93 0f 3e 2c ad fb bd 60 d6 88 bd
       0.038717736 0.14021058 -0.12288889 -0.06681514
000100 d6 c9 3d 3d 35 0e 08 bd 6d 03 fa 3d 56 68 fa 3d
       0.046335064 -0.033216674 0.12207685 0.12226932
000110 82 5b 45 3c d7 da 1e 3e 96 63 18 3c 4c 65 49 bc
       0.012045743 0.15513168 0.009301087 -0.012292217
000120 51 cb 3f 3e 46 10 fb bd 1c 9f 98 3c db 46 3d 3e
       0.18729903 -0.12258963 0.018630557 0.1848406
000130 f0 db 43 bc 02 35 ee bc 71 33 e2 3d 49 e8 42 bd
       -0.011954293 -0.02907801 0.11044968 -0.047584806

regressor.4.weight f4 [40, 80]
000000 a2 02 84 3c 18 d6 b2 3d 05 00 21 3e e0 8a 3a 3e
       0.016114537 0.087322414 0.15722664 0.18217039
000010 26 aa 9a 3c e5 78 b1 3d 35 13 0f bd 6e ac ce 3d
       0.018879961 0.08665637 -0.034930427 0.10091482
000020 fc ae 09 bd 65 26 1f 3e 89 74 1d 3e da 9d dd bc
       -0.033614144 0.1554199 0.15376486 -0.027052809
000030 69 29 9e 3d 1a ee 36 bd e3 1b a4 3d 42 a5 93 3d
       0.07722742 -0.044660665 0.080131315 0.07209255
000040 e7 0b a2 3d 7f ad c2 bd ce fa cc bc ab c4 11 3d
       0.079124264 -0.09505748 -0.025021937 0.035587948
000050 c7 ff 14 bd c6 e9 a9 bd 0c 7f bf bd b0 4e 86 bd
       -0.03637674 -0.08296542 -0.09350404 -0.06557977
000060 10 1a 94 3c 7d b5 73 bd fe 64 9c 3d a4 bf 06 bd
       0.018078834 -0.059499253 0.0763645 -0.032897606
000070 f6 ef f0 3b a8 fb 88 3d 1a a8 33 3c e5 3a a4 3d
       0.0073528243 0.066886246 0.0109653715 0.08019046
000080 28 69 4b 3d 80 e0 8e 3d ed 3d 09 3e 08 35 8c 3d
       0.04966083 0.06976414 0.13402529 0.068460524
000090 60 62 c9 bc 79 42 7b 3c 92 3d e3 bc 6e 99 69 3b
       -0.024583042 0.015335673 -0.02773932 0.003564443
0000a0 ac 69 c3 3d 0a fb d3 3d 75 4e a9 bc 5c a3 ef ba
       0.0954164 0.10350616 -0.020667294 -0.0018282938
0000b0 54 4c ce bd cf 6e 32 bc a4 7e db 3c cd a1 17 3e
       -0.10073152 -0.010890677 0.026793785 0.14807816
0000c0 8a de c4 bd 85 e7 4d 3d 4a c7 d5 3b 1a 40 ec bd
       -0.096127585 0.050269622 0.0065240012 -0.11535664
0000d0 31 73 81 3b f8 e8 a7 3c 70 e5 95 3d 45 c8 24 3e
       0.0039504995 0.02049683 0.07319152 0.16092022
0000e0 50 c5 ca 3d d3 9e 24 3e 9d 2c 98 bd 02 72 b8 3c
       0.099009156 0.16076212 -0.07430384 0.0225153
0000f0 3f f9 bc bd f3 be a2 bd 27 34 a8 3d b6 60 25 3d
       -0.092272274 -0.07946577 0.08213072 0.040375434
000100 30 b3 03 bd 4a 47 88 bd 25 b2 a1 3d 40 00 84 3b
       -0.03215331 -0.06654222 0.078953065 0.00402835
000110 77 84 9b 3b d9 7c 1c 3e 64 0d 9d bd a8 14 13 3d
       0.0047460156 0.15282 -0.0766857 0.03590837
000120 26 80 d9 bc db 93 e5 3d 3d f9 96 bc fb 44 81 bd
       -0.026550364 0.11209842 -0.018429393 -0.06311985
000130 c8 df 61 bd a6 a3 ad bd c4 c1 17 bd e5 25 29 3d
       -0.055145055 -0.08478479 -0.037050024 0.041295905
000140 02 64 4d bd fc 3c 02 bd 8b f1 7c 3d 73 da 94 bc
       -0.050144203 -0.03179644 0.06175379 -0.018170571
000150 5e 5b ba 3d ec 98 20 bd d8 c6 01 be 38 d0 ac bc
       0.09099458 -0.039208338 -0.12673509 -0.02109538
000160 e6 0c c5 bd bf ad da 3b 4e 68 99 3d 40 36 8e bd
       -0.09621601 0.006673544 0.07490598 -0.06943941
000170 36 e8 5e bd 3a f1 20 3d d5 26 4f 3d 3a 32 bd 3d
       -0.054420672 0.03929255 0.050574142 0.092380956
000180 60 27 59 bc da a8 99 bd 6a 78 c3 bd 89 24 76 bd
       -0.013254017 -0.07502909 -0.095444515 -0.060093436
000190 02 95 dd bd ab 1e 2e 3d 64 9e 52 bd d7 d7 32 bc
       -0.108194366 0.042509716 -0.051420584 -0.010915718
0001a0 45 9b e0 bd 07 0b 06 3d 70 c2 1c bb 2f 6a 03 3c
       -0.10967115 0.03272536 -0.0023919605 0.008020922
0001b0 da 55 92 3d 45 02 d8 bd 63 61 c5 bd 57 3d 8a 3d
       0.07145281 -0.10547308 -0.09637716 0.06749981
0001c0 1d 83 2e 3d 74 5f da bd a1 65 d3 bd c0 d4 54 bc
       0.042605508 -0.106627375 -0.103221186 -0.012990177
0001d0 e9 bb b7 bd 08 1f ae bd 99 83 5d 3d c5 f7 87 3b
       -0.08971388 -0.085020125 0.05408058 0.0041494095
0001e0 43 d4 a2 3d 7b 04 8d bd 5a ae 1f 3d 66 b6 a3 3c
       0.07950642 -0.0688562 0.038984634 0.019984435
0001f0 d3 52 05 bd a5 c1 72 bd 57 41 1b bd 50 ba c0 bc
       -0.03254969 -0.059266705 -0.03790411 -0.02352634
000200 c3 c6 1f 3c f3 74 0e 3d fd a7 ba bb 50 a1 76 3d
       0.009751978 0.0347795 -0.0056962953 0.060212433
000210 dc 46 06 bd 70 ed 6b bd b2 2c 77 bd 72 69 24 3c
       -0.03278242 -0.057599485 -0.06034536 0.010034906
000220 61 93 36 3c 0d 70 3d 3c a7 1a aa 3d 17 42 9e 3d
       0.011143536 0.0115623595 0.08305865 0.077274494
000230 a9 a9 b6 bd c7 6e 1e 3d 8c 32 7d bd b5 50 c8 bd
       -0.08919079 0.038679864 -0.061815783 -0.09781019
000240 fe 30 a4 3d 92 ef 91 bd 3d 6d 80 bd 14 ad ce bc
       0.08017157 -0.071257725 -0.062708355 -0.025229014
000250 f6 cd 56 3d 85 18 c9 bd de 28 a6 3d fb d3 e0 3c
       0.052442513 -0.0981913 0.081132635 0.02744483
000260 77 76 57 bd 5c b7 64 3b 6f ba b8 3c 0f d9 97 bb
       -0.05260321 0.003489933 0.022549836 -0.0046340297
000270 86 fa 29 bd 00 84 09 3c 0c ad ca bc 4c 7d 58 bc
       -0.041498683 0.008393288 -0.024740718 -0.013213467
000280 b3 be d1 3c ef 8f 52 3d bb 02 04 bd c9 cb c8 bc
       0.025603628 0.051406797 -0.032229166 -0.024511235
000290 a3 da aa 3d 6f 27 1d 3c e5 52 d6 3c 68 3f 35 3d
       0.08342483 0.009591921 0.026162574 0.044249922
0002a0 88 ea 0f 3d d3 cb 23 be 6d 8f 06 bc 1d 44 1d bd
       0.035135776 -0.15995722 -0.008212906 -0.038395036
0002b0 23 67 22 3d e8 ba 1f 3d a0 30 61 bd 7f 10 d8 bd
       0.03964914 0.038996607 -0.054978013 -0.105500214
0002c0 5c bd 2b bd d8 55 f6 bd b1 01 2d 3e 61 8d d8 bd
       -0.041928634 -0.12028092 0.16895176 -0.10573841
0002d0 43 a0 7a bc 65 19 47 bd 0c 6a a3 bb 2c 15 03 bc
       -0.015296998 -0.048608202 -0.004987007 -0.008000653
0002e0 14 11 db bc e8 6c 27 bd 0c be ce bc 03 99 18 bd
       -0.026741542 -0.040875345 -0.025237106 -0.0372553
0002f0 67 e5 7c 3d 0a 54 b5 3d 62 fe 8e 3c 0a c0 90 3d
       0.061742213 0.0885392 0.017455284 0.070678785
000300 4b 78 a3 bd ae d9 d2 3c 96 86 bb bd 04 65 a1 bd
       -0.079819284 0.025738563 -0.091565296 -0.07880595
000310 f9 fd 58 3c 97 48 ac bc ad a0 e1 bd 95 ab a2 3b
       0.013244146 -0.021030707 -0.110169746 0.004964302
000320 9b 41 d6 3d c0 7d 91 ba 74 d6 13 bd e5 17 ee bc
       0.10461732 -0.0011100098 -0.03609319 -0.029064128
000330 f1 6b 6b bd e0 99 88 3b 37 e1 f6 bc 22 2b 3d bc
       -0.057475988 0.004168734 -0.030136688 -0.011545928
000340 b2 de 55 bd a9 ef ba bd 89 34 a8 bb 34 52 68 3d
       -0.052214332 -0.09127743 -0.005133216 0.05671902
000350 03 92 8b bb 17 ba 71 bd 35 a3 ad 3d af 82 f8 bc
       -0.0042593493 -0.05901536 0.08478395 -0.030335752
000360 4b 77 34 3e 0a 0b 08 be d8 9b 9f 3d b9 82 95 bd
       0.17623632 -0.13285461 0.07793397 -0.07300324
000370 bc 38 da bd 4c a9 c3 bd 53 47 fd 3d 3d 68 43 3c
       -0.106553525 -0.09553775 0.1236712 0.011926708
000380 ee 8c 8f 3d ea ea 1a 3d 76 f4 b0 3d b6 8e 4b bd
       0.07009302 0.037821688 0.08640377 -0.049696647
000390 93 39 4a bd 2f 4c e4 bc 65 e4 88 bc 11 0c 1d 3e
       -0.049371313 -0.027868358 -0.01671047 0.15336634
0003a0 e2 9d 35 3c 5f 82 be 3d e6 d6 95 3d e8 33 05 3d
       0.0110850055 0.0930221 0.07316379 0.032520205
0003b0 c6 9a be 3d bd ec 5b bd 5e e1 ef 3b 5b 2e 8b bd
       0.093068644 -0.053692568 0.007320567 -0.06795951
0003c0 03 97 64 3a c5 50 ee 3c f3 6c b1 3d 8d 09 b3 3d
       0.0008720012 0.029091248 0.086633585 0.08742056
0003d0 f9 1f 89 bd 18 4a a4 bd 96 92 92 3c cf 13 d6 bd
       -0.066955514 -0.08021945 0.017892163 -0.10452997
0003e0 55 8c a6 3d 7c 66 64 3d 2b 20 80 3d 7e bf e5 3d
       0.08132235 0.0557618 0.062561356 0.11218165
0003f0 40 ae 04 be 48 8d 16 bc e1 ba c2 3d b8 b4 bc 3d
       -0.12957096 -0.0091889575 0.095083006 0.09214157

regressor.4.bias f4 [40]
000000 a5 67 96 3d 3a 47 8f bb 63 93 21 3e 2e f0 26 3e
       0.073439874 -0.0043725045 0.1577888 0.16302559
000010 1c 47 00 bd d5 1f 0e 3f 74 f5 cd 3c 7a c7 aa 3d
       -0.031317815 0.5551732 0.025141455 0.083388284
000020 e3 b6 06 3e 0a b7 a1 bc 3f 0f 70 3c fa fe db 3d
       0.13155703 -0.0197406 0.014652072 0.10741992
000030 43 0f a8 bc 28 fb 39 bc ea 76 48 3d d5 8f ff 3e
       -0.02051509 -0.011351384 0.04894153 0.49914423
000040 9e 9e 70 3e 98 d1 9b 3d 66 25 da bd ff 3f d8 bd
       0.23498008 0.07608336 -0.106516644 -0.10559081
000050 41 26 d7 3c b8 15 5f bc 25 35 99 3d 36 a7 81 3c
       0.026263358 -0.013616018 0.0748084 0.015826803
000060 b3 d2 03 bd d0 c5 bf 3c bb f2 20 3f 46 5c a2 3c
       -0.03218336 0.023409754 0.6287038 0.01981939
000070 c6 db 06 bd 0f 7a 74 bd ca 97 a6 3d fc 7a 9e 3e
       -0.032924436 -0.059686717 0.0813442 0.30953205
000080 dd 1a 97 3d 41 9e 2e 3d 06 fb 83 bd 45 c3 76 3d
       0.07378171 0.04263139 -0.06444363 0.060244817
000090 66 9b 82 3c 29 34 b4 bd 62 25 9d bb ca 42 9f 3b
       0.01594324 -0.08799011 -0.004795716 0.004860257

regressor.6.weight f4 [1, 40]
000000 49 e0 67 3d d0 cb db bc 59 fb 8f bd 42 a9 38 3d
       0.05661038 -0.026830584 -0.07030363 0.04508329
000010 26 f0 0f 3d f2 37 6c be 2d f1 19 be 1b ea f9 bc
       0.035141133 -0.23068216 -0.15033408 -0.030507138
000020 32 4e 86 3d ed d5 f6 3d 1a 19 eb 3c 07 45 b4 bd
       0.06557883 0.12052522 0.028698493 -0.088022284
000030 77 eb 34 3d f3 ed 31 3d af a5 92 3d 31 0a 2e be
       0.04416987 0.043439817 0.07160508 -0.16996075
000040 13 c4 a8 bd 5d 51 df 3d 54 a1 aa bb 6b 73 ec 3d
       -0.08240523 0.10904191 -0.00520722 0.11545452
000050 54 f5 d0 3d ac 19 56 3d 9e 13 09 3e 4a 03 12 3e
       0.102030426 0.052270576 0.1338639 0.14259067
000060 61 3d eb bd 3e 10 d6 3d 97 11 d1 be f3 6b 00 be
       -0.114863165 0.10452317 -0.40833732 -0.1254118
000070 62 10 0f be a3 d1 f1 bd d1 b6 2f be f9 76 84 bd
       -0.13971093 -0.11807563 -0.17159583 -0.06468005
000080 f1 18 d1 bc 66 a1 bb bc 0c ce fe bc fe 8c 37 3d
       -0.025524588 -0.02290411 -0.03110411 0.044812195
000090 da 57 34 3e e7 4e 5e bd 95 4d cd bd a3 33 ca 3d
       0.17611638 -0.054274466 -0.10024563 0.0987313
