experiments/models/landS_maml_model4.pt (torch, 31039 bytes, 7 tensors)

regressor.0.weight f4 [40, 10]
0	0x3e96965d	0.29411593
1	0x3e6c6f14	0.23089248
2	0xbcdc5327	-0.026895119
3	0x3d7d75ab	0.061879795
4	0xbe9949b0	-0.29939032
5	0xbda70c23	-0.08156612
6	0xbe0d548a	-0.1380178
7	0x3c60d59b	0.0137228025
8	0x3e3ea43e	0.18617341
9	0xbe125578	-0.14290416
10	0x3ce340f1	0.027740927
11	0x3c756383	0.014977339
12	0xbe200f35	-0.15630801
13	0x3d24bcfc	0.040219292
14	0x3b659100	0.0035029054
15	0x3e8f0a5c	0.2793759
16	0x3ee275c5	0.44230476
17	0xbc072f0b	-0.008250962
18	0x3d854348	0.065069735
19	0xbdf02be8	-0.117271245
20	0xbdab8db1	-0.08376635
21	0x3dca65eb	0.098827206
22	0xbca027d2	-0.019550238
23	0xbb8af5d9	-0.004240733
24	0xbd9f0188	-0.07763964
25	0x3eb4ea02	0.35334784
26	0x3ebf5ce7	0.37375566
27	0x3d873eb7	0.06603759
28	0x3e2967fe	0.16543576
29	0xbe50a6ac	-0.2037608
30	0x3da82154	0.08209482
31	0xbd13af6f	-0.03605598
32	0xbe22d117	-0.15900074
33	0x3e95983f	0.29217717
34	0xbe7cdc59	-0.24693431
35	0xbeacca09	-0.3374789
36	0x3d0b6b12	0.034037657
37	0x3d8d514e	0.06900273
38	0x3e663dde	0.22484538
39	0x3e2c4f1e	0.16827056
40	0x3e9d2c56	0.30697888
41	0xbe794fb2	-0.24346808
42	0xbe2521ad	-0.16126128
43	0x3ea2c3bb	0.31789955
44	0x3df11e3c	0.11773345
45	0xbe77ff0c	-0.24218386
46	0x3e163858	0.14669931
47	0x3e0e1ebf	0.13878916
48	0x3e83518f	0.25648162
49	0x3e274d88	0.1633817
50	0xbddfd3b5	-0.10929052
51	0x3e71d5f6	0.23616776
52	0x3e852ac8	0.26009202
53	0xbd61a941	-0.055093054
54	0xbd0fde20	-0.035123944
55	0x3e518384	0.20460325
56	0x3ed35555	0.4127604
57	0x3deb5723	0.114912294
58	0x3e9ffb67	0.31246492
59	0xbe727944	-0.23679072
60	0xbe2c1b8d	-0.16807385
61	0x3e8df1ce	0.27723545
62	0xbcc1ee32	-0.02367315
63	0x3ea1142d	0.31460705
64	0x3c192c80	0.0093489885
65	0x3ea980d2	0.33106095
66	0x3ea12d5f	0.31479928
67	0x3e0af3f7	0.13569628
68	0x3e3a63da	0.18202153
69	0x3d2d2440	0.0422709
70	0x3e8c0aeb	0.2735208
71	0xbce9fa44	-0.028561719
72	0x3d734687	0.059393432
73	0xbce95646	-0.028483521
74	0x3c9554b0	0.018228859
75	0x3ce642b9	0.028107988
76	0xbe11f476	-0.1425341
77	0xbe5dd9c4	-0.21665102
78	0xbe5c214a	-0.21497074
79	0x3e267c84	0.16258436
80	0x3d60c757	0.054877605
81	0x3e98b185	0.29822937
82	0x3e8d0eeb	0.27550444
83	0xbd1efdb0	-0.038816154
84	0xbdd41c7a	-0.10356994
85	0x3eab7c5a	0.3349331
86	0x3c52111c	0.012821462
87	0x3e93e606	0.2888643
88	0x3da53cb0	0.08068216
89	0x3e559e1a	0.20861092
90	0x3d393e05	0.045225162
91	0x3ddf0f90	0.1089164
92	0x3eb96adc	0.3621434
93	0xbca7ac72	-0.02046797
94	0xbe667258	-0.22504556
95	0xbe8534db	-0.26016888
96	0x3e0dd09f	0.13849114
97	0x3d88c33c	0.06677863
98	0xbe10301f	-0.14080857
99	0xbe5f7414	-0.21821624
100	0x3e0b725a	0.1361784
101	0x3dd498b1	0.10380686
102	0xbd967a95	-0.073475994
103	0x3e8898b0	0.2667899
104	0xbd379f58	-0.044829696
105	0x3ec6b6cf	0.38811347
106	0x3ed5dfa8	0.417722
107	0x3e7b2b1b	0.24528162
108	0x3e342f14	0.17596084
109	0xbdd98778	-0.10621542
110	0x3e8fff08	0.2812426
111	0xbe99963a	-0.29997426
112	0x3e371839	0.17880334
113	0x3ea342d9	0.31886938
114	0x3e165292	0.14679936
115	0xbe0ea224	-0.13929039
116	0xbdd88cd4	-0.10573736
117	0xbe1f5731	-0.15560605
118	0x3e54ff6a	0.20800558
119	0x3e8948ed	0.2681345
120	0x3e9bda0c	0.30439794
121	0x3e2d6293	0.16932134
122	0xbe927723	-0.2860652
123	0x3dfcdadc	0.123464316
124	0x3d79f258	0.061022133
125	0xbc7a8c75	-0.015292277
126	0x3eaf36f5	0.34221616
127	0x3e009cfc	0.12559885
128	0xbe5c8255	-0.21534093
129	0x3e853871	0.26019624
130	0x3e5dcda9	0.21660484
131	0xbb09bcf3	-0.0021017164
132	0x3e71777a	0.23580733
133	0x3be1795d	0.0068809227
134	0x3cb82030	0.022476286
135	0xbd83ce77	-0.064358644
136	0x3e3ec129	0.18628372
137	0xbddc6aef	-0.107625835
138	0x3d5c2e30	0.053754985
139	0xbe033596	-0.1281341
140	0xbd890c98	-0.06691855
141	0xbdb50c2c	-0.08840212
142	0x3e9bb6e6	0.30412978
143	0xbd370138	-0.044678897
144	0xbe0a8380	-0.13526726
145	0x3e894dbf	0.26817128
146	0x3d3eb6cd	0.04656105
147	0xbe1f3791	-0.1554854
148	0x3e9bbc5b	0.3041714
149	0xbe8a7267	-0.27040407
150	0x3eb08c75	0.3448216
151	0xbde6b832	-0.11265601
152	0xbe8a7329	-0.27040985
153	0x3ca8e7c6	0.02061833
154	0xbe7058ee	-0.23471424
155	0x3e826d82	0.25474173
156	0x3ec4096a	0.38288432
157	0x3e8ca048	0.27466035
158	0x3d708cb0	0.05872792
159	0xbe34478b	-0.17605416
160	0xbdd805d7	-0.10547989
161	0xbd38b2cd	-0.045092393
162	0xbdb4058c	-0.087901205
163	0x3d99ba3c	0.075062245
164	0xbe98707c	-0.2977332
165	0x3de43833	0.11143532
166	0x3ea5ea89	0.324055
167	0x3def7490	0.116921544
168	0x3e9f8df1	0.3116298
169	0xbe95cf1d	-0.29259577
170	0x3d276fc2	0.040878065
171	0x3e91dedf	0.2849035
172	0x3e92a8ab	0.28644308
173	0x3e04fbeb	0.12986724
174	0x3d6ec148	0.058289796
175	0x3dee0ff3	0.11624136
176	0xbda6cee3	-0.08144929
177	0x3e9d07c0	0.30669975
178	0xbe5e158b	-0.21687905
179	0x3e34049a	0.1757988
180	0xbcc1412b	-0.023590645
181	0xbda6d297	-0.081456356
182	0x3e422855	0.18960698
183	0x3d828b66	0.063742444
184	0xbe780e22	-0.24224141
185	0x3e3a1dec	0.18175477
186	0x3d788e7e	0.060682766
187	0x3dc188f6	0.09449951
188	0xbe3c1391	-0.18366839
189	0x3df618f8	0.12016481
190	0xbc721be9	-0.014777162
191	0x3e84495f	0.25837228
192	0xbe8a65db	-0.27030835
193	0x3e0a2191	0.13489367
194	0x3dd113f0	0.10208881
195	0x3d98ae07	0.07455068
196	0xbe2dd0f8	-0.16974247
197	0x3e9bfa1d	0.3046426
198	0x3e06fb1e	0.13181731
199	0x3df8982c	0.121383995
200	0x3e0005e9	0.12502255
201	0x3d2769c8	0.040872365
202	0xbd6b3b47	-0.05742958
203	0xbdf4900f	-0.119415395
204	0x3e6145e6	0.2199932
205	0x3e1c0705	0.15237053
206	0x3ecf8055	0.40527597
207	0x3eb3e2e7	0.3513405
208	0xbe985dc2	-0.29759032
209	0x3de516bc	0.11185977
210	0xbd9df7eb	-0.07713302
211	0x3d8a8c07	0.06764989
212	0xbde3ecb9	-0.11129136
213	0x3e864e37	0.26231548
214	0xbe9858c1	-0.29755214
215	0x3e499a1a	0.19687691
216	0x3d469d2e	0.048489742
217	0xbdcb2386	-0.09918885
218	0xbe1bd783	-0.1521893
219	0x3e575582	0.21028712
220	0xbd1f5609	-0.03890041
221	0x3c630e2c	0.013858359
222	0xbe40a65a	-0.18813458
223	0xbd923f2c	-0.07140955
224	0xbe8be83e	-0.27325624
225	0xbba76b8a	-0.005109255
226	0x3e87087d	0.26373664
227	0x3bc084d4	0.0058752093
228	0x3b923b00	0.0044625998
229	0xbdba8fc8	-0.09109455
230	0xbe28d6eb	-0.16488235
231	0xbe95a8e3	-0.29230413
232	0x3da8c161	0.08240009
233	0x3e6a038b	0.22852914
234	0x3e90f967	0.2831528
235	0xbce1bc40	-0.027555585
236	0xbe948972	-0.29011112
237	0x3df20dc6	0.11819033
238	0x3e61431e	0.2199826
239	0xbe2789af	-0.16361116
240	0xbe69adfa	-0.22820273
241	0xbe481278	-0.19538295
242	0xbe168dc3	-0.14702515
243	0x3e95a625	0.2922832
244	0x3e3677e6	0.17819175
245	0x3e85e183	0.26148614
246	0x3eb6936c	0.3565935
247	0x3e030d80	0.12798119
248	0xbca060f0	-0.019577473
249	0xbcd55180	-0.026039839
250	0xbdeb4560	-0.114878416
251	0xbe02c2c4	-0.1276961
252	0x3e9553c9	0.29165486
253	0xbd483d61	-0.04888666
254	0x3e5067fa	0.20352164
255	0x3ebe5895	0.37176958

regressor.0.bias f4 [40]
0	0x3c87f922	0.016598288
1	0xbe1a7803	-0.15084843
2	0xbe4ca812	-0.19985989
3	0xbe471001	-0.19439699
4	0x3d5dc046	0.054138444
5	0xbdd5583f	-0.10417222
6	0xbe636c38	-0.22209251
7	0x3d1251a9	0.03572241
8	0xbe2ee870	-0.17080855
9	0x3e4c2cd9	0.19938983
10	0xbe86f695	-0.26360002
11	0xbe145245	-0.14484508
12	0x3e9e2552	0.30887848
13	0x3e98dddc	0.29856765
14	0xbe2b6f48	-0.16741669
15	0x3e3c867e	0.1841068
16	0x3d94226c	0.07233128
17	0xbe7f31df	-0.24921368
18	0x3e4eb642	0.20186713
19	0xbdcdb188	-0.10043627
20	0x3e4fb651	0.20284392
21	0xbe023774	-0.12716466
22	0x3bf02c7f	0.007329523
23	0x3e596bfb	0.21232598
24	0xbcbe1c9e	-0.023207005
25	0x3def739d	0.11691973
26	0x3e3ae870	0.1825273
27	0xbccc155a	-0.024912525
28	0xbe324be9	-0.1741177
29	0xbe4555fe	-0.19271085
30	0x3db34bab	0.08754667
31	0x3eaca3e3	0.33718786
32	0x3e898350	0.26857996
33	0x3e9a549f	0.30142686
34	0x3dcf8c93	0.10134234
35	0xbe2c154b	-0.16804998
36	0x3ea42322	0.32058054
37	0x3e8ddae3	0.2770606
38	0x3ddab0ea	0.10678275
39	0xbe5da54c	-0.21645087

regressor.2.weight f4 [80, 40]
0	0x3d31d5e4	0.043416873
1	0xbc1758e0	-0.009237498
2	0xbdbb5f23	-0.09149005
3	0x3da770ee	0.081758365
4	0xbd24eb78	-0.040263623
5	0xbdcf9b92	-0.101370946
6	0xbd656f0e	-0.056014113
7	0xbe0ae958	-0.13565576
8	0xbda5bcb4	-0.08092633
9	0xbe03a8c6	-0.1285735
10	0xbde40c24	-0.11135128
11	0x3d4c1420	0.04982388
12	0xbdfbb34d	-0.12290058
13	0x3ba53420	0.005041614
14	0xbd84d2e7	-0.06485539
15	0xbdf4f591	-0.119609006
16	0x3e1e634d	0.15467568
17	0xbdb08715	-0.08619515
18	0xbc638950	-0.013887718
19	0x3d5e910c	0.054337546
20	0xbd2fc3a8	-0.0429112
21	0xbdd5c59b	-0.10438081
22	0x3dc2c806	0.09510808
23	0xbe0bf856	-0.13668951
24	0xbd76e9d6	-0.060281597
25	0xbd56edfe	-0.05247306
26	0xbe1cadfc	-0.15300745
27	0x3c468f30	0.0121190995
28	0xbdfd7009	-0.12374885
29	0x3d149df8	0.036283463
30	0xbc8deee0	-0.017325819
31	0x3df25f4a	0.11834581
32	0xbe1f6c69	-0.15568699
33	0xbb9edc20	-0.0048480183
34	0xbd57532a	-0.052569546
35	0xbdeb80b2	-0.11499156
36	0xbc66e0d0	-0.014091685
37	0x3bcb7ac0	0.0062097013
38	0x3d640614	0.05566986
39	0xbd9fa598	-0.077952564
40	0xbdca9234	-0.09891167
41	0x3d450960	0.048104644
42	0x3de20113	0.11035361
43	0x3d411b49	0.04714516
44	0x3dad7b86	0.08470826
45	0x3e1867bd	0.14883323
46	0xbcbee9b2	-0.023304794
47	0xbb5caf10	-0.0033673681
48	0xbe166288	-0.14686024
49	0x3dbb0f17	0.091337375
50	0xbe2fa457	-0.17152534
51	0xbb8dd055	-0.0043278136
52	0x3deaf99e	0.11473392
53	0xbb2f3e67	-0.0026740076
54	0x3dc8309b	0.09774896
55	0x3d9c6507	0.07636457
56	0x3de9a36f	0.114081256
57	0xbcec7de5	-0.028868625
58	0xbc83c3bf	-0.01608455
59	0x3d35a84d	0.044349957
60	0xbc4f589f	-0.012655406
61	0x3db11d59	0.08648176
62	0x3e3f554d	0.18684883
63	0x3d4055cf	0.046956833
64	0xbd357935	-0.044305045
65	0x3e3ad471	0.18245102
66	0x3e970886	0.2949869
67	0x3df43978	0.11925024
68	0x3ba29f31	0.0049628248
69	0x3e4a276c	0.19741601
70	0xbdbaece5	-0.09127215
71	0xbda6b794	-0.081404835
72	0x3dc12191	0.094302304
73	0xbd5b70ed	-0.05357449
74	0x3b834f44	0.004007252
75	0xbd698f52	-0.057021447
76	0xbdd70d53	-0.10500588
77	0xbe089a78	-0.13340175
78	0xbde96225	-0.11395673
79	0x3e4c37df	0.19943188
80	0xbded0fa3	-0.11575248
81	0xbda13ac0	-0.07872534
82	0x3e11984c	0.14218253
83	0x3da8dcca	0.08245237
84	0x3db32714	0.08747688
85	0x3d8c3f24	0.068479806
86	0x3e09f71b	0.1347317
87	0xbc8ff507	-0.017572893
88	0xbe00eb4b	-0.12589757
89	0x3dca2e02	0.098720565
90	0x3e28426c	0.16431588
91	0x3ce27b7d	0.027646774
92	0xbe01b2c6	-0.12665853
93	0x3e01e626	0.12685451
94	0x3df81533	0.121134184
95	0xbda6f171	-0.0815152
96	0xbddc4e65	-0.1075714
97	0x3d03be8e	0.03216415
98	0x3db4d6fa	0.08830066
99	0x3cfd2549	0.030901568
100	0x3dc007f0	0.09376514
101	0x3d55fe68	0.052244574
102	0xbd33a202	-0.043855675
103	0xbca91911	-0.020641835
104	0x3e34fa12	0.17673519
105	0xbce9e50e	-0.028551605
106	0xbe8c95ec	-0.2745813
107	0x3d5b8c8d	0.053600837
108	0x3df0947f	0.117470734
109	0x3d2f1f90	0.04275471
110	0x3e3880e6	0.18017921
111	0x3c703786	0.014661675
112	0xbc7ac78d	-0.015306366
113	0xbcf9f665	-0.030512998
114	0x3e1f1161	0.15533973
115	0xbd590586	-0.052983783
116	0xbdf55be4	-0.11980417
117	0x3d6b98aa	0.05751864
118	0xbde92696	-0.11384313
119	0x3c3bdf08	0.011466749
120	0xbd74d919	-0.059777353
121	0x3dc5d2cb	0.09659346
122	0x3dccb1ea	0.09994872
123	0xbdaed733	-0.0853714
124	0xbd218226	-0.03943076
125	0x3e09aa4c	0.1344387
126	0x3dfba6f0	0.122877
127	0x3d1eab97	0.03873786
128	0x3e6946f2	0.2278097
129	0xbdfea248	-0.124332964
130	0x3d43fdf1	0.0478496
131	0x3d3c0bfd	0.04590987
132	0x3cee2a1e	0.029072817
133	0xbc9e9523	-0.019358223
134	0x3dc1eefb	0.0946941
135	0x3e724c34	0.23661882
136	0x3e02344a	0.12715259
137	0xbb9e5b90	-0.0048326924
138	0x3e05a3fa	0.13050833
139	0x3d37fa39	0.044916365
140	0xbc001b46	-0.0078190025
141	0x3e79c312	0.2439082
142	0x3e30ed80	0.17278099
143	0xbb24f925	-0.0025172916
144	0x3dcaab7c	0.09895989
145	0x3de72d4b	0.11287936
146	0xbe0398f9	-0.12851323
147	0xbc9fa8bc	-0.019489639
148	0xbdec0274	-0.115239054
149	0xbd23be57	-0.039976444
150	0x3d05247f	0.03250551
151	0xbc3d474a	-0.011552641
152	0x3e30cbbe	0.17265221
153	0x3d8a8be4	0.06764963
154	0x3e7ea88c	0.24868983
155	0xbca45460	-0.020059764
156	0xbd123ced	-0.035702635
157	0x3e8aa7a9	0.2708104
158	0x3e38ea25	0.18058069
159	0x3d3a29ad	0.0454499
160	0xbd1a43aa	-0.037662186
161	0x3e10ca41	0.14139654
162	0x3e38a155	0.18030293
163	0xbcdef8e5	-0.027218292
164	0x3d2bf513	0.041981768
165	0xbe00dee5	-0.12585028
166	0x3e58394d	0.21115609
167	0x3e3831a8	0.17987692
168	0x3df256a1	0.118329294
169	0xbe46515d	-0.19366975
170	0x3e1677af	0.14694093
171	0x3e0096a5	0.12557466
172	0x3e364489	0.17799582
173	0x3e04ecb1	0.12980916
174	0x3d913d00	0.07091713
175	0xbc445857	-0.0119839525
176	0x3d820428	0.06348449
177	0x3e0a6216	0.1351398
178	0x3e4743e5	0.19459493
179	0xbd3abcb5	-0.04559012
180	0x3dddc599	0.108287044
181	0x3d83eaff	0.06441306
182	0x3c52b9b9	0.012861663
183	0xbd9c7bd7	-0.07640808
184	0xbc30f45c	-0.010800447
185	0x3e020731	0.12698056
186	0xbec54ca7	-0.38535044
187	0xbe49ca6b	-0.19706123
188	0x3e302f1c	0.17205471
189	0xbda42ff6	-0.0801696
190	0x3d8b4251	0.06799758
191	0xbd26bdd6	-0.040708385
192	0x3ddc7376	0.1076421
193	0x3e773f98	0.24145353
194	0x3dd79418	0.105262935
195	0xbdc0efcd	-0.09420738
196	0x3dd1c750	0.10243094
197	0x3d96ac8e	0.07357131
198	0x3e0179d1	0.12644126
199	0x3da6cae7	0.08144169
200	0x3e11c8f2	0.14236811
201	0xbdb2c8df	-0.08729719
202	0xbd18d745	-0.037314672
203	0xbd55a192	-0.05215604
204	0xbd6db328	-0.058032185
205	0x3dafee3a	0.0859036
206	0x3debc324	0.115118295
207	0x3cffa2b4	0.031205513
208	0x3db3ac1f	0.08773064
209	0x3de331fc	0.11093518
210	0x3d054f53	0.032546353
211	0xbd23496f	-0.039864954
212	0x3cbeb2c1	0.023278596
213	0x3d7d7be4	0.06188573
214	0xbe124a64	-0.1428619
215	0x3da10620	0.078624964
216	0xbea39304	-0.31948102
217	0xbde44dea	-0.111476734
218	0xbe370042	-0.17871192
219	0x3cab98e6	0.020946931
220	0xbc83c24c	-0.016083859
221	0xbe0a968a	-0.13533989
222	0x3bfee304	0.007778527
223	0xbde70999	-0.112811275
224	0x3d11c4cd	0.035588074
225	0xbecb3bb9	-0.39694002
226	0x3ddc2c37	0.10750621
227	0x3dc09ac3	0.094045185
228	0x3d8cfa25	0.06883649
229	0x3e1d1dd3	0.15343408
230	0xbde040ed	-0.109498836
231	0xbe1d4a88	-0.15360463
232	0x3d9a359a	0.07529755
233	0xbe386da3	-0.18010573
234	0xbd890d10	-0.066919446
235	0xbca81ce8	-0.020521596
236	0xbdb06500	-0.08613014
237	0xbe3face9	-0.18718304
238	0xbe48c64f	-0.19606899
239	0x3d4df9ea	0.050287165
240	0xbddc4b46	-0.10756545
241	0xbc029fb4	-0.0079726465
242	0xbd2ce6dd	-0.042212356
243	0xbb78d6f0	-0.003796991
244	0x3e0bb840	0.13644505
245	0xbcfe34e6	-0.031031083
246	0x3e131924	0.14365059
247	0x3d977987	0.073962264
248	0x3d641b72	0.055690236
249	0x3cea2e93	0.028586661
250	0x3d12fe70	0.03588718
251	0x3de018f5	0.1094226
252	0xbe09b75b	-0.13448851
253	0xbe090146	-0.13379392
254	0xbe05c302	-0.13062671
255	0xbe195651	-0.14974333

regressor.2.bias f4 [80]
0	0x3debbf82	0.115111366
1	0x3dc07205	0.093967475
2	0xbcceae94	-0.02522973
3	0x3d51eedc	0.051253185
4	0x3d28408e	0.04107719
5	0x3d4c86d7	0.04993328
6	0x3d1a5c10	0.037685454
7	0x3e11f22f	0.14252542
8	0xbd7d6ca0	-0.06187117
9	0x3b82ac27	0.0039878073
10	0x3d02d588	0.03194192
11	0xbdabcb14	-0.083883435
12	0xbde8da74	-0.113697916
13	0x3e43f423	0.191361
14	0x3e093ca3	0.13402037
15	0xbd666aa8	-0.05625406
16	0x3e0d9e09	0.13829817
17	0x3dc06a0c	0.09395227
18	0xbd4695e1	-0.04848278
19	0x3e3a6115	0.18201096
20	0x3dc3d97f	0.095629685
21	0xbdc66222	-0.09686686
22	0x3cc55ca3	0.024092024
23	0xbd331abd	-0.04372667
24	0x3c819cc0	0.015821815
25	0x3d844269	0.06457979
26	0x3d508075	0.050903756
27	0x3cf2996a	0.02961417
28	0xbdca8d36	-0.09890215
29	0xbda9eec3	-0.08297493
30	0xbc8197f3	-0.015819525
31	0xbda7706c	-0.0817574
32	0x3d8140f8	0.0631122
33	0x3c8f2df4	0.017477967
34	0xbd60be5b	-0.054869037
35	0xbe0e0b05	-0.13871391
36	0xbda8609a	-0.0822155
37	0x3d822e67	0.06356507
38	0x3e30bc2b	0.1725928
39	0xbd56ff6f	-0.052489694
40	0x3bd06ed5	0.0063608685
41	0xbdc64179	-0.09680457
42	0x3d6d8f70	0.05799812
43	0x3e1faf51	0.15594222
44	0xbd23e6c5	-0.040015
45	0x3d870fda	0.0659482
46	0x3e003944	0.12521845
47	0x3e2ef3bc	0.17085165
48	0x3dbbf2ea	0.091771916
49	0x3d4a92de	0.04945647
50	0x3deea93b	0.11653372
51	0x3db09d7e	0.08623789
52	0xbb541b40	-0.0032364875
53	0x3e1a93ef	0.15095495
54	0x3d1a6da5	0.03770222
55	0xbd9c8e6a	-0.07644351
56	0x3df1b06f	0.1180123
57	0xbd8979ea	-0.067127064
58	0xbd89a95a	-0.06721754
59	0xbd350502	-0.04419423
60	0x3990d5f9	0.00027625242
61	0xbc4507d9	-0.012025797
62	0xbc6fd790	-0.014638796
63	0x3d1cbd36	0.038266383
64	0x3d088b51	0.033335987
65	0xbd16dbb9	-0.036830638
66	0x3bb807a6	0.005616146
67	0xbca1c416	-0.019746821
68	0x3d09327d	0.033495415
69	0x3de11fef	0.10992419
70	0x3dfdab64	0.12386206
71	0x3ba20960	0.0049449652
72	0x3d0d3fa5	0.034484524
73	0xbcb5fe19	-0.02221589
74	0x3e06650c	0.13124484
75	0xbdaf1101	-0.08548165
76	0xbdb8f9a3	-0.090319894
77	0x3da332b4	0.07968655
78	0xbd90762f	-0.07053792
79	0xbd05d7b4	-0.032676414

regressor.4.weight f4 [40, 80]
0	0x3d506570	0.05087799
1	0x3d33b47c	0.043873295
2	0xbaebb590	-0.0017983187
3	0x3bcda26c	0.0062754657
4	0xbd9d6c78	-0.076867044
5	0xbda81da5	-0.08208779
6	0xbdab9334	-0.08377686
7	0x3df1cbe8	0.1180647
8	0x3c0e81be	0.008697925
9	0xbe06f1b4	-0.1317814
10	0xbc2d4081	-0.010574461
11	0x3d8049ee	0.06264101
12	0x3daaf537	0.08347552
13	0x3cb5b576	0.022181254
14	0x3dafa537	0.08576434
15	0xbd1849c9	-0.037179742
16	0xbd26f758	-0.04076323
17	0x3d4eb2f5	0.050463635
18	0x3d914bcd	0.07094536
19	0xbb87e608	-0.004147295
20	0x3d85039a	0.064948276
21	0xbe01b494	-0.12666541
22	0xbd316cbd	-0.04331659
23	0x3c27768b	0.010221134
24	0x3d892fcf	0.06698572
25	0xbd9ddd1f	-0.07708191
26	0x3da3c74e	0.07996999
27	0xbd80109d	-0.06253169
28	0x3d76f27c	0.060289845
29	0xbd0625f4	-0.03275104
30	0x3ce3e242	0.02781785
31	0x3cd25e52	0.025679741
32	0x3e05fc0b	0.13084428
33	0x3ce2feea	0.027709443
34	0x3ccd9abe	0.0250982
35	0xbd96d658	-0.073651016
36	0xbde068fb	-0.109575234
37	0x3df0fc4e	0.11766873
38	0xbc9ccbb9	-0.019140111
39	0xbdab46b0	-0.08363092
40	0xbd400237	-0.046877112
41	0x3b5baadd	0.003351859
42	0xbda6889a	-0.081315234
43	0x3d052394	0.032504633
44	0x3dacdca0	0.084405184
45	0xbdca577f	-0.0987997
46	0xbcbf3d3d	-0.02334463
47	0x3c571983	0.013128641
48	0xbd87b481	-0.06626225
49	0xbda6aab6	-0.08138029
50	0x3d782b93	0.06058843
51	0xbd189912	-0.037255354
52	0xbcc2fb80	-0.023801565
53	0x3c9b547a	0.01896118
54	0xbd009741	-0.031394247
55	0xbda07561	-0.07834888
56	0x3c025c9b	0.007956649
57	0x3d822f72	0.06356706
58	0xbd11077d	-0.035407532
59	0xbc6e2b15	-0.014536639
60	0xbdd88130	-0.105715156
61	0x3d536f98	0.051620096
62	0xbd8733a6	-0.06601648
63	0x3d3ad139	0.045609687
64	0xbd89d4e4	-0.06730059
65	0xbe001aef	-0.12510274
66	0xbd9aec63	-0.075646184
67	0x3d6cf07a	0.057846524
68	0xbd402b27	-0.046916153
69	0x3d9e1af7	0.07719987
70	0xbdbab77e	-0.091170296
71	0x3c9ab07c	0.018882982
72	0xbd81a518	-0.06330317
73	0xbdb807e2	-0.089858785
74	0x3dc2a699	0.09504432
75	0x3d8b6206	0.06805806
76	0xbce4cef2	-0.02793071
77	0xbb641137	-0.00348003
78	0x3dc66eb2	0.09689082
79	0x3dc9f41c	0.09861013
80	0xbdb68a8e	-0.08913146
81	0x3cc60348	0.024171486
82	0xbd6bdeb6	-0.05758544
83	0xbdbe6156	-0.09295909
84	0x3d97e234	0.07416192
85	0x3c86bea8	0.016448334
86	0x3d588e0c	0.05286984
87	0xbd97a092	-0.07403673
88	0xbcd509d8	-0.02600567
89	0xbdd7eb96	-0.10542981
90	0x3cf2f3e8	0.02965732
91	0xbdc9f54a	-0.09861238
92	0x3b3f3600	0.0029176474
93	0x3cdf6928	0.027271822
94	0xbc853e54	-0.016265072
95	0x3dacc5ba	0.08436151
96	0x3db91b9a	0.09038468
97	0x3daead1c	0.08529112
98	0xbdb4f8fb	-0.08836552
99	0x3d9edb3a	0.07756658
100	0xbd85b7c0	-0.06529188
101	0xbd44f24e	-0.048082642
102	0xbdaa95e8	-0.083293736
103	0xbd65c7d9	-0.056098793
104	0x3db0b2c4	0.08627847
105	0xbda6da0a	-0.081470564
106	0xbd8aca30	-0.067768455
107	0xbd5aa642	-0.053381212
108	0xbc29c7c0	-0.0103625655
109	0xbd03b21a	-0.032152273
110	0x3d98ed92	0.07467188
111	0xbcfe5e18	-0.031050727
112	0xbbe8cf10	-0.007104762
113	0x3da558f0	0.08073604
114	0x3de1fc12	0.11034407
115	0x3c989228	0.01862438
116	0xbda636f4	-0.0811595
117	0x3d866984	0.06563094
118	0xbdb38bd3	-0.08766904
119	0xbdcd0f2b	-0.10012659
120	0xbdb4c2fc	-0.08826253
121	0xbd9deae4	-0.077108175
122	0x3d3024a4	0.043003693
123	0x3d5920fc	0.053009972
124	0xbdd47535	-0.10373918
125	0xbda4a3ee	-0.080390796
126	0xbae4c780	-0.0017454475
127	0x3d875a2e	0.06608997
128	0xbdad7d8d	-0.084712125
129	0xbdd4b6b1	-0.10386408
130	0x3d9050e4	0.07046679
131	0x3d89c508	0.06727034
132	0x3dd15036	0.10220377
133	0x3abf4400	0.0014592409
134	0xbd69731c	-0.056994542
135	0xbcffe894	-0.031238832
136	0x3d0c9d7c	0.034329876
137	0xbcd2d728	-0.02573736
138	0xbdc41043	-0.09573414
139	0x3de21a54	0.11040178
140	0xbd196eb6	-0.037459098
141	0xbc9fb938	-0.019497499
142	0xbc34e248	-0.011040278
143	0x3c9cb1b8	0.019127712
144	0x3de23668	0.110455334
145	0xbd5aeb5e	-0.05344712
146	0x3dd63b12	0.104604855
147	0x3d068900	0.032845497
148	0xbddb94e0	-0.10721755
149	0xbd354224	-0.04425253
150	0xbcddfd24	-0.027098246
151	0x3dd45906	0.103685424
152	0xbddc9c76	-0.1077203
153	0xbcd912ec	-0.02649828
154	0xbd665a94	-0.056238726
155	0x3d49e610	0.04929167
156	0x3d8fc68c	0.07020292
157	0xbd36f572	-0.04466767
158	0x3da94540	0.082651615
159	0x3d560d28	0.05225864
160	0x3aeeb340	0.001821138
161	0xbd7f27d8	-0.062293857
162	0xbd0d3c4b	-0.034481328
163	0xbdbcc41b	-0.09217092
164	0x3c9e9ba5	0.019361326
165	0xbd8c7ad8	-0.06859368
166	0x3d2b6c1b	0.041851144
167	0x3dc75eca	0.097348765
168	0xbdb1496e	-0.08656584
169	0xbd674c9d	-0.05646955
170	0x3b86937c	0.004106937
171	0x3d1ebcfc	0.03875445
172	0x3cabb131	0.020958515
173	0xbd12bbc7	-0.03582361
174	0x3d8d5801	0.06901551
175	0xbdb460a6	-0.08807497
176	0x3da41219	0.08011264
177	0xbd765597	-0.06014022
178	0x3dc09ca2	0.09404875
179	0x3daebd90	0.0853225
180	0x3d0987bc	0.033576712
181	0xbc8011c3	-0.01563347
182	0xbd97358e	-0.073832616
183	0x3d2961af	0.041352924
184	0xbbf14a2d	-0.007363579
185	0xbd17d2ea	-0.037066378
186	0xbdca46b5	-0.098767675
187	0xbce70ab8	-0.028203353
188	0xbdf7dc45	-0.1210256
189	0x3d952bc8	0.07283741
190	0x3dc2618c	0.09491262
191	0xbddb6ee2	-0.107145086
192	0x3d246fb8	0.040145606
193	0xbd0fa9cb	-0.035074037
194	0xbd122450	-0.03567916
195	0xbc04609f	-0.008079677
196	0x3cdcc8d6	0.026951235
197	0x3d9ed5d0	0.07755625
198	0xbdac8908	-0.08424574
199	0xbc764790	-0.01503171
200	0xbd974f62	-0.07388188
201	0x3d1335c5	0.03593995
202	0xbde4e2fc	-0.11176106
203	0x3cf59c68	0.029981807
204	0xbd02ae52	-0.031904526
205	0xbc867344	-0.016412385
206	0x3c9d08fe	0.019169327
207	0xbd172f7e	-0.036910526
208	0x3dcc5ba5	0.09978417
209	0xbcf48cde	-0.029852327
210	0xbd941831	-0.07231177
211	0xbb8bcbf0	-0.0042662546
212	0xbd86b4fc	-0.06577489
213	0xbd257ade	-0.04040038
214	0xbcee89aa	-0.029118378
215	0xbcf832e0	-0.030297697
216	0xbc07f66b	-0.008298497
217	0x3d8e0524	0.06934574
218	0xbd94b274	-0.072606
219	0xbd1a5c73	-0.037685823
220	0xbdaada0e	-0.08342372
221	0x3d6b8c1c	0.057506666
222	0x3cf54f78	0.02994512
223	0xbd38e17b	-0.04513691
224	0x3de16c36	0.11006968
225	0x3d325c72	0.043545194
226	0x3c980a5c	0.018559627
227	0xbda4ac70	-0.08040702
228	0xbcdc930a	-0.026925582
229	0xbd5a27d2	-0.05326063
230	0xbdb0e794	-0.0863792
231	0xbd76d804	-0.060264602
232	0xbd35bc19	-0.044368837
233	0x3d804959	0.0626399
234	0xbda4ff2a	-0.08056481
235	0x3dcb1e7e	0.09917925
236	0x3da37792	0.079817906
237	0x3d647f05	0.055785198
238	0x3dd24988	0.10267931
239	0xbd3ac4f2	-0.045597978
240	0xbdce7819	-0.100815006
241	0x3b63bfa0	0.0034751669
242	0x3da00982	0.078143135
243	0x3d9ce2b8	0.07660431
244	0xbc709190	-0.014683142
245	0xbd9bbb58	-0.07604092
246	0x3d01a738	0.031653613
247	0xbdb80e6d	-0.089871265
248	0x3ce984d5	0.028505722
249	0xbc6a6c18	-0.014307998
250	0x3dc9ee59	0.09859914
251	0x3b97d670	0.0046337172
252	0xbc857f41	-0.016296031
253	0x3dcd6a91	0.100300916
254	0x3d692921	0.05692399
255	0x3bfb988f	0.0076780985

regressor.4.bias f4 [40]
0	0x3dcfdf77	0.101500444
1	0xbdbedc48	-0.09319359
2	0x3d155cde	0.03646552
3	0xbca56640	-0.020190358
4	0x3e2f0ea5	0.1709543
5	0x3df72f8b	0.12069615
6	0x3cf95f43	0.030440932
7	0xba01241a	-0.0004926339
8	0xbd04369e	-0.03227865
9	0x3c93203e	0.01795971
10	0x3dd6f114	0.10495201
11	0xbe18196d	-0.14853449
12	0xbd7fd206	-0.062456153
13	0xbda2df2f	-0.07952725
14	0x3d26bd84	0.04070808
15	0x3c312d8a	0.01081408
16	0xbd4a62a8	-0.049410492
17	0xbd4dd499	-0.050251577
18	0x3d0e77f7	0.034782376
19	0xbc8a4d94	-0.016882695
20	0x3b9ff416	0.0048813922
21	0x3dc57d4f	0.09643041
22	0x3d67821f	0.056520578
23	0xbd85d27f	-0.065342896
24	0xbd5fc572	-0.054631658
25	0x3dcb0767	0.09913521
26	0xbd360e56	-0.044447266
27	0x3db8d203	0.090244316
28	0xbd72ccdf	-0.05927741
29	0x3e09c95f	0.13455723
30	0x3d6d1d36	0.057889186
31	0x3dd78cb8	0.10524887
32	0xbdadfdb1	-0.084956534
33	0x3d6d5201	0.057939533
34	0xbd282c10	-0.041057646
35	0xbd0d9fd2	-0.034576245
36	0x3dd52b84	0.104086906
37	0xbdcf9090	-0.10134995
38	0xbdf6be26	-0.12047987
39	0x3b3e8d00	0.0029075742

regressor.6.weight f4 [1, 40]
0	0xbd9edf4c	-0.07757434
1	0x3de0a67a	0.10969253
2	0xbe0d882b	-0.13821475
3	0xbd99015e	-0.07470964
4	0xbc03dfea	-0.008048991
5	0xbe1df1cb	-0.15424268
6	0x3d9954d6	0.07486884
7	0x3d6392a8	0.055559784
8	0xbda7991c	-0.081835
9	0xbe0b5fa1	-0.13610698
10	0x3d81bc20	0.0633471
11	0x3d62060a	0.05518154
12	0xbd17fbb7	-0.03710529
13	0x3d581c0b	0.05276112
14	0x3a2abc8b	0.00065130804
15	0x3d5ecca9	0.054394398
16	0x3db9f680	0.09080219
17	0xbe05bb5d	-0.13059755
18	0xbcc13f11	-0.023589643
19	0x3e0b240b	0.13587968
20	0x3d9051a8	0.07046825
21	0xbd32659c	-0.043553934
22	0x3db82cde	0.08992933
23	0x3dbe85e5	0.09302882
24	0xbd883642	-0.06650974
25	0xba5acd71	-0.0008346653
26	0x3e1fc952	0.15604141
27	0xbd94d80e	-0.07267772
28	0x3dfae8d6	0.12251441
29	0xbd2c0754	-0.041999176
30	0x3d2bca10	0.04194075
31	0x3df65058	0.12027043
32	0x3ceed657	0.02915494
33	0xbdfbdcbe	-0.122979626
34	0xbdcc78f1	-0.09984005
35	0x3ca4e7d8	0.020130083
36	0xbd118ef4	-0.03553672
37	0xbd52a14c	-0.051423356
38	0xbda544a3	-0.08069732
39	0x3d82aff0	0.06381214
