experiments/models/landS_maml_model9.pt (torch, 31039 bytes, 7 tensors)

regressor.0.weight f4 [40, 10]
0.03205271 0.31479624 0.28373235 -0.09801737 0.0016486645 0.27006683 0.24226947 0.42077425
-0.31232974 -0.26430514 0.06557783 0.03411352 0.13731138 0.15597732 0.2987202 -0.47864977
-0.047415577 0.051932953 0.104064465 -0.17418692 0.1114256 -0.096798785 0.24200478 -0.13275877
-0.1125056 0.2989501 0.54158473 0.33437058 0.043788522 0.05473581 -0.31176776 0.3079885
0.06274604 0.33041692 0.050443977 -0.04081914 0.3333483 0.0056594713 -0.09100966 -0.005102366
-0.00012093682 -0.0113834925 -0.10788186 0.10208495 0.03523323 0.4239278 0.05906197 0.006748251
-0.12844755 0.09521091 0.008639881 0.08576874 -0.0046473052 0.22575708 -0.19881436 -0.15490018
0.31383318 0.27699262 -0.10558976 -0.07693839 0.1677743 0.28233153 0.088677496 0.2529187
-0.05370733 0.43200254 0.094533175 0.15486698 0.1221686 0.03045255 0.019074349 0.15767053
0.002337108 -0.042151984 -0.24557799 -0.268671 0.2359907 0.013703507 0.082321614 -0.1063727
-0.086149625 0.07733774 0.20521034 0.08570156 -0.11874479 0.19984815 0.228211 -0.09400045
0.12641153 0.012088209 0.26023418 0.27500486 0.2360704 -0.20363833 -0.23289064 0.017182138
-0.109478585 0.07488286 0.026245385 -0.03282824 -0.07557311 0.16784906 -0.12909701 -0.120198
0.15150195 0.2556498 0.45604402 0.06392993 -0.2723846 -0.03171593 -0.11925229 -0.093495235
-0.24804285 0.25542134 0.22078809 -0.4200299 0.31966114 0.06927555 0.066009045 -0.074821085
0.1218058 -0.030155323 0.18157469 -0.039366625 -0.054974854 -0.22500879 0.39304295 0.16297768
-0.28883323 -0.0659647 0.18946458 0.03863516 0.32124394 0.1374414 0.070774734 0.3684425
0.067496955 -0.19356668 0.20135131 -0.099611685 -0.117138155 -0.07575063 0.24530311 0.03407706
-0.10360025 0.13996974 0.36349726 0.26603135 -0.10764381 0.014692664 0.02331004 0.3097123
-0.0114684785 0.31409386 -0.035594374 -0.073081076 0.34678912 0.21748766 -0.30752933 -0.10060984
0.10415739 0.17182387 -0.045886904 0.055530433 0.042675883 0.44584206 0.50945693 -0.12764618
-0.017568529 -0.2154893 0.20904343 -0.20652138 -0.24551329 0.26401064 -0.18221429 0.089115806
0.4436756 0.29111972 -0.20600498 0.08440423 -0.18681002 -0.1863081 -0.008812648 0.261157
-0.24446034 -0.32998827 0.34022948 0.013720434 -0.28148493 0.15069905 0.04537238 0.17421405
0.3013749 -0.09196572 -0.15363899 0.00052075816 0.5349161 0.38734993 0.0456312 -0.005141109
-0.07449186 0.08120911 -0.20983136 -0.02307107 0.0066307187 0.41315806 0.5688394 0.062365916
0.18097427 -0.09505153 -0.07542065 -0.1680913 0.24082582 0.27778074 -0.21543072 0.17046703
0.004863117 0.13663447 0.055541635 0.07885587 0.07472934 -0.061456803 -0.14613065 0.28147298
0.25980237 0.2002482 0.1637254 0.2777313 -0.20691913 -0.28602284 0.00094874867 0.17815453
-0.084091105 0.29797578 -0.0086373985 -0.037838217 0.11093268 0.25644633 0.04069358 0.13114712
0.010403268 -0.122185186 0.31102127 -0.06264246 -0.29280978 0.2849881 0.6830282 0.26567754
0.26667717 -0.00046613812 0.29258847 -0.04321672 -0.21200529 0.2899025 0.12212497 0.35404924
00000000: b449 033d f92c a13e 5e45 913e 55bd c8bd
00000010: 0018 d83a 3346 8a3e 7d15 783e b96f d73e
00000020: afe9 9fbe 0153 87be ab4d 863d 9eba 0b3d
00000030: 5b9b 0c3e 85b8 1f3e dbf1 983e 9511 f5be
00000040: d636 42bd a6b7 543d c01f d53d 0e5e 32be
00000050: 1b33 e43d 713e c6bd 1ad0 773e eaf1 07be
00000060: 5669 e6bd fd0f 993e 4ca5 0a3f 9f32 ab3e
00000070: 985b 333d a832 603d 06a0 9fbe abb0 9d3e
00000080: ff80 803d 682c a93e 589e 4e3d f831 27bd
00000090: a1ac aa3e 1673 b93b 4663 babd c031 a7bb
000000a0: 769f fdb8 d481 3abc 2af1 dcbd ea11 d13d
000000b0: b850 103d 110d d93e f7ea 713d 6f20 dd3b
000000c0: c187 03be f0fd c23d 4a8e 0d3c 85a7 af3d
000000d0: 6c48 98bb dd2c 673e fe95 4bbe 279e 1ebe
000000e0: beae a03e fad1 8d3e 723f d8bd e091 9dbd
000000f0: 07cd 2b3e c28d 903e 8c9c b53d 8f7e 813e
00000100: 38fc 5bbd 702f dd3e 9c9a c13d 7395 1e3e
00000110: 8833 fa3d a077 f93c cf41 9c3c 6274 213e
00000120: 2a2a 193b 8fa7 2cbd cc78 7bbe 3f8f 89be
00000130: 8ca7 713e ad84 603c 3c98 a83d eed9 d9bd
00000140: 376f b0bd 4063 9e3d a922 523e 4d84 af3d
00000150: 7830 f3bd fea4 4c3e 25b0 693e 4f83 c0bd
00000160: 0672 013e a00d 463c 6a3d 853e 70cd 8c3e
00000170: 70bc 713e 9186 50be e27a 6ebe 8ec1 8c3c
00000180: 4f36 e0bd 2f5c 993d 9000 d73c e876 06bd
00000190: 13c6 9abd a0e0 2b3e 0232 04be 5e2a f6bd
000001a0: 5423 1b3e 88e4 823e 9a7e e93e b2ed 823d
000001b0: ff75 8bbe 90e8 01bd 8b3a f4bd 6e7a bfbd
000001c0: f2fe 7dbe 96c6 823e 4616 623e 290e d7be
000001d0: a0aa a33e 57e0 8d3d c02f 873d cc3b 99bd
000001e0: 5275 f93d 4c08 f7bc b7ee 393e e63e 21bd
000001f0: 502d 61bd b468 66be ed3c c93e 9fe3 263e
00000200: f3e1 93be 8018 87bd 0103 423e e73f 1e3d
00000210: 167a a43e 70bd 0c3e 58f2 903d 7fa4 bc3e
00000220: d83b 8a3d 5836 46be 0a2f 4e3e 3601 ccbd
00000230: 21e6 efbd 2523 9bbd bd30 7b3e 6394 0b3d
00000240: 5e2c d4bd 3a54 0f3e 501c ba3e 4335 883e
00000250: 5c74 dcbd 80b9 703c b2f4 be3c 9c92 9e3e
00000260: 49e6 3bbc e9d0 a03e 68cb 11bd 88ab 95bd
00000270: 588e b13e 16b5 5e3e 7c74 9dbe 880c cebd
00000280: 7850 d53d 99f2 2f3e e8f3 3bbd e173 633d
00000290: e8cc 2e3d 6945 e43e c56b 023f aeb5 02be
000002a0: e0eb 8fbc 3aa9 5cbe 7b0f 563e 577a 53be
000002b0: d667 7bbe 672c 873e 6296 3abe 5982 b63d
000002c0: 7329 e33e a50d 953e f8f2 52be 20dc ac3d
000002d0: 204b 3fbe 8dc7 3ebe ed62 10bc 5fb6 853e
000002e0: d053 7abe 39f4 a8be 8f32 ae3e accb 603c
000002f0: cb1e 90be da50 1a3e 64d8 393d 2b65 323e
00000300: d04d 9a3e 8658 bcbd 8a53 1dbe 7d83 083a
00000310: 43f0 083f bb52 c63e c8e7 3a3d c076 a8bb
00000320: 308f 98bd f650 a63d 08de 56be 8aff bcbc
00000330: 8046 d93b 7489 d33e 759f 113f 6773 7f3d
00000340: 5251 393e 60aa c2bd 2476 9abd 2020 2cbe
00000350: 0b9b 763e 4739 8e3e df99 5cbe e98e 2e3e
00000360: c85a 9f3b e8e9 0b3e a07f 633d 307f a13d
00000370: b20b 993d 21ba 7bbd 46a3 15be 3a1d 903e
00000380: d104 853e dd0d 4d3e a2a7 273e cc32 8e3e
00000390: 9ce2 53be 9671 92be 72b5 783a 246e 363e
000003a0: f537 acbd 4890 983e e083 0dbc 3ffc 1abd
000003b0: ac30 e33d ef4c 833e 50ae 263d 6e4b 063e
000003c0: 7872 2a3c 3a3c fabd 2e3e 9f3e b14a 80bd
000003d0: 2aeb 95be f6e9 913e f0da 2e3f e306 883e
000003e0: e989 883e 0064 f4b9 28ce 953e 0404 31bd
000003f0: ea17 59be 1a6e 943e a81c fa3d f145 b53e

regressor.0.bias f4 [40]
0.00022584447 0.15929711 0.32106555 0.16904218 0.08654122 -0.28365365 -0.24356121 0.1616955
-0.003929761 0.07573235 0.08990754 0.016655535 0.25089616 0.122984506 -0.06790435 -0.023040168
0.3399123 -0.3022197 -0.18065438 -0.093046695 0.12775603 -0.1637688 0.20940575 0.056454673
0.039488073 -0.19620115 -0.0900965 -0.032392155 -0.2684055 0.23151274 0.04212495 -0.08186945
-0.14176185 0.08515911 0.17948839 0.25711358 0.24857436 0.00840889 0.35303283 -0.04192391
00000000: aad0 6c39 c81e 233e b462 a43e 6519 2d3e
00000010: 863c b13d 0d3b 91be 1c68 79be 8193 253e
00000020: 39c5 80bb 9019 9b3d 7221 b83d 3071 883c
00000030: 7675 803e 4ddf fb3d 7011 8bbd bcbe bcbc
00000040: fc08 ae3e 8abc 9abe 76fd 38be 448f bebd
00000050: 7ad2 023e 02b3 27be 766e 563e 043d 673d
00000060: 3fbe 213d f4e8 48be 8484 b8bd a3ad 04bd
00000070: 726c 89be ad11 6d3e 368b 2c3d 2cab a7bd
00000080: 052a 11be e667 ae3d cecb 373e 64a4 833e
00000090: 478a 7e3e 71c5 093c b8c0 b43e 68b8 2bbd

regressor.2.weight f4 [80, 40]
0.066225834 -0.12940998 -0.022633871 0.09851716 0.021197485 0.0235789 0.16476268 -0.13058157
-0.044361856 -0.12066713 -0.013075069 -0.029358191 -0.09493729 -0.005555137 -0.02658759 -0.06152799
0.042328715 -0.044782635 0.12439473 0.08132112 -0.040584 -0.039760355 0.04270908 0.09176217
0.15191546 0.2007835 0.009677792 0.14926274 0.07810734 0.0078076674 0.053255234 0.16336165
0.012980034 -0.13951355 0.17328396 0.21671396 0.08710697 -0.059883546 0.04826619 -0.025891945
-0.0006051712 -0.074745685 0.16877535 0.17148612 -0.05305306 -0.14137094 0.17384881 0.072399355
0.051840276 -0.1238618 0.15744905 0.094027705 0.019062074 -0.06078889 0.13758098 0.03835615
0.18645266 -0.030514134 -0.11032843 0.14876027 -0.044422988 0.03817518 0.012365159 0.12188248
0.058588732 -0.0027876971 -0.11273508 -0.027952107 0.09039259 -0.108384535 0.13271572 -0.025318619
0.10485663 0.103021145 -0.04023409 0.15218465 -0.101208344 0.1014058 0.03876233 -0.01729782
-0.053637467 -0.1515982 0.011946136 -0.06956246 0.12331482 0.10527133 0.20592739 -0.1776475
0.1297759 0.02543134 0.090426 -0.15742902 -0.20882155 0.0721606 -0.015987271 0.013336549
0.07871256 0.024990387 -0.089755215 0.0747267 0.05040162 -0.0251576 0.08238056 -0.062536605
0.22664952 0.10185754 -0.1187362 0.016313702 0.019559044 0.078890465 -0.25571263 0.11350761
0.17161927 -0.35256344 0.1627487 0.009042294 0.10729156 0.1272297 -0.074271455 0.09396149
0.09106979 -0.06867285 0.12624705 0.010706647 0.03247162 -0.02888398 -0.054747432 0.0023078006
-0.10191688 -0.050560355 0.066544525 0.028117059 0.018654969 0.044529516 0.14508209 -0.11026517
-0.0729605 0.08345057 -0.021292109 0.12184404 0.21901348 0.17749694 0.1921393 0.1649521
-0.0155683 0.21434447 -0.017983295 0.014738192 0.010619145 0.09435633 -0.08139433 0.1617651
0.10582149 -0.21876116 0.12083253 0.05138265 -0.00024023236 0.14651859 -0.019254906 0.059284374
0.093991 0.10096158 -0.05283273 -0.069856256 0.06015268 0.01877661 0.010078311 0.15552877
-0.02123402 -0.06920549 -0.0010936707 0.04577838 0.12437178 -0.013885736 -0.08404572 -0.13132659
0.10868995 0.019649506 0.056208044 -0.086626686 -0.13494179 -0.020959347 -0.008200407 0.05050826
-0.053477407 -0.11721321 0.069546804 -0.018225998 0.026560381 -0.10103972 0.06251456 -0.026477054
-0.11134133 0.03398259 -0.061666846 -0.11508599 -0.06738688 -0.09712069 -0.10590868 0.027900144
0.035029337 -0.15350316 0.18323725 0.14300878 0.035264015 0.031382244 -0.052622937 -0.18616247
0.09147933 -0.093377024 0.05449987 -0.08219763 -0.21408226 0.004182911 0.12981035 0.077282935
0.16273715 -0.10505996 0.10648906 0.18898773 0.14019643 0.0011529734 0.20043768 0.12170591
0.23123892 0.15937014 -0.026997913 0.1405364 0.18680885 0.043615367 -0.10172364 -0.020075573
-0.13102274 -0.30142853 -0.08052402 0.14490879 -0.0017198412 0.12612632 0.045873243 0.031952918
-0.054687332 -0.19786064 0.045747574 -0.07014125 0.054425202 0.059058554 -0.03390298 0.11742235
-0.11971841 0.06272807 0.015815996 0.072115004 0.013769524 0.12218724 0.05630305 -0.018581534
00000000: 69a1 873d 0d84 04be ab6a b9bc 5dc3 c93d
00000010: 59a6 ad3c 8a28 c13c 8cb7 283e 2db7 05be
00000020: c7b4 35bd 5420 f7bd d038 56bc 9780 f0bc
00000030: 7b6e c2bd de07 b6bb 38ce d9bc c604 7cbd
00000040: e060 2d3d ff6d 37bd aac2 fe3d b08b a63d
00000050: 693b 26bd c1db 22bd b7ef 2e3d ceed bb3d
00000060: ba8f 1b3e 319a 4d3e 9a8f 1e3c 55d8 183e
00000070: bef6 9f3d 76d7 ff3b 2922 5a3d 4748 273e
00000080: 35aa 543c a4dc 0ebe 5a71 313e 44ea 5d3e
00000090: 2465 b23d 7348 75bd c5b2 453d 581b d4bc
000000a0: 5aa4 1eba 4414 99bd 72d3 2c3e 0f9a 2f3e
000000b0: 2a4e 59bd 8bc3 10be 6c05 323e 1d46 943d
000000c0: 7856 543d 41ab fdbd 533a 213e 9991 c03d
000000d0: 1128 9c3c c5fd 78bd 07e2 0c3e 571b 1d3d
000000e0: 72ed 3e3e c7f8 f9bc dff3 e1bd 9d54 183e
000000f0: e1f4 35bd 945d 1c3d 3c97 4a3c 869d f93d
00000100: bdfa 6f3d ccb1 36bb a6e1 e6bd d1fb e4bc
00000110: c01f b93d b6f8 ddbd a1e6 073e fe68 cfbc
00000120: 13bf d63d c0fc d23d 80cc 24bd 4bd6 1b3e
00000130: 5246 cfbd d8ad cf3d 40c5 1e3d 28b4 8dbc
00000140: f6b2 5bbd 8f3c 1bbe bab9 433c c376 8ebd
00000150: 7b8c fc3d 7f98 d73d a1de 523e 3ae9 35be
00000160: f9e3 043e 6355 d03c 4431 b93d 1335 21be
00000170: 51d5 55be f0c8 933d bdf7 82bc 8a81 5a3c
00000180: 0d34 a13d a4b8 cc3c 95d1 b7bd 500a 993d
00000190: ee71 4e3d 5017 cebc 24b7 a83d 3113 80bd
000001a0: d016 683e b09a d03d f72b f3bd 50a4 853c
000001b0: 4a3a a03c 5391 a13d c4ec 82be ae76 e83d
000001c0: f6bc 2f3e 3283 b4be 98a7 263e 2126 143c
000001d0: adbb db3d 8148 023e a21b 98bd e26e c03d
000001e0: cc82 ba3d 5aa4 8cbd e846 013e ef6a 2f3c
000001f0: f600 053d 199e ecbc d83e 60bd 783e 173b
00000200: ccb9 d0bd 6018 4fbd 7f48 883d bf55 e63c
00000210: 4ed2 983c 9564 363d 6690 143e b5d2 e1bd
00000220: 516c 95bd 22e8 aa3d ca6c aebc 5e89 f93d
00000230: 1245 603e c2c1 353e 2ac0 443e 34e9 283e
00000240: 2f12 7fbc 1e7d 5b3e b451 93bc 7578 713c
00000250: ecfb 2d3c e43d c13d 12b2 a6bd c0a5 253e
00000260: f0b8 d83d ed02 60be 0c77 f73d 9d76 523d
00000270: e2e6 7bb9 f808 163e 77bc 9dbc 2cd4 723d
00000280: 5a7e c03d f2c4 ce3d 2267 58bd cc10 8fbd
00000290: a862 763d 68d1 993c 801f 253c ef42 1f3e
000002a0: f8f2 adbc 9cbb 8dbd 8059 8fba 1c82 3b3d
000002b0: a2b6 fe3d 0081 63bc 2a20 acbd 7a7a 06be
000002c0: d698 de3d 00f8 a03c 683a 663d 5569 b1bd
000002d0: 2e2e 0abe f0b2 abbc 005b 06bc c0e1 4e3d
000002e0: 200b 5bbd 7b0d f0bd 8e6e 8e3d b04e 95bc
000002f0: 2895 d93c eaed cebd a207 803d 68e6 d8bc
00000300: ec06 e4bd 5431 0b3d 6096 7cbd 34b2 ebbd
00000310: 2202 8abd 36e7 c6bd a6e6 d8bd d88e e43c
00000320: ec7a 0f3d ef2f 1dbe 8ca2 3b3e e570 123e
00000330: 0071 103d ab8a 003d 268b 57bd 60a1 3ebe
00000340: 8459 bb3d 743c bfbd 413b 5f3d 3b57 a8bd
00000350: 6138 5bbe cd10 893b 01ed 043e 8446 9e3d
00000360: 91a4 263e ad29 d7bd f016 da3d 0086 413e
00000370: a78f 0f3e 5e1f 973a 893f 4d3e f340 f93d
00000380: e5c9 6c3e ed31 233e ba2a ddbc c6e8 0f3e
00000390: d24a 3f3e 07a6 323d 7c54 d0bd 8775 a4bc
000003a0: d32a 06be d754 9abe c7e9 a4bd f862 143e
000003b0: 4b6c e1ba 4227 013e 95e5 3b3d 10e1 023d
000003c0: d3ff 5fbd fb9b 4abe cf61 3b3d 37a6 8fbd
000003d0: f6ec 5e3d 62e7 713d dadd 0abd 217b f03d
000003e0: ed2e f5bd 9377 803d 8c90 813c 08b1 933d
000003f0: 9299 613c 4e3d fa3d 079e 663d 4d38 98bc

regressor.2.bias f4 [80]
0.19914971 -0.07260926 0.009648779 0.1553576 -0.094636686 0.058518127 0.055194534 -0.07359082
0.20289928 0.19198501 -0.08629948 -0.05704994 -0.17435262 -0.09644893 -0.012140113 -0.05799516
0.09383527 -0.12668025 0.091332816 0.041011672 -0.091343746 -0.013611808 -0.009034501 0.06213623
0.061584413 0.20313294 0.17206825 0.18246269 -0.050088007 0.045128893 -0.05882603 0.08179942
0.15447724 0.13673899 0.09844277 0.09242905 -0.1236561 0.17665817 0.122146234 0.006712922
-0.079328254 -0.044252615 0.029166112 0.17559165 0.06414344 -0.022991762 0.23965183 -0.052524526
-0.14998718 0.052944236 0.10730318 -0.017644098 -0.0839528 0.18544658 -0.03823742 -0.07872446
0.14247924 0.18904106 -0.088097446 0.033412956 0.06403753 0.105312265 -0.08050872 -0.057805467
-0.10317534 -0.10761792 0.053777978 0.09527567 -0.11265989 0.10756211 0.039993092 0.016098067
0.20138557 0.047066685 -0.025580881 0.15012039 -0.104184315 -0.09756769 0.07450352 -0.044581376
00000000: e7ed 4b3e 2ab4 94bd ea15 1e3c 1016 1f3e
00000010: e1d0 c1bd b4b0 6f3d aa13 623d c9b6 96bd
00000020: d4c4 4f3e b897 443e c8bd b0bd 33ad 69bd
00000030: 7e89 32be 0487 c5bd 53e7 46bc 558c 6dbd
00000040: b52c c03d 78b8 01be b30c bb3d dbfb 273d
00000050: 6e12 bbbd 1004 5fbc 7205 14bc 8f82 7e3d
00000060: f03f 7c3d 1502 503e a932 303e 80d7 3a3e
00000070: 1529 4dbd 13d9 383d 90f3 70bd 7486 a73d
00000080: 482f 1e3e 4e05 0c3e 5d9c c93d 714b bd3d
00000090: 693f fdbd e1e5 343e ce27 fa3d 12f8 db3b
000000a0: da76 a2bd 3b42 35bd c5ed ee3c 4cce 333e
000000b0: a35d 833d 3859 bcbc 4a67 753e f523 57bd
000000c0: 3d96 19be 0edc 583d c5c1 db3d 5b8a 90bc
000000d0: 72ef abbd b5e5 3d3e d79e 1cbd 4a3a a1bd
000000e0: 14e6 113e fb93 413e 6f6c b4bd 06dc 083d
000000f0: 1c26 833d f5ad d73d c1e1 a4bd 6dc5 6cbd
00000100: 984d d3bd c966 dcbd 4c46 5c3d e41f c33d
00000110: 3aba e6bd 8649 dc3d cccf 233d 18e0 833c
00000120: 0538 4e3e ffc8 403d ff8e d1bc 29b9 193e
00000130: 965e d5bd 92d1 c7bd 4d95 983d f69a 36bd

regressor.4.weight f4 [40, 80]
-0.08723089 -0.090088464 -0.09644986 0.030009037 -0.09901313 0.095077485 -0.09968135 -0.06533781
-0.00468599 -0.028535204 -0.006943237 0.0059571797 -0.06632024 -0.06955997 -0.088467635 -0.084918246
-0.016625756 -0.029866457 -0.0904146 -0.09851425 -0.021936186 0.09124671 0.017401243 -0.09359168
0.08969788 -0.030945279 -0.030176006 0.04979705 0.10093138 -0.030979428 -0.0036086366 -0.060149264
0.080335334 -0.044955805 -0.077054515 -0.078755215 -0.041908823 -0.09364061 -0.005009529 0.025941059
-0.09037465 0.11438336 -0.01657707 -0.053702652 0.09507866 -0.052321423 0.064551204 -0.09824658
0.097743854 0.015912356 -0.039315745 0.09650442 0.010731548 -0.02349839 0.09737986 0.034300532
-0.005658204 -0.11907171 -0.010399684 0.062639095 -0.09227994 -0.0777448 0.0031796158 -0.092552625
0.066486984 -0.07764758 0.042413212 -0.018452216 -0.053231955 0.08037917 -0.09640724 0.10780807
0.12143149 0.01893881 -0.041463252 -0.10955076 0.07706978 0.007972743 -0.07126419 -0.009758841
0.010947598 0.096492365 0.06826825 0.0069817766 0.0874771 0.059219416 0.0043600993 -0.024249848
0.063021585 -0.031957276 -0.07574598 -0.09274758 -0.055454034 -0.033420622 -0.085280195 -0.025761383
0.052549623 -0.01612278 -0.01417146 0.10522719 0.09318991 0.046870172 -0.042423297 0.06062145
-0.09231804 0.001382075 -0.09580738 -0.08130057 -0.07854509 0.1175959 -0.031286806 -0.006438571
-0.05555556 -0.030421304 -0.0060000713 -0.0979513 0.07822934 0.11933962 0.004067927 0.029015372
0.03154494 -0.05459462 0.048676115 -0.0643731 -0.04652187 0.07040493 -0.07468835 0.017504103
-0.081516095 0.02111128 0.045518458 -0.109036416 0.063987225 0.014664289 0.05026093 -0.07087586
0.0027457976 -0.012200667 0.07979872 -0.033976164 0.03508475 0.08540952 -0.030041786 0.05058253
-0.092345566 -0.10636876 -0.045525875 -0.09285007 0.028987586 0.06007887 -0.099009804 0.030121446
0.07597035 0.11981234 0.002591111 -0.036833182 0.095279865 0.004103318 -0.03514532 -0.09273823
0.039318945 -0.017180445 0.037554584 0.06584686 -0.0842234 -0.047231138 0.09164778 0.033186182
-0.09315313 0.010345685 -0.029405082 -0.07873346 -0.11726469 -0.053556804 -0.10877988 0.066976406
-0.006321738 -0.041722834 0.010039602 -0.035726298 -0.07776454 -0.09589628 -0.057837233 -0.039676655
0.04300496 0.04516653 -0.06194175 -0.0509984 -0.07676897 -0.019747622 -0.08327017 0.0662384
-0.040308394 0.033811927 -0.12665501 0.06397978 -0.06884792 0.05777475 -0.025197443 -0.0602561
-0.058852687 0.021295462 -0.032177605 0.044296242 -0.12604606 -0.08347755 -0.0029058259 -0.050516576
-0.11018299 -0.03997893 0.05249247 -0.0077573145 -0.11367703 0.052515067 0.012222665 0.04625092
-0.057538416 -0.088791296 -0.0030797464 0.027240619 0.072048925 -0.050515436 -0.104509585 0.033983365
-0.021994032 0.07784645 0.026733821 0.024566015 0.010740332 -0.11680019 -0.047269616 -0.029329017
-0.040859036 0.0030484907 0.083531484 -0.010162814 0.0129208565 0.100529276 0.015650898 -0.05709994
0.037846792 0.009070711 -0.060140397 0.11859586 -0.089437075 -0.022926718 0.024786517 -0.036300946
0.1019283 -0.052700154 0.054992612 0.0003648451 0.13042502 0.11025013 0.07206494 0.017989803
00000000: 1ca6 b2bd 4d80 b8bd 8187 c5bd 83d5 f53c
00000010: 65c7 cabd fcb7 c23d bc25 ccbd d4cf 85bd
00000020: ef8c 99bb a9c2 e9bc 1884 e3bb 7234 c33b
00000030: e8d2 87bd 7575 8ebd 852e b5bd 9ee9 adbd
00000040: bd32 88bc 80aa f4bc 4a2b b9bd d7c1 c9bd
00000050: 84b3 b3bc 8edf ba3d 0d8d 8e3c ffac bfbd
00000060: 86b3 b73d f480 fdbc ac33 f7bc fef7 4b3d
00000070: 1db5 ce3d 92c8 fdbc e07e 6cbb 135f 76bd
00000080: da86 a43d 9423 38bd c2ce 9dbd 6a4a a1bd
00000090: 96a8 2bbd a6c6 bfbd fa26 a4bb 5882 d43c
000000a0: 5816 b9bd d341 ea3d a3cc 87bc 50f7 5bbd
000000b0: 9ab8 c23d fd4e 56bd 6c33 843d 8135 c9bd
000000c0: ee2d c83d a15a 823c 8c09 21bd 1ca4 c53d
000000d0: 60d3 2f3c b27f c0bc 186f c73d b77e 0c3d
000000e0: 7568 b9bb dedb f3bd 7063 2abc ed48 803d
000000f0: 44fd bcbd aa38 9fbd 1a61 503b 3b8c bdbd
00000100: 542a 883d b205 9fbd 7ab9 2d3d 1a29 97bc
00000110: c009 5abd d69d a43d 2971 c5bd 7aca dc3d
00000120: 13b1 f83d 9025 9b3c 5fd5 29bd 265c e0bd
00000130: c3d6 9d3d 1ca0 023c f6f2 91bd 8ce3 1fbc
00000140: 8e5d 333c ca9d c53d 39d0 8b3d 63c7 e43b
00000150: 3227 b33d 0f90 723d 2adf 8e3b 9ea7 c6bc
00000160: 7611 813d a2e5 02bd b520 9bbd 71f2 bdbd
00000170: c523 63bd 10e4 08bd 62a7 aebd 8909 d3bc
00000180: 463e 573d ec13 84bc 692f 68bc 5a81 d73d
00000190: 5ada be3d f0fa 3f3d 0dc4 2dbd 334e 783d
000001a0: 3e11 bdbd be26 b53a a936 c4bd ea80 a6bd
000001b0: 40dc a0bd 1fd6 f03d 9826 00bd a6fa d2bb
000001c0: 3a8e 63bd 1936 f9bc 3f9c c4bb b19a c8bd
000001d0: b436 a03d 5568 f43d 3f4c 853b a5b1 ed3c
000001e0: 4435 013d 9c9e 5fbd 9b60 473d 0bd6 83bd
000001f0: b78d 3ebd 7630 903d 35f6 98bd c464 8f3c
00000200: e9f1 a6bd 90f1 ac3c 9071 3a3d 7c4e dfbd
00000210: bc0b 833d 7c42 703c 68de 4d3d 5d27 91bd
00000220: d7f2 333b 4ee5 47bc 836d a33d 972a 0bbd
00000230: 07b5 0f3d 30eb ae3d 311a f6bc a12f 4f3d
00000240: ac1f bdbd ddd7 d9bd 5779 3abd 2d28 bebd
00000250: 6077 ed3c 4315 763d a7c5 cabd 40c1 f63c
00000260: 5896 9b3d 2c60 f53d a1cf 293b 64de 16bd
00000270: 1722 c33d 2075 863b 8af4 0fbd 8bed bdbd
00000280: e70c 213d 01be 8cbc d6d2 193d b8da 863d
00000290: 517d acbd 7075 41bd d5b1 bb3d 3cee 073d
000002a0: 11c7 bebd f380 293c ede2 f0bc 023f a1bd
000002b0: 7828 f0bd 615e 5bbd fcc7 debd ed2a 893d
000002c0: 9526 cfbb 90e5 2abd 257d 243c bd55 12bd
000002d0: 0443 9fbd 4565 c4bd bce6 6cbd fd83 22bd
000002e0: f825 303d 8a00 393d a2b6 7dbd b3e3 50bd
000002f0: 0d39 9dbd c4c5 a1bc 8d89 aabd 00a8 873d
00000300: 6a1a 25bd 607e 0a3d dab1 01be d507 833d
00000310: 2300 8dbd 37a5 6c3d de6a cebc 1acf 76bd
00000320: 840f 71bd d273 ae3c aacc 03bd fa6f 353d
00000330: 3812 01be 47f6 aabd ab6f 3ebb 78ea 4ebd
00000340: 9fa7 e1bd f2c0 23bd 5802 573d 1231 febb
00000350: 81cf e8bd 0a1a 573d 9341 483c 9b71 3d3d
00000360: 67ad 6bbd 36d8 b5bd 92d5 49bb b827 df3c
00000370: 638e 933d 46e9 4ebd 1f09 d6bd 2432 0b3d
00000380: d42c b4bc f66d 9f3d e300 db3c ab3e c93c
00000390: 38f8 2f3c f034 efbd c99d 41bd 6843 f0bc
000003a0: ce5b 27bd 30c9 473b 8e12 ab3d ee81 26bc
000003b0: 00b2 533c 4be2 cd3d 5036 803c a0e1 69bd
000003c0: 3d05 1b3d 529d 143c c755 76bd 63e2 f23d
000003d0: c92a b7bd d0d0 bbbc 180d cb3c 4db0 14bd
000003e0: c9bf d03d 1edc 57bd ef3f 613d ae48 bf39
000003f0: 238e 053e d2ca e13d c996 933d 5a5f 933c

regressor.4.bias f4 [40]
-0.10640711 0.102877714 -0.051871054 0.029343175 -0.034494545 -0.055440202 0.028961247 0.06710341
-0.016799875 -0.060925126 0.06395126 0.016881743 0.73015004 -0.008979465 0.014443554 -0.025885379
-0.026940947 0.05193068 0.084996745 -0.01258222 -0.008195268 -0.009687163 -0.04404799 0.13734832
-0.060280606 0.015716868 0.19072522 -0.099095695 -0.1207754 -0.08945292 0.022387238 0.14067492
0.019525256 0.18132655 -0.06893934 0.0012280227 -0.098180234 0.18024254 -0.11494143 0.17990886
00000000: f9eb d9bd 8db1 d23d be76 54bd 1961 f03c
00000010: 274a 0dbd 4415 63bd 2340 ed3c 836d 893d
00000020: e49f 89bc a08c 79bd e1f8 823d 954b 8a3c
00000030: 1deb 3a3f 9b1e 13bc a8a4 6c3c 930d d4bc
00000040: 43b3 dcbc 44b5 543d c612 ae3d a825 4ebc
00000050: 7245 06bc e8b6 1ebc aa6b 34bd 0aa5 0c3e
00000060: cce8 76bd a9c0 803c 794d 433e aff2 cabd
00000070: 1859 f7bd 1833 b7bd 7165 b73c 160d 103e
00000080: 6ef3 9f3c abad 393e 1230 8dbd 9bf5 a03a
00000090: b812 c9bd 8091 383e 6a66 ebbd 073a 383e

regressor.6.weight f4 [1, 40]
-0.1155819 0.09445598 -0.09110261 0.017262658 0.036246546 0.11350981 0.12860595 0.09318185
0.07704482 -0.16393888 -0.08598673 0.1313926 -0.30699077 0.021329846 -0.12013204 0.023413964
-0.12118003 -0.047958482 0.13280292 0.03645003 -0.108867444 0.11199804 -0.10896263 -0.033728622
-0.06697548 0.076491386 -0.03558123 0.06946365 -0.117433585 -0.17060627 -0.055782657 0.07565806
0.13146341 -0.025291882 0.031183496 -0.116733775 0.024880491 -0.12813014 -0.06563636 -0.061959635
00000000: 34b6 ecbd 2372 c13d 0194 babd 6b6a 8d3c
00000010: 4277 143d d577 e83d 47b1 033e 20d6 be3d
00000020: adc9 9d3d 98df 27be d019 b0bd c88b 063e
00000030: e52d 9dbe eebb ae3c c907 f6bd a4ce bf3c
00000040: 3c2d f8bd 1d70 44bd 7dfd 073e a04c 153d
00000050: e5f5 debd 3a5f e53d cd27 dfbd 0627 0abd
00000060: 712a 89bd 84a7 9c3d a0bd 11bd f542 8e3d
00000070: 0581 f0bd 69b3 2ebe 5b7c 64bd 9df2 9a3d
00000080: 589e 063e ec30 cfbc 8874 ff3c 1e12 efbd
00000090: 2cd2 cb3c 8c34 03be 5b6c 86bd 63c9 7dbd
