experiments/models/landS_maml_model5.pt (torch, 31039 bytes, 7 tensors)

regressor.0.weight f4 [40, 10]
-0.24439617 0.14089361 -0.012843336 0.16281022 -0.26513147 -0.2543542 0.16325158 -0.26672608
0.06900591 -0.037023306 0.1451426 0.23154679 0.018896792 0.26802933 -0.28045222 0.28890598
0.32592714 -0.19899589 0.25101468 -0.01363048 -0.25602397 0.21392848 0.24504277 0.2558977
-0.0075722933 0.11094401 0.22805198 0.11376979 0.22860047 0.15483734 0.038540106 0.27901414
0.08647198 0.15272687 0.251712 -0.23589374 0.032922786 0.1932261 0.0320476 0.10134116
0.3458891 -0.030083409 0.31065533 -0.08241245 0.1997923 0.35068417 -0.022016156 0.22433865
0.23016986 0.2729809 0.31928504 -0.04560839 -0.06052608 -0.20876063 -0.22564149 0.24532208
-0.025481854 -0.20332898 -0.18381035 -0.22436456 0.03059936 0.10721515 -0.14078157 0.014290627
0.25997952 -0.1501333 0.41592547 0.3936309 0.043216467 -0.27886033 -0.30383894 0.25004014
0.22580202 -0.10168043 -0.27208477 -0.12300807 0.11977921 -0.01333891 -0.25107166 0.2833996
-0.28182513 0.24220592 -0.28850752 -0.037374116 -0.17431417 0.07535026 0.0652487 -0.027770555
0.15320659 -0.1739349 -0.021679368 0.06443418 0.059429254 0.03061049 0.0010111034 -0.009429756
-0.19771254 0.28062138 0.080482304 -0.062377036 0.039003853 -0.23966233 -0.13707325 0.19740126
-0.3044542 0.08906744 -0.063141815 -0.21438487 0.23639122 -0.3087108 -0.14916793 -0.18029037
0.37785026 -0.15674874 0.054991454 0.117801376 0.29533216 0.16470191 0.11749175 -0.05266872
0.039541524 0.27850732 -0.24494907 0.046889406 -0.055226803 0.18757902 -0.15839335 0.25418144
-0.04473257 0.20932499 0.10586289 -0.28134984 -0.073819436 0.18589121 -0.269799 -0.15503849
0.07898643 0.1466807 0.24083087 -0.3093194 0.06981276 0.18436903 -0.038166814 0.27949384
-0.24050808 -0.09709484 0.36235264 0.24618416 -0.103557274 -0.24895187 -0.18909265 0.057813838
-0.13212502 0.053484224 0.28001592 -0.2554396 -0.040594984 0.35477784 0.03713572 0.26068482
0.06482874 -0.023169314 0.28065374 0.029042685 0.22153905 -0.09257502 0.25040856 0.10570173
-0.29801232 0.056624204 0.22440316 0.31076092 0.066271044 0.30116755 0.286876 0.13815938
0.1830554 0.22166121 0.12633297 -0.2157455 0.23926046 0.19967599 -0.22852932 -0.07220308
0.13171071 -0.23881897 0.19273926 -0.0715699 0.22804716 0.10348579 0.023797909 0.24804445
-0.054588333 -0.28024006 0.16128042 -0.15542236 0.17714739 -0.09773574 0.13309762 0.20685795
0.25893453 0.10571695 0.062055644 0.29561064 0.03168726 -0.030336449 0.044280376 0.023706786
-0.22590967 -0.027842999 0.2686329 0.25336993 0.1480002 0.13966957 -0.18514043 0.1522722
-0.11858886 -0.20088497 0.14509636 0.15206188 -0.23227504 0.20447087 0.00952928 -0.09861061
-0.0022815764 0.080557875 -0.024757044 0.025335431 -0.105077386 0.18023303 -0.035837688 0.13995926
-0.20733123 0.069427684 0.1558536 -0.1745061 -0.2499105 -0.08435158 -0.06383175 -0.18231468
-0.0008524571 0.13066916 0.16997366 -0.13609453 -0.027561694 0.24377105 -0.17881434 0.31660044
-0.25073755 -0.24731293 0.08290913 -0.20872036 0.009127599 -0.2563495 -0.27703428 0.062057186
00000000: fd42 7abe 6a46 103e db6c 52bc b9b7 263e
00000010: 50bf 87be b73a 82be 6c2b 273e 5290 88be
00000020: f852 8d3d c0a5 17bd 43a0 143e 9a1a 6d3e
00000030: 72cd 9a3c 243b 893e 6f97 8fbe 7ceb 933e
00000040: ecdf a63e 94c5 4bbe ff84 803e 6052 5fbc
00000050: 9315 83be 1110 5b3e 7eec 7a3e 0605 833e
00000060: 0021 f8bb 9d36 e33d 7586 693e 2300 e93d
00000070: 3e16 6a3e ae8d 1e3e 3bdc 1d3d f1da 8e3e
00000080: 3918 b13d 6f64 1c3e 65e0 803e 218e 71be
00000090: 0bda 063d 10dd 453e 5844 033d f48b cf3d
000000a0: 6018 b13e 7b71 f6bc 370e 9f3e dcc7 a8bd
000000b0: 5a96 4c3e e08c b33e 3a5b b4bc 08b9 653e
000000c0: a6b1 6b3e 27c4 8b3e 5479 a33e ddcf 3abd
000000d0: 32ea 77bd 59c5 55be 900e 67be b635 7b3e
000000e0: 52bf d0bc 7935 50be c838 3cbe d3bf 65be
000000f0: 82ab fa3c 9e93 db3d 0b29 10be 3c23 6a3c
00000100: 091c 853e 8bbc 19be 2ff4 d43e fd89 c93e
00000110: c003 313d c8c6 8ebe c790 9bbe 4305 803e
00000120: a538 673e d43d d0bd b24e 8bbe a8eb fbbd
00000130: cd4e f53d 728b 5abc 778c 80be c119 913e
00000140: 624b 90be d404 783e 42b7 93be 9a15 19bd
00000150: 6a7f 32be 3d51 9a3d 1ca1 853d 137f e3bc
00000160: 30e2 1c3e fe1b 32be ee98 b1bc 11f6 833d
00000170: 176c 733d dac2 fa3c 0087 843a 437f 1abc
00000180: 2875 4abe 9bad 8f3e e8d3 a43d 107f 7fbd
00000190: 81c2 1f3d 0b6a 75be ee5c 0cbe 8e23 4a3e
000001a0: 6ce1 9bbe fd68 b63d 7f50 81bd b587 5bbe
000001b0: 8a10 723e 580f 9ebe 7abf 18be 0a9e 38be
000001c0: 9775 c13e be82 20be b83e 613d d941 f13d
000001d0: c735 973e 9ea7 283e 849f f03d 28bb 57bd
000001e0: 4bf6 213d 8398 8e3e eed3 7abe 1b0f 403d
000001f0: 8035 62bd b714 403e de31 22be 1224 823e
00000200: 8039 37bd 4a59 563e a5ce d83d 160d 90be
00000210: a52e 97bd 445a 3e3e 1823 8abe 69c2 1ebe
00000220: a3c3 a13d 7733 163e 5e9c 763e 1d5f 9ebe
00000230: fef9 8e3d 3ccb 3c3e ce54 1cbd d119 8f3e
00000240: c047 76be a9d9 c6bd 4986 b93e b317 7c3e
00000250: d615 d4bd 3ded 7ebe 81a1 41be 34ce 6c3d
00000260: c84b 07be 4612 5b3d 3f5e 8f3e fbc8 82be
00000270: ed46 26bd 71a5 b53e a01b 183d 7b78 853e
00000280: eec4 843d 93cd bdbc d9b1 8f3e edea ed3c
00000290: 22db 623e f997 bdbd 8d35 803e 267a d83d
000002a0: 1295 98be c8ee 673d f1c9 653e 0e1c 9f3e
000002b0: 1db9 873d a232 9a3e 69e1 923e a779 0d3e
000002c0: e072 3b3e 28fb 623e 6e5d 013e 63ec 5cbe
000002d0: b200 753e dd77 4c3e 9703 6abe 35df 93bd
000002e0: 2cdf 063e f68c 74be 715d 453e 3d93 92bd
000002f0: 3285 693e 5cf0 d33d d5f3 c23c 5dff 7d3e
00000300: 0498 5fbd a07b 8fbe b226 253e 0a27 1fbe
00000310: 2066 353e ad29 c8bd be4a 083e 92d2 533e
00000320: 1193 843e 2182 d83d 0f2e 7e3d 475a 973e
00000330: 80ca 013d 2584 f8bc 575f 353d bc34 c23c
00000340: dd54 67be 0017 e4bc 408a 893e b4b9 813e
00000350: 5d8d 173e 8a05 0f3e 7495 3dbe 3eed 1b3e
00000360: b7de f2bd cab4 4dbe 2494 143e 1cb6 1b3e
00000370: 82d9 6dbe d060 513e b220 1c3c 5cf4 c9bd
00000380: 8086 15bb 87fb a43d 49cf cabc 408c cf3c
00000390: d032 d7bd 028f 383e 8aca 12bd 7b51 0f3e
000003a0: a34e 54be 1a30 8e3d 1698 1f3e bab1 32be
000003b0: 8ae8 7fbe 85c0 acbd 38ba 82bd b3b0 3abe
000003c0: 6d77 5fba 23ce 053e 930d 2e3e 5d5c 0bbe
000003d0: 10c9 e1bc 1e9f 793e 1b1b 37be 7419 a23e
000003e0: ac60 80be 9a3f 7dbe 43cc a93d caba 55be
000003f0: ed8b 153c 3e40 83be 70d7 8dbe ad2f 7e3d

regressor.0.bias f4 [40]
-0.06250811 0.29304677 0.17668484 0.10272365 -0.06304355 0.17397554 -0.21109377 -0.2622557
-0.00335936 0.2579502 0.07152302 0.057863034 0.090084895 -0.084103286 0.15955858 -0.0006402449
0.12244188 -0.28393736 0.27693725 0.03868339 -0.17749895 -0.20370325 -0.29116902 -0.26800892
-0.21809728 -0.1815585 0.31611404 0.023454845 0.07839192 0.12581101 -0.26486093 -0.17586459
0.19570863 -0.018212512 0.14387408 -0.15707889 -0.26976377 -0.21345383 -0.28056636 -0.15698317
00000000: 4104 80bd 3a0a 963e dfec 343e c760 d23d
00000010: fa1c 81bd a526 323e f728 58be 6146 86be
00000020: b528 5cbb 0c12 843e a97a 923d ca01 6d3d
00000030: 6e7e b83d 583e acbd 5363 233e 1cd6 27ba
00000040: cfc2 fa3d 3d60 91be b8ca 8d3e 7972 1e3d
00000050: 49c2 35be 9697 50be 1b14 95be 7738 89be
00000060: e554 5fbe 79ea 39be b3d9 a13e 6024 c03c
00000070: f18b a03d 9ad4 003e da9b 87be d915 34be
00000080: d867 483e 6832 95bc ba53 133e 4ad9 20be
00000090: 7a1e 8abe a493 5abe 65a6 8fbe 32c0 20be

regressor.2.weight f4 [80, 40]
-0.014572627 0.11752351 -0.0060330285 -0.010654059 -0.085642815 -0.043428026 0.19547215 -0.120673776
0.088789515 0.12357211 0.07627524 0.22694317 0.00053585623 0.09823307 0.092524 0.16289675
0.21028645 -0.13336964 -0.0022458464 0.13986139 0.084599786 -0.124488175 -0.15238237 0.078793764
0.1595538 0.21033499 -0.12999982 0.0010541801 0.018431935 -0.066594474 -0.05959847 0.17139265
-0.110448375 -0.022378352 -0.09513874 0.09690279 -0.08397617 0.17910597 -0.02866292 0.088916734
0.04102564 -0.11555383 0.012559275 0.120427914 -0.0979278 -0.00078894437 0.09260325 0.029614601
0.021189066 0.14533138 -0.1371139 0.19709747 -0.03005202 0.1215357 -0.00083332544 0.044237066
0.010878079 0.13471135 -0.026358666 -0.03854459 -0.12658693 0.12728845 0.081013106 -0.11832462
0.13730709 -0.03477871 -0.08189675 0.18624604 0.17308524 -0.03994016 0.017771523 -0.09347715
0.15077078 -0.086508796 -0.016298376 -0.03572702 0.073571645 -0.098124 0.046907634 0.004328794
0.1031479 0.090888314 0.053082477 -0.07784775 -0.058724586 0.026060998 0.03155394 0.0564479
0.0631229 0.13434187 -0.1221968 -0.04050114 -0.13726892 -0.11007202 -0.1180996 0.11247392
-0.0044312137 0.05299211 -0.16540046 0.027808722 0.00050530373 0.09041271 -0.010592965 -0.12582995
-0.146302 0.057932764 0.0071114455 -0.004142361 -0.10885601 -0.116922356 0.08608215 0.021045908
-0.13619888 -0.067249976 -0.0992668 -0.1195083 -0.115929484 0.04365444 0.15272374 0.019251347
0.013355788 0.117072575 -0.1323253 -0.073587246 -0.014657519 -0.084816955 0.07440291 0.106948055
0.08797964 0.14856094 0.12809639 0.1392788 0.043508787 -0.13653022 0.14831752 0.076196134
0.06741449 -0.11837679 -0.03931127 -0.024695415 0.16110255 0.12402442 0.0127204405 0.11079514
0.06254161 0.043886874 -0.00023400107 0.010102699 0.1549099 -0.1312337 0.010546638 0.15751356
0.0220039 0.071670674 -0.0599099 -0.015139989 0.15983309 -0.02509037 0.054715827 0.01267564
-0.123086035 -0.13542995 0.07667457 -0.14227147 -0.14913042 -0.006266604 -0.059508882 0.016472382
0.14008757 0.07604985 -0.11186508 0.14836858 -0.12255279 0.060271025 -0.020680385 -0.11479812
-0.09399481 -0.07075726 -0.09462612 -0.14053984 0.104028076 0.15118007 -0.09077222 -0.107006006
0.07814147 0.12490122 -0.13600689 0.14367022 -0.026290955 0.10222561 -0.14337568 -0.09136501
0.11391294 0.065998115 -0.079689085 -0.052271288 0.11735099 -0.12572323 -0.08847912 -0.15353541
-0.10569355 0.1146952 -0.06280205 0.051134422 -0.027178204 -0.04440832 0.010080873 0.11765622
-0.060580585 0.12801571 -0.1445039 0.08108455 0.12400619 0.046531495 0.11185218 0.0811297
-0.058077205 -0.09624754 0.0032094766 0.03604077 0.06868058 0.120827496 0.018473765 0.09231133
-0.1515519 0.13150276 -0.01883712 -0.08303222 0.11813015 -0.110937394 -0.0055449186 0.075960696
-0.11859401 -0.01624123 -0.13125211 -0.07874785 -0.058362313 -0.087073006 -0.11490859 -0.026177788
0.20578504 0.10275142 -0.059813965 0.030513812 -0.03463743 -0.025357237 0.021646703 0.08447655
-0.061968107 0.1988089 -0.14514442 -0.062348172 -0.0738247 0.047983754 0.025758829 0.097145274
00000000: 07c2 6ebc 2ab0 f03d b6b0 c5bb 5d8e 2ebc
00000010: 8065 afbd 96e1 31bd da29 483e d023 f7bd
00000020: 47d7 b53d 6013 fd3d 3136 9c3d ca63 683e
00000030: b478 0c3a 6b2e c93d 397d bd3d 68ce 263e
00000040: 5555 573e 0d92 08be 0d2f 13bb d337 0f3e
00000050: a742 ad3d a8f3 febd 200a 1cbe a05e a13d
00000060: 1262 233e 0e62 573e ac1e 05be 6a2c 8a3a
00000070: 92fe 963c af62 88bd 861d 74bd 8e81 2f3e
00000080: c232 e2bd ce52 b7bc 1ad8 c2bd f874 c63d
00000090: b3fb abbd 8e67 373e 80ce eabc fa19 b63d
000000a0: 800a 283d 7da7 ecbd 6bc5 4d3c e9a2 f63d
000000b0: 5f8e c8bd 29d1 4eba c6a6 bd3d 529a f23c
000000c0: b194 ad3c c0d1 143e 9667 0cbe ebd3 493e
000000d0: a72f f6bc b6e7 f83d 8673 5aba ed31 353d
000000e0: f839 323c c6f1 093e 21ee d7bc efe0 1dbd
000000f0: 01a0 01be e757 023e 33ea a53d 2e54 f2bd
00000100: 3b9a 0c3e 1f74 0ebd 7cb9 a7bd 48b7 3e3e
00000110: 423d 313e 4b98 23bd 9695 913c f370 bfbd
00000120: a863 1a3e 862b b1bd 2c84 85bc 7f56 12bd
00000130: bbac 963d 3cf5 c8bd 3822 403d 8ed8 8d3b
00000140: 353f d33d a723 ba3d 036d 593d a46e 9fbd
00000150: 3189 70bd e07d d53c b43e 013d ea35 673d
00000160: 9446 813d ea90 093e 5142 fabd 86e4 25bd
00000170: 3990 0cbe 706d e1bd 34de f1bd ba58 e63d
00000180: b733 91bb 410e 593d bd5e 29be 1ecf e33c
00000190: 5c76 043a 4d2a b93d 1e8e 2dbc 91d9 00be
000001a0: 31d0 15be e84a 6d3d 2107 e93b a5bc 87bb
000001b0: e6ef debd fd74 efbd d74b b03d 7868 ac3c
000001c0: b877 0bbe 5bba 89bd 644c cbbd c5c0 f4bd
000001d0: 706c edbd 00cf 323d 9d63 1c3e 00b5 9d3c
000001e0: 3cd2 5a3c bfc3 ef3d 4980 07be e9b4 96bd
000001f0: 1726 70bc 83b4 adbd 8e60 983d 9507 db3d
00000200: ab2e b43d 5c20 183e b32b 033e 1a9f 0e3e
00000210: 4536 323d 94ce 0bbe 8ce0 173e b80c 9c3d
00000220: 9c10 8a3d 886f f2bd db04 21bd 0a4e cabc
00000230: 11f8 243e 8400 fe3d 6569 503c 90e8 e23d
00000240: d115 803d b9c2 333d 2f5e 75b9 ca85 253c
00000250: b3a0 1e3e 2162 06be cecb 2c3c 3c4b 213e
00000260: 8641 b43c 13c8 923d 1564 75bd b70d 78bc
00000270: 49ab 233e 528a cdbc b41d 603d 7dad 4f3c
00000280: 8814 fcbd 26ae 0abe 8f07 9d3d 9daf 11be
00000290: a5b5 18be 1658 cdbb 96bf 73bd 17f1 863c
000002a0: 1e73 0f3e 06c0 9b3d 8519 e5bd efed 173e
000002b0: f5fc fabd c0de 763d e969 a9bc 471b ebbd
000002c0: 5a80 c0bd 2fe9 90bd 57cb c1bd ade9 0fbe
000002d0: ac0c d53d f3ce 1a3e c9e6 b9bd f725 dbbd
000002e0: a308 a03d 36cc ff3d 6445 0bbe 491e 133e
000002f0: 2160 d7bc a95b d13d 13d1 12be 941d bbbd
00000300: 304b e93d 052a 873d 0834 a3bd 6b1a 56bd
00000310: b755 f03d 97bd 00be 8a34 b5bd 6338 1dbe
00000320: dc75 d8bd 51e5 ea3d 5c9e 80bd 5472 513d
00000330: d3a4 debc 80e5 35bd 3f2a 253c bff5 f03d
00000340: 5923 78bd 8d16 033e d5f8 13be a80f a63d
00000350: f5f6 fd3d cf97 3e3d c112 e53d 5427 a63d
00000360: 5de2 6dbd 6e1d c5bd 1556 523b 7d9f 133d
00000370: 67a8 8c3d 6874 f73d 4b56 973c b90d bd3d
00000380: 6c30 1bbe a9a8 063e 4e50 9abc cc0c aabd
00000390: 38ee f13d 2533 e3bd 26b2 b5bb 4891 9b3d
000003a0: 6be1 f2bd 540c 85bc f466 06be 8e46 a1bd
000003b0: 520d 6fbd 5553 b2bd 3255 ebbd cd72 d6bc
000003c0: 50b9 523e 566f d23d 7dff 74bd 1af8 f93c
000003d0: fadf 0dbd fbb9 cfbc 6d54 b13c 0b02 ad3d
000003e0: 45d2 7dbd 8f94 4b3e bda0 14be cc60 7fbd
000003f0: 6831 97bd 9d8a 443d 2e04 d33c 1af4 c63d

regressor.2.bias f4 [80]
0.0785738 0.15113914 -0.06125398 0.16366717 -0.12402533 0.1382239 0.045294113 0.021694757
-0.038783804 -0.07621202 0.0996855 0.018365605 -0.06945679 -0.07255536 0.13787322 -0.10409636
0.11372719 -0.044878818 0.1277722 0.00541675 -0.11445413 -0.044495974 0.029652586 0.121397756
-0.13983819 -0.058437984 -0.0018141425 -0.017688943 0.07450061 -0.08898059 0.10580029 -0.052429378
-0.039055947 -0.04897041 0.083620936 -0.14236483 -0.07252177 -0.062516056 0.08433429 -0.055446424
-0.024639506 0.0374198 -0.050264772 0.08820622 -0.06624047 -0.041011527 0.06991032 -0.024810575
0.07995685 -0.06255938 -0.031015335 -0.023836114 0.098772876 0.058752436 -0.10588798 0.0887281
-0.043276522 0.071269155 0.08334866 0.19402966 0.07444354 -0.078429 0.116943754 -0.06940535
0.00038638644 -0.09401238 -0.064449444 -0.08255578 -0.08197108 -0.018026195 0.07134969 -0.007549828
0.1672482 -0.03316624 -0.018912913 0.0014770628 0.09939 -0.11804248 0.16853909 0.12837417
00000000: 4deb a03d 38c4 1a3e 74e5 7abd 5e98 273e
00000010: fe00 febd 918a 0d3e 5286 393d 34b9 b13c
00000020: c4db 1ebd 0c15 9cbd e927 cc3d 7773 963c
00000030: 5d3f 8ebd e897 94bd a32e 0d3e 7930 d5bd
00000040: cde9 e83d dad2 37bd b7d6 023e fe7e b13b
00000050: ed66 eabd 6941 36bd fbe9 f23c 639f f83d
00000060: be31 0fbe ab5c 6fbd 85c8 edba 67e8 90bc
00000070: c793 983d 753b b6bd d3ad d83d 30c0 56bd
00000080: 21f9 1fbd 3295 48bd 7441 ab3d 16c8 11be
00000090: 4b86 94bd 6b08 80bd 75b7 ac3d ca1b 63bd
000000a0: cad8 c9bc 8145 193d 6fe2 4dbd 76a5 b43d
000000b0: 15a9 87bd b4fb 27bd 242d 8f3d 8c3f cbbc
000000c0: 6bc0 a33d 221f 80bd df13 febc f443 c3bc
000000d0: 6f49 ca3d 65a6 703d ccdb d8bd 14b7 b53d
000000e0: b942 31bd 90f5 913d b4b2 aa3d b6af 463e
000000f0: db75 983d 629f a0bd 3580 ef3d 6424 8ebd
00000100: e993 ca39 9089 c0bd 12fe 83bd 0113 a9bd
00000110: 74e0 a7bd acab 93bc c91f 923d 8c64 f7bb
00000120: 1d43 2b3e 53d9 07bd 41ef 9abc 019a c13a
00000130: fc8c cb3d 41c0 f1bd 8395 2c3e 8574 033e

regressor.4.weight f4 [40, 80]
-0.05492205 -0.03056685 -0.044893257 -0.037076976 -0.046348333 -0.08964452 -0.09002925 0.07808081
-0.11192339 -0.045831874 -0.019581519 -0.027491545 0.0002896697 0.031127695 0.09499212 0.07070547
0.057940673 -0.042192344 -0.005965244 0.029370347 -0.0950904 0.0071733696 0.09100589 0.0909641
-0.08314027 0.0195901 0.02425395 -0.023583971 0.06362661 -0.020970881 0.07311927 -0.11343605
-0.052266777 -0.011611583 -0.085639395 -0.04900461 0.08233623 -0.054084532 -0.10292394 0.077522844
0.07522217 0.030709658 -0.008765845 0.024399538 -0.040197548 0.08966098 -0.07789233 -0.0017423346
-0.02464665 -0.047538567 -0.10068729 -0.042023007 0.08655722 -0.06546103 0.067428365 -0.0030488446
-0.09972895 -0.05666668 -0.05933236 0.005729973 0.08940383 0.08940236 0.0574566 -0.0752552
0.0040420657 0.013762623 -0.061750475 -0.1142489 -0.07739689 0.05000483 0.052342337 -0.06752755
-0.05553635 0.07588389 -0.11594333 0.026377382 -0.09235741 -0.044811994 -0.05620655 -0.091723725
0.030446738 0.03868079 -0.06640277 -0.06759513 -0.07438375 0.12406259 -0.16601636 0.057284005
0.04789774 -0.04754209 0.0070035616 0.105477475 -0.047063775 0.00030243763 -0.089694075 0.112623826
-0.069682635 0.025927965 0.008835701 0.060290087 -0.029522886 -0.0026411212 0.05589406 0.06956137
0.027441159 -0.032831654 0.028289372 -0.036445722 0.11558399 0.040668085 -0.062620014 -0.06594581
0.11253061 0.01778297 0.04762113 -0.017513778 0.019765079 0.104157776 0.05802034 -0.030758623
0.118583106 -0.074332826 0.052067872 -0.1258198 -0.095905416 0.05075531 -0.11178588 0.10362066
-0.06790106 0.06857445 -0.120137505 -0.10341747 -0.07524748 0.110698275 -0.02790619 -0.036914624
-0.05088616 0.09316837 -0.051959038 0.08872456 0.07079743 -0.093848534 -0.09557057 -0.042994197
-0.071990624 -0.10838283 -0.030493965 -0.009376836 0.0051096072 0.04531278 0.054065086 -0.022217775
0.011136178 0.010463976 -0.028209839 0.04651683 0.10319693 0.11977626 0.11917614 0.06446844
-0.053828917 0.0042137075 -0.026018929 0.010151648 -0.008524564 -0.007921984 -0.022543067 -0.0554009
-0.031806033 -0.073517196 0.04338198 0.033213686 -0.050606284 -0.017395735 -0.09176677 -0.11264582
-0.098332524 -0.10517845 -0.030520769 -0.038865305 -0.08316093 0.02782711 0.0015419472 0.07840911
-0.10851736 0.06759577 -0.060744368 0.028722147 -0.08646751 0.03746751 0.06825137 0.040736254
-0.060886227 -0.022272518 -0.054770745 0.026480455 -0.0086198 0.076049164 -0.08805979 -0.033895656
0.012743273 -0.05195834 -0.07750065 0.0732582 0.01938282 -0.038852725 -0.0032666102 0.099932835
-0.10001276 0.041832842 0.023367643 0.06396373 -0.01312644 0.023312004 0.048847243 0.06328176
-0.054878123 0.08910819 -0.06383008 0.08881103 0.020431032 0.077025995 0.054517657 0.07747151
0.10977105 0.0023336634 -0.07058591 -0.08741457 0.039077375 -0.10065653 -0.06125793 0.037870813
0.010276545 0.023418386 0.06100206 -0.034344383 -0.05689617 0.058215592 -0.08742205 0.06801151
0.056889996 0.09569603 -0.06909161 0.041000158 0.044334527 0.09502879 -0.17125131 -0.057056073
-0.0054619852 0.05126225 0.009909032 0.045820482 -0.08753879 0.08672611 -0.0044971416 -0.04188733
00000000: f2f5 60bd 5567 fabc fee1 37bd 07de 17bd
00000010: c0d7 3dbd 8c97 b7bd 4161 b8bd d5e8 9f3d
00000020: 1738 e5bd 34ba 3bbd 6c69 a0bc f335 e1bc
00000030: cfde 9739 82ff fe3c 3b8b c23d 08ce 903d
00000040: 3353 6d3d e1d1 2cbd 1878 c3bb 159a f03c
00000050: c1be c2bd 960e eb3b 4c61 ba3d 634b ba3d
00000060: 7245 aabd 6b7b a03c 38b0 c63c 2c33 c1bc
00000070: ab4e 823d 20cb abbc 8ebf 953d 2951 e8bd
00000080: b015 56bd 823e 3ebc b563 afbd 0fb9 48bd
00000090: e69f a83d be87 5dbd c9c9 d2bd 4cc4 9e3d
000000a0: 150e 9a3d d292 fb3c 9e9e 0fbc 8ae1 c73c
000000b0: 2fa6 24bd 2da0 b73d 0486 9fbd 0c5f e4ba
000000c0: c5e7 c9bc cdb7 42bd 2335 cebd 5120 2cbd
000000d0: e944 b13d 6f10 86bd e217 8a3d 20cf 47bb
000000e0: b13e ccbd 521b 68bd 7d06 73bd 7fc2 bb3b
000000f0: 5b19 b73d 9618 b73d 9d57 6b3d 661f 9abd
00000100: 4e73 843b a07c 613c 11ee 7cbd 54fb e9bd
00000110: 4382 9ebd ddd1 4c3d eb64 563d e24b 8abd
00000120: 157a 63bd 0369 9b3d b273 edbd 6115 d83c
00000130: e225 bdbd c88c 37bd d738 66bd a6d9 bbbd
00000140: 706b f93c c06f 1e3d 2dfe 87bd 516f 8abd
00000150: 8256 98bd 8714 fe3d 3100 2abe a2a2 6a3d
00000160: 6c30 443d 7fbb 42bd 227e e53b 9304 d83d
00000170: f2c5 40bd 7e90 9e39 87b1 b7bd 52a7 e63d
00000180: c5b5 8ebd e266 d43c 9ec3 103c bdf2 763d
00000190: fbd9 f1bc a916 2dbb 2bf1 643d 3176 8e3d
000001a0: 48cc e03c 7c7a 06bd 1dbf e73c 1c48 15bd
000001b0: 4db7 ec3d 9493 263d ec3e 80bd 990e 87bd
000001c0: 7376 e63d 97ad 913c 600e 433d 0e79 8fbc
000001d0: 60ea a13c ac50 d53d bca6 6d3d 82f9 fbbc
000001e0: b3db f23d cf3b 98bd 1f45 553d e8d6 00be
000001f0: 0f6a c4bd cde4 4f3d ffef e4bd 1237 d43d
00000200: b60f 8bbd c370 8c3d a70a f6bd 8acc d3bd
00000210: 5a1b 9abd c7b5 e23d 869b e4bc ca33 17bd
00000220: 026e 50bd 0fcf be3d 00d3 54bd 39b5 b53d
00000230: 3efe 903d a933 c0bd 81ba c3bd af1a 30bd
00000240: d26f 93bd d1f7 ddbd 7bce f9bc 4da1 19bc
00000250: 7e6e a73b e599 393d 5a73 5d3d 0d02 b6bc
00000260: 8474 363c 1971 2b3c 5218 e7bc 6e88 3e3d
00000270: e958 d33d 414d f53d 9f12 f43d 0808 843d
00000280: b67b 5cbd 2413 8a3b a625 d5bc 1953 263c
00000290: 9daa 0bbc 36cb 01bc 3dac b8bc 0eec 62bd
000002a0: 0b47 02bd 2f90 96bd 4eb1 313d 130b 083d
000002b0: 8948 4fbd 8081 8ebc 37f0 bbbd dab2 e6bd
000002c0: 9062 c9bd cd67 d7bd b106 fabc 3a31 1fbd
000002d0: 4750 aabd aef5 e33c 2a1b ca3a f594 a03d
000002e0: 5a3e debd a76f 8a3d 16cf 78bd b54a eb3c
000002f0: e115 b1bd 8877 193d 60c7 8b3d 0fdb 263d
00000300: d663 79bd db74 b6bc 4a57 60bd 8aed d83c
00000310: 103a 0dbc aabf 9b3d b158 b4bd 2cd6 0abd
00000320: 29c9 503c 45d2 54bd a9b8 9ebd 6508 963d
00000330: b8c8 9e3c 0924 1fbd a014 56bb 96a9 cc3d
00000340: 7dd3 ccbd ea58 2b3d 806d bf3c 6bff 823d
00000350: 4810 57bc d1f8 be3c 0c14 483d de99 813d
00000360: e2c7 60bd 5b7e b63d 58b9 82bd 8fe2 b53d
00000370: fb5e a73c cebf 9d3d e84d 5f3d 62a9 9e3d
00000380: a5cf e03d 60f0 183b 588f 90bd 6906 b3bd
00000390: 990f 203d 0325 cebd 98e9 7abd 6d1e 1b3d
000003a0: f45e 283c ead7 bf3c 4cdd 793d b2ac 0cbd
000003b0: f50b 69bd 7973 6e3d 550a b3bd 9e49 8b3d
000003c0: 7c05 693d 48fc c33d e77f 8dbd c8ef 273d
000003d0: 1f98 353d 749e c23d 815c 2fbe a1b3 69bd
000003e0: 74fa b2bb 5df8 513d 7e59 223c 42ae 3b3d
000003f0: 8a47 b3bd 759d b13d c25c 93bb 0d92 2bbd

regressor.4.bias f4 [40]
0.08205238 -0.067872934 -0.0809188 -0.016348006 -0.04796762 0.10325971 0.050469056 0.050107084
0.05400438 0.06501947 0.014113704 -0.073541574 0.07577782 0.10373474 0.099877015 0.07461909
-0.016002052 0.030174887 -0.03756061 0.010743273 -0.008354272 -0.020105153 -0.061955478 0.05260528
-0.033657987 0.12514275 -0.10933396 0.1180931 0.12449773 -0.007042168 0.034488123 0.03193931
0.06602491 0.111745924 -0.0319633 0.031255018 -0.028913105 0.011050345 0.08715382 0.04568841
00000000: 140b a83d f700 8bbd c1b8 a5bd 41ec 85bc
00000010: b279 44bd d479 d33d a4b8 4e3d 163d 4d3d
00000020: b233 5d3d ee28 853d 2a3d 673c f79c 96bd
00000030: 6731 9b3d e172 d43d 528c cc3d e5d1 983d
00000040: bc16 83bc 5331 f73c 27d9 19bd 8e04 303c
00000050: 5be0 08bc 90b3 a4bc 07c5 7dbd a278 573d
00000060: f5dc 09bd 6c25 003e 7cea dfbd ccda f13d
00000070: aaf8 fe3d fdc1 e6bb 6b43 0d3d cbd2 023d
00000080: 1138 873d 0cdb e43d f3eb 02bd 4305 003d
00000090: 2ddb ecbc 820c 353c b47d b23d c523 3b3d

regressor.6.weight f4 [1, 40]
-0.15575428 0.07127698 -0.019902276 0.117860705 0.006115777 -0.037442416 -0.07014566 0.023888832
0.037086315 0.04307817 -0.1656776 0.054805834 -0.05389232 -0.14091788 0.16223203 -0.16099554
0.051804952 -0.06406522 0.035410076 -0.061398722 -0.08014434 -0.13896747 -0.05339425 0.0833086
0.009847322 0.060071908 0.1349565 0.073575385 0.13315961 0.0667469 -0.07513527 -0.032534067
0.015053768 0.06861014 0.103749126 0.10456461 -0.07229291 0.019193994 0.14887495 -0.11272218
00000000: 0d7e 1fbe aaf9 913d 190a a3bc f460 f13d
00000010: db66 c83b 385d 19bd 87a8 8fbd 83b2 c33c
00000020: d2e7 173d bc72 303d 64a7 29be 157c 603d
00000030: 31be 5cbd c74c 10be 2720 263e 04dc 24be
00000040: 6e31 543d a034 83bd 280a 113d 3a7d 7bbd
00000050: b722 a4bd 7d4d 0ebe eeb3 5abd b39d aa3d
00000060: a956 213c f60d 763d 0932 0a3e b1ae 963d
00000070: fe5a 083e 99b2 883d 85e0 99bd 7142 05bd
00000080: 14a4 763c 7983 8c3d 6c7a d43d f825 d63d
00000090: 4e0e 94bd b93c 9d3c ad72 183e e3da e6bd
