experiments/models/landS_maml_model3.pt (torch, 31039 bytes, 7 tensors)

regressor.0.weight f4 [40, 10]
00000000: 5a32 e7bd 1965 ae3e 3465 f23c 3264 973e
00000010: 6889 683d 8f00 563e 3858 b83e 3515 cebd
00000020: f00f 8bbe bd41 7dbe 0820 573e 3ea5 2c3e
00000030: 4d65 e73d 9d4a 74be 2211 563e fd0d 2ebd
00000040: 9494 d3bd 78c7 72be 790f 0fbe 8e6f 28be
00000050: ece7 443e a915 9dbe dea6 5e3e e8bb 313e
00000060: c231 4f3e 0f8b 03be debf c23e b472 863d
00000070: 04a5 bf3d 0038 183d a996 21be 1ee1 62be
00000080: 16b8 7fbd 387e 433e 1e58 5b3e 5db7 813c
00000090: fd66 14be 9a39 3b3e a6b3 493e 54d5 903d
000000a0: b435 953e 8c13 36be 1a06 97bc e185 263e
000000b0: 0acb a8bd a54f b63e 2eba a73e b995 f43d
000000c0: e8cf f83d e642 4f3e b1d6 173e 8901 083b
000000d0: 6bad b83e 2bc4 263d d254 283e 5bd5 b0be
000000e0: c3de 54be 650c 463e 1a78 373e c03d 09bd
000000f0: a35a a93d c528 54bc 33e5 cb3d f9f5 15be
00000100: 14a2 70be 1486 743e 8aa8 9a3e e160 4c3e
00000110: 53a1 a13e d015 1e3d 60ff a1bd b47d 2ebe
00000120: c800 27bd fcea b6bd a004 8d3c e0a4 0cbd
00000130: 3832 b43d 309d 18be 00a8 6e3b 16cc 683e
00000140: bccd e93c 42bf 733c a428 363e f9c6 bb3d
00000150: b0dd 59bd fa9d 13bf f4df 5e3e d583 013e
00000160: bd4f 7bbe 004c 26bd 2a3c 51be 6a09 e83d
00000170: 8a0e 4abe bc56 963e 39e2 983e ae36 00be
00000180: bb83 01be 5b89 073d 433c 0cbe 50d6 e43c
00000190: d158 74bd 2ef0 d9bd 963b ef3a eb4a 87bd
000001a0: 7576 04be 321b 503e 49de dc3e 5a13 05be
000001b0: 7e8b 6a3e 2e92 b5bd 8691 2d3e 8e6b d63d
000001c0: 2702 bc3e 376f 6d3d d066 563d 0f49 40be
000001d0: a358 bf3e 102e a23e 91a5 983e 74bd b63d
000001e0: f050 6abd a678 31be 7558 75be 3c8b 82bd
000001f0: 9d2a 9d3e 807d f13c 48e8 2e3d 4885 993d
00000200: c82b abbd c858 d93d 8ed6 133d cc3b 9dbd
00000210: affe 4abd 0926 173d cb99 833e 79c9 283e
00000220: 5744 2b3e 32e2 0abd 1a69 603e 0c98 b7bd
00000230: 7a6b 923e 9584 45bd a58b 383e 964c 273e
00000240: 7884 fa3d 2187 853d 9023 9c3e b688 303d
00000250: ca26 3bbe a0ed 14be c44d adbd 8f44 503e
00000260: 4500 863e 1524 8e3e a5be 9e3e 0c91 abbb
00000270: 7973 113c d49e 7b3e 92ee 2dbe 1733 853e
00000280: 09b3 1a3d 3c5a 473e c03d a8bd 3f83 9ebc
00000290: f383 43be adec 863e 2931 ba3e 5753 cc3e
000002a0: 0882 6dbd 4a4a 763e c28a 2a3e c593 64bc
000002b0: 3b0a b2bd e6c6 85bd f60d 0abe 9c99 643e
000002c0: bd2e cf3e 3c6e 3b3d 50f6 093e 6cfe d7bd
000002d0: 61e2 c3b8 16a5 5f3e d916 aa3e dc89 ba3d
000002e0: cc7c fc3d 4e18 c73e 6152 283e fcf0 f1bc
000002f0: 40a8 b83c 3d2d 863e b5c9 8c3e bb0c d33d
00000300: 55e5 34be 4bb7 58bd b85a 1ebe 8da2 3d3d
00000310: 03dd 8fbd 451f 8e3e b693 58be e7b8 993e
00000320: 41a6 293e 6f17 653c 3844 e63d f679 063e
00000330: c0b8 4b3d b4b5 bf3c d01b 8b3e f270 5dba
00000340: f69e 463e 0fba 61be 1f83 a93d 9624 df3d
00000350: cb02 b73d d0b8 443e 19e5 a03e f8be f3be
00000360: 535d d3be 91b0 d33d 1cc3 3abe d4ef e23d
00000370: 7bda 2bbe 4997 aa3e c879 7cbe 8fc4 253e
00000380: 1c18 8abd 5d8e bcbc f608 7c3d 9500 f33d
00000390: 457d 8d3e 5066 ac3c 0f4e 703e 8f65 14bd
000003a0: e55c 5abe 494f 203d f0cb 173e 0d06 4c3e
000003b0: da78 8a3e cd31 aa3e 7041 09bd bc46 ca3d
000003c0: 80d2 44bd b8d8 9f3d 074a 8abd 9edb ecbd
000003d0: 3057 84bd 698a 1c3e e42f 863e f99a 173e
000003e0: 85d4 95be 2095 15bc a42c f53c be58 3dbe
000003f0: e7b6 ad3e 5fd5 2e3e 10f5 a23c 3e18 20bd
-0.11288901 0.34061506 0.029589273 0.2956863 0.056771666 0.2089865 0.36004806 -0.10062639
-0.27160597 -0.24732108 0.21008313 0.1685991 0.112986185 -0.23856588 0.20904973 -0.04249381
-0.103310734 -0.23708904 -0.13970746 -0.16448805 0.19229096 -0.30680588 0.21743342 0.17356837
0.20233825 -0.12846015 0.38037008 0.06564847 0.09357646 0.03716278 -0.15780129 -0.22156188
-0.062431417 0.19091117 0.21420333 0.015834505 -0.14492412 0.18283692 0.19697437 0.07071939
0.29142535 -0.17780894 -0.018435527 0.16262008 -0.08241852 0.3560764 0.3275923 0.1194262
0.1214903 0.20240363 0.14827992 0.0020752868 0.36069807 0.040714424 0.16438606 -0.34537777
-0.20788102 0.19340666 0.17916909 -0.033506155 0.08269241 -0.012949173 0.09955826 -0.14644612
-0.23499328 0.23879272 0.3020671 0.19958831 0.31568393 0.03859502 -0.07910037 -0.1704014
-0.04077223 -0.089315385 0.01721412 -0.034336925 0.08798641 -0.14903712 0.0036416054 0.22734103
0.028540485 0.014877142 0.1778894 0.091688104 -0.053189933 -0.5766293 0.21765119 0.12647946
-0.24542136 -0.040599823 -0.20433107 0.113299206 -0.19732109 0.29363048 0.29860094 -0.12520859
-0.12647907 0.033089977 -0.13694863 0.027934223 -0.059655014 -0.10641514 0.0018252011 -0.06606086
-0.12935813 0.20322874 0.4313834 -0.12995663 0.22904775 -0.08865772 0.16950044 0.10469733
0.36720392 0.05796739 0.052344143 -0.1877787 0.37372312 0.31675768 0.29813817 0.08922854
-0.057206094 -0.1733118 -0.23959525 -0.06374213 0.30696574 0.029478788 0.04270199 0.074961245
-0.0835796 0.10612637 0.036093287 -0.07677421 -0.04955929 0.036901508 0.25703272 0.16483106
0.16725288 -0.033907123 0.21915093 -0.089645475 0.28597623 -0.048222143 0.1802202 0.16337809
0.12232298 0.065199144 0.30495882 0.043099128 -0.18276516 -0.14543772 -0.08462098 0.20338653
0.2617208 0.27761903 0.31004825 -0.005235797 0.0088776285 0.24572307 -0.16985539 0.2601554
0.037768397 0.19468015 -0.08214903 -0.019349692 -0.19093303 0.26352444 0.3636563 0.39907333
-0.057985336 0.24051777 0.16654494 -0.013951247 -0.086933576 -0.065320775 -0.13481888 0.22324222
0.40465346 0.045759425 0.13472867 -0.10546574 -9.340491e-05 0.21840319 0.33220556 0.09108326
0.123284906 0.3888573 0.16437675 -0.029533856 0.022541165 0.2620639 0.2749764 0.103051625
-0.17665608 -0.052909177 -0.15464294 0.0462976 -0.070245765 0.27758232 -0.21150097 0.30023882
0.16567327 0.013982638 0.112434804 0.13132462 0.04973674 0.023402072 0.27169657 -0.0008447311
0.19396576 -0.22043632 0.082769625 0.1089565 0.089360796 0.19211125 0.31424788 -0.47606635
-0.41282138 0.10336412 -0.18238491 0.110809 -0.16782562 0.33318546 -0.24655831 0.16188262
-0.0674288 -0.023017103 0.061531983 0.118653454 0.27634636 0.02104488 0.23467277 -0.036229666
-0.21324499 0.039138112 0.1482389 0.19924183 0.27045327 0.3324112 -0.03350967 0.09876773
-0.04805231 0.07805008 -0.06752401 -0.11565326 -0.06461942 0.15287174 0.26208413 0.14805211
-0.29263702 -0.009129792 0.029928513 -0.18490884 0.33928606 0.17073582 0.019892246 -0.03908562

regressor.0.bias f4 [40]
00000000: 98ed ccbd 1d1f 5fbe 0fb3 0abe 3bf5 6c3e
00000010: b6fe 2e3e e2b7 143e 78dd ae3d b093 d73d
00000020: ac80 f53e 363d 863e 4f24 fcbd 1d61 c7bd
00000030: 70c1 923c 5a32 86be eb6c b8bd 497c f3bd
00000040: 6757 53bd 8566 a3bd 7029 74be d660 90be
00000050: 23ab 64be 8621 e73d 68ac 35be eed7 3ebe
00000060: 1876 743d 60b7 08bc 87b3 113e 9208 8c3e
00000070: f902 7b3e 079d 06be 99d1 053e f9fd 6d3e
00000080: 668f 07bd 8111 053e e2ea e73d 45f3 5dbe
00000090: 196c 853e e20c 303e 71e6 f83d 897b 79bc
-0.10006255 -0.21789213 -0.13544868 0.23140423 0.17089352 0.1452327 0.085383356 0.10526216
0.4794973 0.26218575 -0.12311613 -0.0973532 0.017914504 -0.2621029 -0.090051495 -0.1188894
-0.051597025 -0.079785384 -0.23843932 -0.2819888 -0.22330908 0.11285691 -0.17741549 -0.18637058
0.059682935 -0.008344501 0.1422864 0.2735029 0.24512853 -0.13145839 0.13068236 0.23241414
-0.03309574 0.12994958 0.11324097 -0.21674831 0.26059034 0.17192414 0.12153328 -0.015227207

regressor.2.weight f4 [80, 40]
00000000: 18a1 8dbd af01 fabd 3ab3 df3d 4fd7 0d3e
00000010: 5c4d c5bd ca67 cd3d d058 203c a669 953d
00000020: b88e f8bd 70ac 62bc 80c3 3dbd e0ec fabc
00000030: c621 a2bd cc79 a1bd ea21 c83d 5891 10be
00000040: a407 d0bd 7e13 8dbd fc76 603d ead6 913d
00000050: c4ca d5bd d2a3 18be 16a4 f7bd ee9b debd
00000060: 1e2b a63d 2038 e83b fc86 77bd dc2e 253d
00000070: f1cf cbbd 80d5 edbc b226 87bd 9ad8 ddbd
00000080: 108c ae3c 963a 4fbd c6c8 cfbd 4fa0 1cbe
00000090: 36d6 d63d b8a4 893c 02f7 06be 3855 893c
000000a0: 4bee bcbd 074b f93d 9447 a1bc 1d46 a63d
000000b0: c612 1a3e 2509 1bbe bbb5 d3bc f838 1c3d
000000c0: 15a6 7ebe 65f9 f13d d1f3 123e 4ac9 063e
000000d0: 693d 83bd 274e 183e d42c 353e c711 22bd
000000e0: 2f1f 463d 442a 4d3e 5d91 e83d 9f0c 04be
000000f0: 58a9 bf3d d60b 23bd 852e cd3b d4d0 523d
00000100: 50fb e93d 8a05 2c3e 7709 243d f17c 34be
00000110: c7ce 64bd 81e8 6c3e 0ff6 b4bc 9ca1 ec3d
00000120: 425c 9d3d 5895 f0bd 0159 a83d a30f dbbd
00000130: fa6e ac3c 6627 e43c f685 0bbe 3d73 293e
00000140: b86e 163e 27e6 073c 7460 3cbd af12 7bbb
00000150: 9418 3f3e 6ffe 90be fb51 1dbc 728d eabd
00000160: 5b22 fcbe 1e6b ea3d 5191 d43d 720e e9bd
00000170: c6a3 13be f705 debc bf2d b73d 9bd8 583d
00000180: 15f7 3b3e 1ac5 cf3d 96e1 e13d 36a3 5c3d
00000190: 2cd9 46bd bdc7 26be d68d a93e 58fb 413e
000001a0: f701 203d 1e10 4ebd 29c5 5e3e dc40 433e
000001b0: c040 c43d 2268 0a3e 376a 933d cd96 083e
000001c0: 1d96 c2bd 40d9 843e 7a9e 543e 0c4e 163e
000001d0: e96c babd d60d 90bd 8f81 c93d da98 843e
000001e0: 4d10 cf3c 78ca 3cbd 6176 ebbd 69b1 85bb
000001f0: fab2 0abd 4f78 1f3d 1a2d a83d e05a 913b
00000200: 9774 233e 81c8 01bd 9c06 cfbd c306 92bd
00000210: 008f 253c b617 6f3c 058d 2ebe b084 d5bd
00000220: 0694 88bb 34fa 153e 291b c0bc b7a2 743d
00000230: 7e58 cabc be17 0dbd 1879 0d3e b2ba 12be
00000240: ab4e a33d 107e c6bd 1c68 bcbd c915 513e
00000250: 24bf ecbb 3149 bc3d 2dd1 89bd 933a 9b3d
00000260: 53e4 64be 885e c63d 7e92 1b3d e2ea b63c
00000270: d055 f3bb 43cf ba3d 5d6e bb3d 6ed4 66bc
00000280: a5a5 f3bd b25c 23bd ceba 35bc 9d0d 703d
00000290: 3e1c dc3d 53ac 4abd 7e8b 66bc 2a53 8a3d
000002a0: 5a5d fabd 236f 2d3e 9f74 e03d fb7d 0b3d
000002b0: ecfc 3b3d b778 b8bd 45fe 123d 0735 ffbd
000002c0: 537d d93d f71f 02be 3e4e 2e3c 0fe5 b2bd
000002d0: fb38 f13d 882a 433e 607d d3bc 95aa c6bd
000002e0: 0e7c 483e 3efe da3d c6c9 0a3e 9739 2ebe
000002f0: 0905 893d 5d7e c83d c555 d73d 4833 223e
00000300: 5c10 283d 3986 acbc 7078 ef3d 6cef 07be
00000310: 00c2 053e b1d6 223e 61eb ae3c a4f6 76b8
00000320: 9524 c23d 1f08 69bd b5c3 db3b 9446 1cbe
00000330: 4dc7 f5bd 39f8 c03b b1ab 5a3e 759a 87bd
00000340: 6c57 933d 4408 d2bd 341a 093e 4f47 f03d
00000350: 066b c23d 0adb 9d3c 90eb 313d ffb6 f33d
00000360: ada0 84bd 8516 92bd 41f1 92bd f99d f23b
00000370: b6e7 eebc a0f1 65bd c113 07be c9dd 193d
00000380: 166f 773e 1dea 89bd 998f d03d 3f26 edbd
00000390: bfd0 e3ba 6097 843e 405e ee3d 413f 8f3d
000003a0: f25e 8f3b 87ab 00be 54ab e7bd 3b9b 1d3d
000003b0: b480 d23d c03d 2bbd 7927 60be a8ef 033e
000003c0: ec2e 3b3e 359d 833d ed04 0c3e e645 17bc
000003d0: d557 f73d 7153 7abe 7e26 123e d179 c9bd
000003e0: 8c5a 22bf f26a fd3d 553b 663d 5a82 27bb
000003f0: c204 aa3d 3e1d 94bd ee4f fb3d e9de 8b3d
-0.06915492 -0.12207352 0.10922857 0.13851665 -0.09633896 0.10029562 0.0097868 0.072955415
-0.121365964 -0.013835058 -0.04632902 -0.030630529 -0.07916598 -0.07884559 0.097720936 -0.14117944
-0.10157707 -0.068884835 0.054800972 0.0712107 -0.10439065 -0.14906242 -0.12091844 -0.10869585
0.08113693 0.0070867687 -0.060431466 0.04032789 -0.09951771 -0.029032469 -0.065991774 -0.10832329
0.021307021 -0.05059298 -0.10145716 -0.15295528 0.10490076 0.016802177 -0.13180164 0.016764268
-0.09225138 0.121725135 -0.019687451 0.08118842 0.15046224 -0.15140207 -0.025843492 0.038140267
-0.24868043 0.11815146 0.14350821 0.13162723 -0.064081974 0.14873563 0.17692882 -0.039567735
0.048369583 0.20035654 0.11355851 -0.1289544 0.09358472 -0.03980621 0.006261649 0.051468685
0.11424887 0.16798988 0.04004809 -0.17625786 -0.05586126 0.23135568 -0.022089986 0.11554262
0.076836124 -0.11747235 0.08220101 -0.10696342 0.021049011 0.027850818 -0.13625321 0.16547866
0.14690673 0.008294619 -0.045990422 -0.0038310697 0.1866172 -0.28319117 -0.009602065 -0.1145276
-0.4924496 0.11446212 0.103792794 -0.11379708 -0.14417943 -0.027102454 0.08944272 0.052940946
0.18355973 0.10145016 0.11029355 0.053866588 -0.048546955 -0.16287132 0.33116025 0.18943536
0.039064374 -0.05030834 0.21754898 0.1906771 0.095826626 0.13516286 0.07197993 0.13338776
-0.09501288 0.25947 0.20763579 0.1467821 -0.09102804 -0.07033889 0.098391645 0.25897866
0.025276328 -0.046091527 -0.11497188 -0.004079987 -0.03386209 0.038933095 0.082117274 0.004435882
0.15962444 -0.031685356 -0.101086825 -0.07130196 0.010104895 0.0145930555 -0.17045982 -0.10425699
-0.0041680364 0.14646226 -0.023450451 0.05972549 -0.0247004 -0.03444647 0.13815725 -0.14329031
0.07973989 -0.09692013 -0.09199545 0.20418467 -0.007224934 0.09193648 -0.0672935 0.075795315
-0.22352724 0.09685999 0.037981503 0.022328798 -0.007426001 0.09121563 0.091519095 -0.014088733
-0.118968286 -0.039883323 -0.011091901 0.058606733 0.10747574 -0.049480747 -0.0140713435 0.067541435
-0.12224837 0.16936927 0.10959744 0.03405569 0.045895502 -0.090073995 0.03588702 -0.12461286
0.10619607 -0.12707506 0.010638772 -0.08735096 0.11778446 0.19059193 -0.02581662 -0.09700505
0.19578573 0.10693024 0.13553533 -0.17014156 0.066904135 0.09789727 0.10514406 0.15839875
0.041031227 -0.021060096 0.116928935 -0.13274926 0.13062286 0.15902211 0.021352472 -5.8880672e-05
0.09479634 -0.05689251 0.0067066797 -0.15261298 -0.12000904 0.0058889654 0.21354558 -0.06621257
0.07194409 -0.10255483 0.13388902 0.11732351 0.09493069 0.019269485 0.04343754 0.11900138
-0.06475959 -0.071332015 -0.07174922 0.0074040857 -0.029163223 -0.056138635 -0.1319113 0.037565026
0.2416347 -0.06734107 0.10183639 -0.115795605 -0.0017380937 0.2589674 0.116390705 0.069944866
0.004375332 -0.12565432 -0.11311975 0.038478117 0.102784544 -0.041806936 -0.21890058 0.1288439
0.18279618 0.06426469 0.13673754 -0.009232974 0.120772995 -0.24445893 0.14272496 -0.09837688
-0.63419414 0.12373914 0.056208927 -0.0025559873 0.08301689 -0.0723214 0.12271105 0.06829626

regressor.2.bias f4 [80]
00000000: ea35 11be 2b55 d23d 0cca c73d 7d11 b3bd
00000010: 1860 233e fa34 8fbd 3b84 0d3e 8a27 9b3c
00000020: af98 843d ba04 94bc 6c0e 59bc 07b2 d73d
00000030: d378 db3d 93a0 c6bd 3de9 a23d 2715 223d
00000040: a0ac 7bbd 87c9 b3bc 9efd b73d c73e e1bc
00000050: 168b c43d eb7d 6e3e e024 613e 04b0 d7bd
00000060: 4e31 47bd 5eaa 8ebc 307d d13d c4e6 cd3c
00000070: c2b5 61bd 6e59 093d ac82 bdbd 1c4c 5e3d
00000080: 3df6 9b3d 26e2 1b3e 0f63 e83d 7cde 593c
00000090: fe38 733d 9836 9a3c 18bd f03d 842c aebd
000000a0: c03a edbd 3a92 d13c 0a68 5ebd 0106 0bbe
000000b0: c779 cebd 08f7 893d a61d 6d3e 79c9 453d
000000c0: 05f3 c2bd 289e 0a3e 4979 11be 1b52 c53d
000000d0: e84c 113e b083 af3c d2d0 6b3e f5d0 c53d
000000e0: 7cf7 0a3e 871d 91bd 815b 47bd 8cb5 113d
000000f0: d2af 03be 3b3f 0f3d 698f cd3c 4148 283c
00000100: bf55 533e 5f8e 88bd d2c8 93bd a0ff ac3d
00000110: 8667 1bbe 06e3 ee3d a540 d73d 94ba 673e
00000120: 5ff2 c93d d9ea 0d3e a50f 353e 9b6b d23d
00000130: ccca 99bd 377d cebc 3cee 383e 2117 9f3d
-0.14180723 0.10270151 0.09755334 -0.0874357 0.15954626 -0.06992526 0.13819973 0.018939752
0.064744346 -0.01806866 -0.013248067 0.10532003 0.10716405 -0.09698596 0.07954643 0.039570954
-0.061443925 -0.021946682 0.089839205 -0.027495755 0.09596841 0.23290221 0.21986723 -0.10531619
-0.048631005 -0.017415222 0.10228956 0.025134452 -0.05510498 0.033532552 -0.09253439 0.054271802
0.076153256 0.15222988 0.11347019 0.013297673 0.059380524 0.01882486 0.11754817 -0.085045844
-0.11583471 0.025582422 -0.054298438 -0.13576509 -0.10081821 0.067365706 0.23155841 0.048287842
-0.095190085 0.13536894 -0.14206423 0.09634801 0.14189494 0.021425098 0.23028877 0.09658996
0.1357097 -0.0708571 -0.04867125 0.035573527 -0.12860039 0.03497241 0.025092797 0.010271133
0.20638178 -0.0666778 -0.07216038 0.08447194 -0.1517621 0.11664395 0.10510377 0.22629768
0.09860682 0.13859119 0.17681749 0.1027443 -0.075093836 -0.025206191 0.18059629 0.07768083

regressor.4.weight f4 [40, 80]
00000000: f2c3 07bd 7603 9c3e c075 ef3e fba4 0cbe
00000010: cb8c 653e f645 10bd 186d be3e a2da 833e
00000020: beb1 afbb 9d9b 853e f5bc 7a3d 8b19 863e
00000030: 5284 3abe ab6a 8d3b d9e8 a33e 1b7d 943e
00000040: 2856 c93c 40e3 233e fa2d f63d 4758 523e
00000050: 90a7 563e c99b dbbd d69b 913e e744 003e
00000060: c0de 5c3b 19f1 a43c 9041 d03c 6fd8 49bd
00000070: 62e7 7e3e dd3e 1a3e 475b 1b3e 64cb 393e
00000080: 90dd 2a3c c71b 343c c520 473e efde eb3d
00000090: c3a1 183e 23fa 03bc 99d6 3a3c 2000 803e
000000a0: b03b b63c 213f 623d 4bf2 ae3e adbb febc
000000b0: a656 333e 1509 9ebd f6db b63e ca81 f5bc
000000c0: 570e b1bd 6eb2 0b3d e8d9 893d 5f9e 8b3d
000000d0: abca 433f 1d39 423e 659a eb3e 7661 2f3e
000000e0: c3b9 a0bc c074 53be 044a 173e 88c6 b5bd
000000f0: 20ab f83c 3d5e 593e cc64 473e 2a39 433e
00000100: e79d 923e 1bb5 163e 65e0 49bf a882 603d
00000110: 716b 17be af90 d43d ed2d 933c 5d8b 673e
00000120: 5d7f f13d 4edc b5bd 58bd 6b3e fa4c a03e
00000130: f1e4 0a3e fa73 b63d 2536 debe a3b0 ad3d
00000140: 3088 f73c 9c18 3a3d 06ea db3d dcb5 843d
00000150: 96e4 47bd d388 993c 569e c83d 5fb8 e9bc
00000160: 8180 25bd c2a6 813c ab9f 2d3d b590 acbd
00000170: b1e0 563d 5bfa 5a3d fb9a 6abd da40 613d
00000180: c915 f9bc 2e4d db3d f333 d73b 6c83 d03d
00000190: 7d8e ef3d 3d61 15be df33 193e 6221 c8bc
000001a0: e886 75bd dee6 383d 983e d53d 88dd b1bd
000001b0: 1a01 fcbb 6739 b23d 841c ba3d 08e5 fbbc
000001c0: c661 28bb 30b1 ac3c 76f9 153e 46f3 a2bc
000001d0: 135f fc3b ed88 f43d ae7c 0cbd 1731 e43c
000001e0: f6dd 8f3d 5b68 cabc 0cfa ea3d 2360 3cbd
000001f0: ff0b e13c a4fb 013c 03c3 893d a7f7 e13d
00000200: 202f c0bc c452 053d fbc7 6e3d 0881 40bd
00000210: fa92 45bb c34b b6bc af04 95bb f8fd 94bb
00000220: 1c4d 5d3c 5de0 93be f505 3d3d 35e3 bbbd
00000230: aee8 7ebd 8395 2abc fc31 06bd a645 823d
00000240: 3740 013e b848 c4bc ebe6 10bf 3b83 2fbc
00000250: b1be 6abc d468 b7bc fe55 833d 8c70 de3d
00000260: e392 8abc 5278 9e3d 69f6 2ebd d3d2 d83d
00000270: fb07 c93d 8409 7f3d 3cc0 b2bc 0bf8 f33d
00000280: 6c71 adbd 41d5 12bd 67cd 12bd 0296 0bbe
00000290: 77e4 8d3c c889 863d 1d42 6f3d 41ed 0c3d
000002a0: 1a73 523d 65b9 06bd 1ab3 8ebb a951 14bd
000002b0: 7fa6 a3bb abb8 953d c906 0cbd 057c 193d
000002c0: d22f 653d bb7c c5bd eb24 91bd 3c32 a4bd
000002d0: aa86 7dbd 6dbe de3c 7efb 1abe 0ac6 a3bb
000002e0: d8c3 d33d fe2a a33d bcc9 c83d d7a0 d3bd
000002f0: d3bd f1b8 25d3 b5bd 719e d53d d9b5 013c
00000300: 754c 9fbd 9fa9 46bc 9ba7 903d 9d0f d0bd
00000310: 14e7 96bd 2c36 bcbd ce8e 743d eb6a 41bd
00000320: dadb 923d 802a 9fbc 5908 da3c d7db 52bd
00000330: 22cd 2d3c c94a 883d de29 933d 283d dcbc
00000340: 3472 b8bd 3082 63bd 20fb 92bd c6e3 d93c
00000350: 8b83 51bd dc7e 613d 6e97 5e3d 5181 a2bd
00000360: c43c 12bd f01f 90bd bd76 2c3d fb9d 9dbd
00000370: c876 993d 8586 a53d d8a3 aebd 7884 8bbd
00000380: cfa6 c53d 0ca3 e4bc 0752 493e caf8 a03d
00000390: 545d babd 6958 c03d bf4d 7e3d a1a0 8abd
000003a0: 34ab 95bd 7486 1a3d 52a2 90bd 6d83 71bc
000003b0: ea8a 3bbd ad31 85bd 8afe cbbc ac88 93bc
000003c0: aa47 27bd e4d3 4bbd bc32 e4bd 1990 ac3d
000003d0: 8a53 de3d ba4e 173d 382b f4bd bdd0 57bd
000003e0: 7b75 e73d a1ba 9e3c 4554 c83d 36dd 40bc
000003f0: fa1f b3bc 83c2 8f3c 1d11 683d 7bd3 a23d
-0.033145852 0.3047139 0.46769524 -0.1373481 0.2241699 -0.03522297 0.37192607 0.2575274
-0.0053617647 0.26095286 0.06121536 0.26191363 -0.18214539 0.0043156943 0.32013586 0.29001698
0.024577215 0.16004658 0.12020488 0.20541488 0.20962358 -0.10723073 0.28439206 0.12526284
0.0033702105 0.020134496 0.025421888 -0.049278673 0.24892953 0.15063043 0.15171538 0.18143994
0.010428801 0.010992951 0.19446094 0.115171306 0.14905457 -0.008055243 0.011403703 0.25000095
0.022245258 0.055235986 0.3416923 -0.03109535 0.17513523 -0.07716576 0.35714692 -0.029969115
-0.08645313 0.03410571 0.067310154 0.06817316 0.7648112 0.189671 0.4601623 0.17127022
-0.019619828 -0.20650005 0.14774328 -0.088757575 0.030355036 0.21227355 0.19472045 0.19064775
0.28636095 0.14717524 -0.78858024 0.054812104 -0.1478708 0.10379159 0.017966235 0.22611757
0.11791871 -0.088799104 0.23021448 0.31308728 0.13563897 0.089088395 -0.43400684 0.084809564
0.030216306 0.045433626 0.10737996 0.064799994 -0.04880198 0.018742 0.09795825 -0.028530298
-0.040405754 0.015826587 0.0423886 -0.08426038 0.052460376 0.053461414 -0.057276707 0.054993488
-0.030405896 0.1070808 0.006567472 0.10181317 0.11697099 -0.14587875 0.14961194 -0.02442998
-0.05994311 0.045142047 0.104123294 -0.08684832 -0.007690561 0.08702355 0.0908747 -0.030748859
-0.0025693043 0.021080583 0.14645943 -0.019891392 0.0077017634 0.11940179 -0.03429859 0.02785544
0.070247576 -0.024707964 0.11473474 -0.04599012 0.02747154 0.007933531 0.06726649 0.11033564
-0.023459971 0.032549635 0.058296185 -0.046998054 -0.003014742 -0.022252923 -0.0045476775 -0.004546877
0.013507154 -0.28882113 0.04614826 -0.09174196 -0.06223362 -0.010411623 -0.032762513 0.06360941
0.12622152 -0.023960456 -0.5660235 -0.01071244 -0.014327691 -0.022388853 0.06412886 0.1086131
-0.016915744 0.07737793 -0.042715464 0.105870865 0.09815975 0.062264934 -0.02182018 0.11912545
-0.08468899 -0.035847906 -0.03584042 -0.13631442 0.017320855 0.065692484 0.05841266 0.03440595
0.0513793 -0.03289165 -0.0043548467 -0.03621069 -0.004994213 0.07310613 -0.03418616 0.03747179
0.055953808 -0.09642931 -0.0708712 -0.08017394 -0.061896004 0.027190411 -0.15134999 -0.0049979733
0.103400886 0.079671845 0.09804103 -0.10333412 -0.00011527133 -0.08878163 0.10430611 0.007916891
-0.07778255 -0.012125402 0.07063218 -0.10159228 -0.073682934 -0.0919002 0.0597065 -0.047221106
0.071708396 -0.019429445 0.026615309 -0.051479187 0.0106079895 0.06654889 0.0718572 -0.02688463
-0.090061575 -0.05554408 -0.071768045 0.026597869 -0.05115084 0.055052623 0.054343633 -0.079348214
-0.035702482 -0.070373416 0.042105425 -0.07696148 0.07493359 0.08082298 -0.085273445 -0.06812376
0.09650957 -0.027909778 0.19660197 0.07859953 -0.09099832 0.09391863 0.062085863 -0.06768919
-0.07308045 0.03772588 -0.0706221 -0.014740807 -0.045786776 -0.065036155 -0.024901647 -0.018009506
-0.04083983 -0.04976262 -0.11142489 0.08425922 0.108557776 0.036940314 -0.11922306 -0.052689303
0.113017045 0.019376101 0.09781698 -0.011771491 -0.021865834 0.017548805 0.056656945 0.07950493

regressor.4.bias f4 [40]
00000000: 8c32 963e 9190 813c a41a b43d 2d82 7bbd
00000010: 48f0 24bc 261f afbd b156 6f3e e40f d43a
00000020: 9f06 e33d 465e 88bd 78ff 9e3d a290 ff3c
00000030: a86d 873d 220c fe3a 278e cf3d ebed 153f
00000040: 73e5 2d3d d5c1 713e a538 cb3c b757 8bbd
00000050: 6905 f23d 3934 ddbb 42ec f13d 8d38 7a3c
00000060: 4a48 f0bc c4f0 a53d f9a6 253e 1185 b53e
00000070: dc95 d93e 393a b63d e055 2f3d a036 a83d
00000080: 6bb1 053f b182 9b3c e791 d03d 1359 e23d
00000090: ec76 043e b0be 7abd cedf ac3d d52b fc3c
0.2933544 0.015816005 0.08794144 -0.061403442 -0.010067053 -0.08550863 0.23372914 0.0016179052
0.11085247 -0.06658606 0.077635705 0.031196896 0.06612712 0.0019382278 0.10134535 0.5856616
0.042455148 0.23609097 0.024807284 -0.0680384 0.11817438 -0.00675061 0.11812641 0.015272272
-0.029331345 0.08102563 0.16176976 0.35453084 0.42497146 0.08897824 0.042806506 0.08213544
0.52223843 0.018983217 0.10184079 0.11052146 0.1293599 -0.06121701 0.08441125 0.03078262

regressor.6.weight f4 [1, 40]
00000000: 81bd 59bd 668a 38b9 dd41 9c3d b57b 3f3d
00000010: 9171 193d a2a4 ff3d 8416 58bd adde 563c
00000020: b1e2 93bd b5c9 fe3d 55cc e4bd 29fb 8dbd
00000030: 3258 00be e9f9 f73b c1ef 403b 027b 5cbe
00000040: f345 4d3d 878b 77bd 77ee 0bbc becb cdbb
00000050: 3661 f53d 78ba 433d b8a4 71bd 25a3 a63d
00000060: 0e7c 05be 3d1a c63c bce7 6c3b a6bc fabd
00000070: 7e7d babd bb5d f1bd 2619 513d 5eaf 9abd
00000080: ce0f 07be 8c8e 8d3d 90c1 15be 7f24 313e
00000090: aaa7 e03d dc25 b23d 9d9a c5bd 0952 313d
-0.05315924 -0.00017599165 0.0762975 0.046748836 0.03746182 0.12482573 -0.052755848 0.0131146135
-0.07220972 0.12440816 -0.11171786 -0.069326706 -0.12533644 0.0075676334 0.002943978 -0.21531299
0.050115537 -0.060435798 -0.008540741 -0.0062803915 0.11981432 0.047785252 -0.05899498 0.08136586
-0.13035604 0.024182433 0.0036148867 -0.12243013 -0.09105967 -0.11785456 0.051049374 -0.0755298
-0.13189623 0.06911954 -0.1462462 0.17299078 0.109694794 0.08698627 -0.09648631 0.043291125
