experiments/models/landS_maml_model2.pt (torch, 31039 bytes, 7 tensors)

regressor.0.weight f4 [40, 10]
00000000: 00d2 41be 936c 44bd 496c a33d d5bd f3bb
00000010: 3f6e 75be 1054 b33e 7798 f53e f2d0 f7bc
00000020: 57ae 9f3e b4a9 863d 73a3 8dbe 1c0b 24be
00000030: 3d15 953e c7e7 0a3e 0a6f 033e 6935 1ebe
00000040: 0755 bf3e bcf4 ad3e d130 3cbe b184 873e
00000050: b5f7 b83d c484 733e b597 093d 9e2b 91bd
00000060: b419 863d 49bf 1ebe f900 f53d 38ca 0c3d
00000070: 4c61 84bd 6160 a13e 0196 123e 18a0 4cbe
00000080: e143 283e e89b 473e f4c2 63be c047 8c3e
00000090: 02ad cd3d 81a6 be3e 86e7 8cbe 603e 983d
000000a0: 6018 543e c4a9 563e d322 b13d e7ab 803d
000000b0: 5ed1 593e a46c f7bd 434c 933e 6f1e 8c3e
000000c0: 8086 1ebc 9c08 b03d c1eb 8f3e 40e4 92bc
000000d0: 45cc 0bbe 501e 41be a1f0 9e3e add1 af3d
000000e0: 49ac 933e 28d4 6e3e 5658 26be fa50 4c3e
000000f0: 1026 0f3e 7ccf 46be 8b75 883e b5ba 7bbe
00000100: 1d9b 883e 627c 033e 8451 56bd bdbb 4abd
00000110: f488 b6bd 427a 51be ae0c 1a3d 6a5f d43d
00000120: 2a77 883e 9ef8 97bb 8256 26be dce9 a53e
00000130: e224 0e3e c285 07be 4240 30be 54e7 1fbe
00000140: 0269 123e f2de 213e 502c 2dbd 65e4 823e
00000150: 6a42 683e 3a21 22be 7e28 4f3e 85d6 7ebe
00000160: 1ec8 88be f302 28be c38e 913e 08af 87be
00000170: 127f 093e e21c c4bd 6895 24bd d619 48be
00000180: d5fe 953c 063f 38bd 30b6 b63c 4a17 3a3e
00000190: 98a6 753d 0e3d b73d 1ae9 8fbd ce5f 133e
000001a0: 4e65 1bbe 3bd4 c33e aa4e 9d3e 583e 76bd
000001b0: 8a03 7a3e 0732 993e 9f9f 123d d281 15be
000001c0: c16e 8b3e ab5d 29bd 90ed eebd f162 713d
000001d0: 8fc0 d63e 6398 c03e c43d 96be 6ca8 2b3e
000001e0: 7aba 4f3e 9504 943e 2048 843e a45d b6bd
000001f0: 0016 7ebb eab8 36be f75e 8a3e 558d 683e
00000200: b54f 92be 8280 06be 8aa5 52be b974 853e
00000210: 8151 91bc eb4a 62b9 e0e9 513c 1aa3 ba3e
00000220: 2ed0 8bbd 4da9 c63e dc8d 083e 30dd efbd
00000230: c4d9 893e 2eaf 4e3d 2598 7fbd f39f 63be
00000240: e4de 0fbe e9b6 9d3e b111 8f3e c437 853e
00000250: 26b6 4b3e 10fe f03c 33cf 9fbe 70b1 223d
00000260: 0ee9 8b3e d68b 83be 1a78 773e 8573 b23c
00000270: 8e7f 223d dd01 533e d66a b6bd ea93 8dbd
00000280: 6426 8d3e 9113 08be 7ea6 d4bd 75e9 0e3e
00000290: 4096 8dbe 39e0 833e 93cf 803e dbaf 283e
000002a0: 7455 093e d249 31be e0d4 9b3d 0b04 fcbc
000002b0: 1eb1 c63e 9060 4b3c 6e87 663e 1c8d a9be
000002c0: 616b 843d 051c eabc b097 183e 0059 9f3d
000002d0: 1b61 3a3e de20 02bd cc50 b43e 35fb 4bbe
000002e0: 5c50 a83d b0f1 a33e 93e9 5a3d 7aeb 923e
000002f0: e611 7e3e 40fa c23c 876b 843b dde7 f93c
00000300: 0ad5 babd c81a 23be bcf6 66be 9867 f4bd
00000310: 00ad 313e 6b5f 9d3e 6ef6 66be 70bc 64be
00000320: d892 9d3d d3cf a13e 6e8b 033c 3b96 5abd
00000330: d009 7fbd c080 bc3e e2de ee3e 1ddb ec3a
00000340: a661 1a3e fcaa e83d fa4f 6fbe 0680 913e
00000350: 4bf2 3f3e a631 a43e 2060 55bc 9173 aabd
00000360: 1916 773d c607 67be 8bda 863e 5e69 13be
00000370: a085 6cbd f0e2 a33d ee65 073e aabb 80bd
00000380: 12bb 5c3e 8b1c ae3d 0f88 e23e 0f6f 6f3e
00000390: e28b 4dbe 38d1 ca3d 6075 89be f5c5 403e
000003a0: f34a 14be 22df 173e c8b2 023d 22cc f4bd
000003b0: db6d a6be 6f10 e3bd 845c 273e aa7e 513e
000003c0: 962c 52be c572 763d 7c30 013e 27cd 13be
000003d0: ee71 8ebe 14ca 843d 61f1 1ebe 08cc 913e
000003e0: 1a25 8bbe 0097 303d 7288 c6bd e372 35be
000003f0: 6f70 863e 0f78 ccbd 59d7 a03e 4c5e d3bd
-0.18927765 -0.047955107 0.07979638 -0.007438401 -0.23967837 0.35025072 0.47967884 -0.030251
0.31187698 0.06575337 -0.27663764 -0.16019863 0.29117766 0.13564979 0.12835327 -0.15450062
0.37369558 0.3397578 -0.18377997 0.26468423 0.09031621 0.23781115 0.033591945 -0.070883974
0.06547871 -0.15502657 0.11963076 0.03437254 -0.064638704 0.31518844 0.14315034 -0.19982946
0.16432144 0.19493067 -0.22242337 0.2739849 0.10042764 0.37236407 -0.27520388 0.07433772
0.20712423 0.20963198 0.0864922 0.06282788 0.21271273 -0.120812684 0.2876912 0.2736697
-0.009675622 0.08595392 0.28109553 -0.017931104 -0.13652141 -0.1885922 0.3104296 0.08584914
0.2884238 0.23323119 -0.16244635 0.19952765 0.13979363 -0.19415087 0.26652178 -0.24582942
0.26680842 0.12840417 -0.052323833 -0.049495447 -0.089128405 -0.20456794 0.03760975 0.10369761
0.26653415 -0.004637792 -0.16243938 0.32404983 0.13881257 -0.13234618 -0.17212012 -0.15615588
0.1429787 0.15807703 -0.042278588 0.25564876 0.22681585 -0.15832987 0.2023029 -0.2488652
-0.26715177 -0.16407375 0.2842923 -0.26500726 0.1342738 -0.095758215 -0.040181547 -0.19541106
0.01830999 -0.04498198 0.02230367 0.18172947 0.05997333 0.08947192 -0.070268825 0.14392015
-0.15175363 0.38247856 0.30724078 -0.06011805 0.24415413 0.2992098 0.035796758 -0.14600304
0.27232936 -0.041349094 -0.11666405 0.05893225 0.41943786 0.37616262 -0.29343998 0.16763467
0.20285979 0.28909746 0.25836277 -0.08904579 -0.0038770437 -0.17843977 0.27025577 0.22710164
-0.28576437 -0.1313496 -0.2057096 0.26065615 -0.01773906 -0.00021580949 0.012812108 0.36452562
-0.068268165 0.3880104 0.13335365 -0.1171211 0.26923954 0.050460033 -0.062400956 -0.22228985
-0.1404987 0.30803612 0.27943185 0.26019108 0.19893703 0.029418021 -0.31212768 0.03972
0.27326244 -0.25692624 0.24166909 0.0217836 0.039672427 0.2060618 -0.08907096 -0.06912978
0.27568352 -0.13288714 -0.10383318 0.13956244 -0.27653694 0.25757006 0.25158367 0.16473334
0.13411504 -0.17313316 0.07608962 -0.030763647 0.38807005 0.012413159 0.225126 -0.3311547
0.064657934 -0.028577814 0.14901614 0.07780647 0.18201105 -0.031769626 0.35217893 -0.19920047
0.08218452 0.3202033 0.05344541 0.2869528 0.24811515 0.02380097 0.0040411386 0.030506069
-0.09122665 -0.15928185 -0.22555059 -0.119338214 0.1735115 0.3073686 -0.22554943 -0.22337508
0.07694024 0.3160387 0.008028848 -0.053365927 -0.062265217 0.36816978 0.4665442 0.0018070672
0.15076312 0.11360738 -0.23370352 0.28417987 0.18744771 0.3206913 -0.013023406 -0.08322824
0.06032381 -0.22561559 0.2633861 -0.14395663 -0.057744622 0.08002269 0.13222477 -0.06285794
0.21555737 0.08501538 0.4424443 0.23382209 -0.20072892 0.099031866 -0.26847363 0.18825515
-0.14481716 0.14831212 0.03190878 -0.11952998 -0.32505688 -0.11087119 0.16343886 0.20458475
-0.2052482 0.060168047 0.12616152 -0.14433728 -0.27821296 0.06483856 -0.15521766 0.28475976
-0.27176744 0.043112755 -0.09693994 -0.17719607 0.26257655 -0.09983837 0.31414297 -0.1032072

regressor.0.bias f4 [40]
00000000: 00a6 aa3c 2dc2 ae3d f553 013e c95e 9b3e
00000010: 1ed5 51be 2802 3c3e cb33 ad3e 924c 3ebd
00000020: 113f 563e 631f 643e 1793 e33d 7f6e 96bd
00000030: 66ce 0abd bb32 8cb9 28cc aa3e 2f0f fb3d
00000040: 2daf a13e 7f0b a43e 7a48 b9bc 57e0 41be
00000050: 52db e2bc f077 f2bd c007 0b3e 3be7 3dbd
00000060: 90b9 15be b7e9 73be 7068 88bd 7c72 863d
00000070: ab00 6abe 632d 453e 6a5c cd3d 8adb a23d
00000080: b518 bdbb 3e02 523d 13cf 023e 8af4 663e
00000090: 9248 7abe cacb 033e f607 54be 65f6 053e
0.020831108 0.0853313 0.12629683 0.30345753 -0.20491454 0.18360198 0.33828577 -0.046459742
0.20922495 0.22277598 0.111120395 -0.07345294 -0.033888243 -0.00026740678 0.33358884 0.122587554
0.3157896 0.3204002 -0.022617567 -0.18933235 -0.02769247 -0.118392825 0.13577175 -0.046363097
-0.14621568 -0.23819624 -0.06660545 0.06564805 -0.22851817 0.19255595 0.10027392 0.0795203
-0.0057707676 0.05127167 0.12774305 0.22554222 -0.24441746 0.12870708 -0.20706162 0.13082273

regressor.2.weight f4 [80, 40]
00000000: 67c6 043e d58f 093d 2f78 943d b019 103e
00000010: 0d50 fc3d 2630 b7bb 78c3 823d e5b3 f43b
00000020: 0cc2 e6bd 1db6 82be 8f0c 3a3e 7e38 973d
00000030: 38e2 fabd d248 973d eaaf d43d 7e29 90bd
00000040: e9ad 823d 8ad3 c4be 4977 673d 0adb f33c
00000050: f52a 2c3e 096d f23d 9673 573d eddb debd
00000060: 5702 353c 6039 7bbe 0da3 31bd a25d 9abd
00000070: a2fc 7abd ca66 593d 7143 273e 1599 b7bd
00000080: 5c0e 17bd b35b c0bd c197 683d 6e53 4a3e
00000090: 2076 e6bc 0ba7 6fbd 39ba 20be 7dfd bdbd
000000a0: dc62 e1bd a32c f93d 22d1 df3c 3e57 9bbd
000000b0: da9a 803d 4f02 1ebd c0f3 ebbd ed81 9e3d
000000c0: 020a 4b3a cb54 3cbd cfff 50bd 14b8 40be
000000d0: 6869 8a3c 7586 2ebe 1872 c03d 52eb 0c3e
000000e0: 9e7a c6bc ae64 d3bd fbdb 8f3c ce66 24be
000000f0: 1c97 debd d9f6 813d 750e 2abe 7cf5 45bd
00000100: f182 24be 2a70 833d 83f3 6d3d f298 4abe
00000110: cd9f 9a3d 8eea ab3d dade 22be 0ef8 61bc
00000120: 382a ffbd cd94 03bd d184 423d b8d4 14be
00000130: e859 303d 5232 253d 3bf0 debd 638a 20bd
00000140: 82ae c33d 57b1 ce3d a31b ab3d da53 e93d
00000150: e7a2 37bd 7d65 f5bd df06 91bd 53c9 0a3e
00000160: a587 84bc 2325 cdbb 75ae 2dbc b95c 12be
00000170: f0e2 55be b9e2 90bd 2817 24bd 6498 063d
00000180: 4fcd c73d 18b7 fbbd 62a8 06be a05c b33d
00000190: 3f7a 1ebe 8402 493c 92b4 5dbe 5a62 98bd
000001a0: a29c 0abe 865a 323c 5d10 b63d ee2e 2c3d
000001b0: cfdd d33c 3fbd ac3d 037f 5bbd cd51 363d
000001c0: a1cd 9f3d 48bf ecbd 118f eb3d 71c4 6abd
000001d0: 9824 a03d 5ddd 8e3d 824d e73c 7dcb 2bbe
000001e0: c421 bbbd 5106 183e 15a1 823e c1b4 0e3d
000001f0: 4da8 56bc 9a36 c33d b558 383c c36a 78be
00000200: d441 10bd ff1c a23e 5f98 24be b9fa c93b
00000210: d17e 003c e588 2fbe 30e8 5cbc 5f87 30bd
00000220: 0a9d 33be b5a1 3b3e e860 03bd 98fe ec3d
00000230: f155 d93d a39b ddbc 79fe 47bd ca38 9d3e
00000240: 14d4 243c 9a63 a4bd ccd2 333d 6599 b1bd
00000250: 7ec7 13be a02b 09be cc00 f93d 93dc 6c3e
00000260: 1992 dc3d 8413 0bbd a948 0dbd 98c7 423d
00000270: 5d1b 023e 06da a33d 01a0 9c3d 712a c53d
00000280: 25ba e3bd dbc0 523d e4f4 d43c 7267 323c
00000290: 7417 8abd 1a64 cf3c 0691 a63d 1cc5 103e
000002a0: 1e9e 0b3d 40c7 f3bd 569f c1bd 5123 813e
000002b0: d960 d33d 8dc8 073e 4d2f 55bd ed6b c03b
000002c0: ddc5 77bd 0152 c8bb 5233 593c 474a 53bd
000002d0: f155 b7bd eb00 a63b 2b71 383e f1f8 6b3d
000002e0: 9887 453c d7c4 8fbd f5b4 c3bd dd07 443e
000002f0: 33ab b63d 0459 d0bd 2eab 30be 60d3 403e
00000300: 62d5 6abe f304 65bc 2a3e eabd 839f 113e
00000310: 28c5 b53c bac4 ca3d a302 8e3d 72e8 cf3c
00000320: ead8 803d edca 06bd 8ee8 953d 8705 71bc
00000330: 0e4a 44bc 1ce4 03be 0687 1e3e e3c3 173e
00000340: 118b c43d 7ceb 0fbe c2cd d33c feb8 10bd
00000350: 8b46 dabd d789 2a3e 6624 1b3e f645 f6bd
00000360: 903f 3cbd 091e 00be 8eea 4d3e b376 cb3d
00000370: 81cf 293d 73d8 7f3d c8c2 113d f9f4 b2bc
00000380: fe3a b4ba 3844 223e 0206 1c3e b2ff a0bd
00000390: 2af6 383d 0ab0 273d 7f6f f7bd e1bf 63bc
000003a0: 24bf 30be 09cb 69be 8e3d 1a3d c0e5 863d
000003b0: 321d 78bd 24bb 52bc 681d 103e 1068 13be
000003c0: dbf1 f2bd c2ca 02be 7a4e cbbc 0010 4c3d
000003d0: fdee 91bc 23b8 0abe 4289 9b3d 4a53 b93d
000003e0: b641 c13c 55b7 2bbe 17a8 223e e10d 7f3d
000003f0: 00b4 babd a74f 07bc c925 36bd 2e53 653d
0.1296631 0.033584435 0.07249486 0.14072299 0.12319956 -0.0055904565 0.06384939 0.007467734
-0.1126748 -0.25529566 0.18168853 0.07383822 -0.12250179 0.07386936 0.103851154 -0.07039164
0.06380827 -0.38442641 0.056510244 0.029767532 0.16813262 0.11837203 0.052600466 -0.10881791
0.011047921 -0.24533606 -0.043368388 -0.0753739 -0.061276086 0.053076543 0.1633432 -0.08964745
-0.03687893 -0.0939249 0.05678535 0.19758388 -0.028132498 -0.058508914 -0.15696038 -0.09276865
-0.11005184 0.12166717 0.027321402 -0.075849995 0.062795356 -0.03857642 -0.11521101 0.07739625
0.0007745327 -0.045979302 -0.051025208 -0.1882022 0.016895965 -0.17043479 0.09396762 0.13761643
-0.02422839 -0.103219375 0.01756095 -0.16054842 -0.108686656 0.063459106 -0.16607077 -0.048329815
-0.16065575 0.06417878 0.05809356 -0.19784907 0.07550011 0.08394347 -0.15905324 -0.013792051
-0.124592245 -0.03212433 0.047489945 -0.14534271 0.04305449 0.040331192 -0.10885664 -0.039194476
0.09554769 0.10092419 0.08354881 0.113929465 -0.04483309 -0.11982248 -0.07081389 0.13553362
-0.016177962 -0.0062605306 -0.010600676 -0.14293183 -0.20887351 -0.07074494 -0.040061146 0.032860175
0.097559564 -0.12290782 -0.1315017 0.08757901 -0.1547632 0.012268666 -0.21650913 -0.07440634
-0.13536313 0.01088584 0.0888984 0.042036943 0.025862603 0.08434533 -0.053587925 0.044511605
0.078028925 -0.115599215 0.11501897 -0.057316247 0.0781948 0.069758154 0.0282352 -0.16776843
-0.091373 0.1484616 0.2551352 0.03484035 -0.0131016495 0.09531899 0.011251618 -0.24259476
-0.03521903 0.31662747 -0.1607375 0.0061639217 0.007842735 -0.17142065 -0.013483092 -0.04309785
-0.17540374 0.18323405 -0.03207484 0.115719974 0.10612095 -0.027051752 -0.04882667 0.3070739
0.010060329 -0.0802681 0.043902203 -0.08671836 -0.14431569 -0.13395548 0.12158355 0.23131017
0.107700534 -0.03395416 -0.034493122 0.04755363 0.12705751 0.08000569 0.07647706 0.09627236
-0.111194886 0.051453453 0.02599568 0.010888921 -0.067427546 0.025316287 0.0813313 0.14137691
0.03408634 -0.11903238 -0.09454219 0.25222257 0.103212066 0.13260098 -0.052047063 0.0058722408
-0.06049143 -0.0061132913 0.013256865 -0.05158451 -0.08951939 0.0050660274 0.1801192 0.057610456
0.012056254 -0.07019966 -0.09555999 0.19143625 0.089193724 -0.101732284 -0.172528 0.18830633
-0.22932962 -0.013978231 -0.11437638 0.14221005 0.022188738 0.09900804 0.06934097 0.025379393
0.06291373 -0.03290837 0.07319747 -0.0147107905 -0.011980547 -0.12879986 0.15481195 0.14820819
0.09596837 -0.14054674 0.025854949 -0.035332672 -0.10657986 0.16654144 0.15150604 -0.12025063
-0.045959055 -0.12511458 0.20109007 0.099347495 0.041457657 0.06246228 0.03558615 -0.021845328
-0.0013750491 0.15846336 0.15236667 -0.0786127 0.045156635 0.04093937 -0.12081813 -0.013900728
-0.17260414 -0.22831358 0.03765636 0.0658679 -0.060574718 -0.012862001 0.14073718 -0.14395165
-0.118625365 -0.12772658 -0.024817694 0.049819946 -0.017814154 -0.13546805 0.07594539 0.09049089
0.023590904 -0.16769154 0.15884434 0.062269095 -0.091163635 -0.008258737 -0.04446963 0.05598753

regressor.2.bias f4 [80]
00000000: 30dc 433e a42b d0bd 51b9 8b3d 01fc 1d3e
00000010: 92c8 30bc 0c81 0a3e a766 143e 2214 40bd
00000020: 535c 1b3e fe9e be3c 516d 93bd d75f 823c
00000030: ee2e 0dbe 6de2 8e3d c434 b23d 615c 73bd
00000040: 9ede 9f3d f955 9dbd 5cfb b3bc 4943 773d
00000050: 383d 04be db56 09bd 625c 053e 4dba 773d
00000060: ebe0 b93c 15de ccbc 0a56 d5bd b279 cf3d
00000070: d738 9b3c 9d08 9dbd 73e7 39bd 7c46 c5bd
00000080: 220d c63d f110 3d3e b46e babd 70cd abbc
00000090: e7f7 713d c3c2 95bc d2da 4dbd 3291 4a3e
000000a0: 931f b9bd cebc c53c 4566 023e ae10 2e3e
000000b0: 60f8 fe3d 23d9 f73d 598b 86bd 773c 0c3e
000000c0: 69d5 cd3d 8cf3 9a3d 3d3e 96b9 2052 a8bd
000000d0: a009 693c 963f 773d 8202 e63d ab01 eb3d
000000e0: ac1d 323d 12ca f4bd 5af5 443d e9a2 ebbd
000000f0: d33c f83d 7412 2f3e b17d 92bd f5df 48be
00000100: ce22 173e 3ca4 f43c d023 123e ffcc 383e
00000110: 5bb3 b1bd 2692 47bb 8c9e 023e 3a44 063b
00000120: 35ce 063e 8fad 8fbd c8a9 a73b 806c b23d
00000130: a8c5 98bd e0b2 e0bd 1f7d a0bb 9fa9 87bd
0.19126964 -0.10164574 0.06822456 0.15428163 -0.010790007 0.1352579 0.14492284 -0.0468942
0.15171938 0.023269173 -0.07198585 0.01591484 -0.13787434 0.06976781 0.087014705 -0.05941427
0.07806133 -0.076824136 -0.021970443 0.060366903 -0.12913978 -0.033530097 0.13023522 0.060480405
0.022690257 -0.02500824 -0.10416801 0.101306334 0.018948002 -0.076676585 -0.045386743 -0.096325845
0.09670474 0.18463494 -0.09103146 -0.020971984 0.05907431 -0.018281346 -0.05025751 0.1978195
-0.090392254 0.02413788 0.12734325 0.1699855 0.124497175 0.121019624 -0.06569547 0.1369494
0.100504704 0.07565984 -0.000286566 -0.08218789 0.014223486 0.060363375 0.11230947 0.114749275
0.04348533 -0.11952604 0.048085548 -0.11505682 0.12120976 0.17096883 -0.0715288 -0.19616683
0.1475937 0.02986347 0.14271474 0.1804695 -0.086767875 -0.0030452101 0.12755793 0.0020487444
0.13164599 -0.070155255 0.005116675 0.08712101 -0.07459575 -0.10971618 -0.004897728 -0.066241495

regressor.4.weight f4 [40, 80]
00000000: 6e57 50bd 3a9b 793d b0f7 1a3d 7461 903c
00000010: 5488 4f3b 1ee1 2a3d 385e 6c3d 80c8 d73d
00000020: 5627 893d 266f 2fbd 366a 7f3d 20c2 eabc
00000030: 0ce9 c73d e71a af3c 51a2 023e e67c 173d
00000040: af73 5ebc 7b68 9f3d 1f96 823d 36ed c73d
00000050: 0318 903d 4715 9b3d 5ca1 803b 65d3 14bd
00000060: eab3 d6bc 7b2c db3c e258 d73d 4257 d9bb
00000070: cda2 8c3c 5a3d 033d 93ff 963c 4689 92bd
00000080: 44ab 09be 67ec b23d 62d8 9d3d 654c d9bd
00000090: 5602 b7bc 3dd9 e83c 86db 813d df4d 723d
000000a0: baba 7c3d 5f19 923d ccbb d03d fd9a ee3d
000000b0: a631 03bd 05ae cabc 5d3b 623d cc8d d03a
000000c0: a0af ea3d 0636 1abd 3579 8bbe 2087 bdbc
000000d0: 932b b93d 4a18 d13d 7aeb 6eba daf1 8c3d
000000e0: 56a8 cdbd 84b4 c83d 5e43 1cba e076 15bc
000000f0: 18d8 53bd 97b2 b23d 3817 1d3e c0b3 4ebd
00000100: d35c e13d 2d81 5cbd 87f0 3ebd 4211 9d3d
00000110: ee78 2fbd 2c5e 623d 1821 3a3d f472 64be
00000120: e0fe 673d 7e4f 793d 337b ba3d 6516 91bd
00000130: 501f ae3d e2c1 bf3d e92b b63d 8d55 133d
00000140: f68d f0bd 0749 993d e8f0 98ba a0f4 093d
00000150: 1f22 d43b d855 473d 4d99 f13c 3c4f 8a3d
00000160: 89e4 973d 8d70 0f3d 02f3 99bd 8ac1 7abc
00000170: fa40 abbd 84b6 f6bd 5236 9d3d 5204 1c3e
00000180: 9108 803d 900c 083e 36da 8b3d 9eb8 97bd
00000190: 8488 07bd dc76 bcbd f8a9 a6bd c9d4 9bbc
000001a0: 9828 d43d cbde 0d3d f810 64bc c16b 123c
000001b0: 9738 0abd b3bf 2bbd 1c19 1d3d d496 443d
000001c0: 4e51 c2bd b384 81bc dc32 783d e8b6 a33d
000001d0: badd 84ba 052e 49bd 00e4 283d 2fb2 c6bc
000001e0: 1b22 853d af2c a73d 0559 b6bc 4e5c 94bc
000001f0: c7c7 07bd 10c3 9cbd c5c7 043d 6042 17be
00000200: 24fb e1bd 8609 fd3c 064a 95bd bf0e 54bd
00000210: 77ed d1bd c440 d13c 8dee 013d a4bd 0b3c
00000220: ce05 573b 507c 8e3c 1f3a 9a3c d078 133c
00000230: 5118 ac3d be0b 123d bf89 293d 387e e53a
00000240: aa25 cfbd f27c 5b3c e10b abbc 621e 5f3e
00000250: 920c 7abd fb84 84bd 784c bebd 5005 473e
00000260: 9d02 66bc 519d 683c 1466 413e 04d6 6b3b
00000270: 6310 fcbd ebab 4abd a681 f0bd 792e 7dbd
00000280: 8a75 643d 2dc1 f4bd 73ad 193c b1f1 a439
00000290: 6a46 363d 21f7 823d 1386 31bd e8ce 7c3d
000002a0: 0dfb 00bd 11b4 9fbd 0f12 373d d013 2fbd
000002b0: c403 9cbd c298 fb3d e6aa bfbd 6b0f 00bd
000002c0: fa1e bfbd 8b92 98bd 0b7c f53a 2ae8 24bb
000002d0: e79f d5bc 4ea8 4e3d 4af0 283d 2653 c9bd
000002e0: 2c70 53bc cb80 a73c 81e2 c4bd a956 92bc
000002f0: ba06 9a3d 58dc 69bd b368 86bb a691 fbbd
00000300: 5e2b 8dbc ed92 c2bd 4b77 8dbc d776 d9bd
00000310: 81b0 a0bc 217c a3bd c0ad 563d 4975 793b
00000320: ce0f acbd b1a0 d73d 6b96 e0bc a3af 703c
00000330: 20e0 80bc d89b cc3d ed78 a83d 1f93 7b3c
00000340: e97d d3bd 910b ad3c ec33 043e 956d 59bd
00000350: ab99 7b3b 2ae5 ad3c 1768 1c3d 11f5 e23c
00000360: 3a77 353d 83e4 44bd bd1f cbbd 18ab c0bd
00000370: 15b9 b63d 6e39 7abd 3760 33bd 7196 973d
00000380: f6ee 913d 438c 63bd 6a72 b23d 9747 933e
00000390: 52b6 753c a6a2 a43d 7030 793d 4a6f 4d3c
000003a0: 1e27 d6bd bfa1 953d 4708 ff3c 07b0 95bb
000003b0: beeb 143c baef bebd 45cc fcbd 2c44 c33d
000003c0: ca13 0bbc cd24 f2bc 20ff b2bd 56e2 afbd
000003d0: 72d9 5cbd 0edb 933d 92b6 e3bd b2f3 af3d
000003e0: 71fc a5bd 87a0 253c 3d5b ca3d db10 61bd
000003f0: a291 dd3d 946e d9bd f1aa c43c f9aa 59bd
-0.05086463 0.06093905 0.03783387 0.017624594 0.0031666951 0.041718595 0.05770704 0.10536289
0.06696956 -0.04283061 0.06235715 -0.02865702 0.09761247 0.021375133 0.12757231 0.036984347
-0.013577386 0.077836 0.063762896 0.09762041 0.0703583 0.07572418 0.0039254855 -0.036334414
-0.026208837 0.026754608 0.10515 -0.0066327164 0.017167473 0.03204093 0.018432414 -0.07155089
-0.13444239 0.087364964 0.07707287 -0.10610274 -0.022339981 0.0284239 0.06340699 0.059156295
0.061701514 0.071337454 0.101920694 0.116506554 -0.03202977 -0.024741182 0.055232394 0.0015911399
0.11459279 -0.037649177 -0.2724091 -0.023135722 0.09041514 0.10209711 -0.0009114068 0.06882067
-0.10041873 0.098000556 -0.0005960966 -0.00912258 -0.051719755 0.087254696 0.15340889 -0.05046439
0.11004033 -0.05383413 -0.046616104 0.07669307 -0.042839937 0.05526559 0.045441717 -0.22309476
0.056639552 0.060866825 0.0910553 -0.070843495 0.08502066 0.09363152 0.08895094 0.03597026
-0.11745827 0.07484632 -0.0011668475 0.03368056 0.006473794 0.04866585 0.029492045 0.06753394
0.074166365 0.035019446 -0.07517053 -0.015304932 -0.08362003 -0.12046531 0.076763764 0.15236023
0.06251634 0.13286042 0.0682873 -0.0740826 -0.033089176 -0.09202358 -0.08137888 -0.019022362
0.10359305 0.0346363 -0.013920061 0.008936823 -0.033745375 -0.041930865 0.038354024 0.047995403
-0.09488164 -0.015810346 0.06059538 0.07993871 -0.001013688 -0.049116153 0.041233063 -0.024254886
0.06500646 0.081628196 -0.022259245 -0.01811042 -0.033149507 -0.07654393 0.032417078 -0.14771414
-0.110342294 0.03088833 -0.072895095 -0.051771875 -0.10250371 0.025543578 0.03172164 0.008529101
0.0032809856 0.017393261 0.018826542 0.009000972 0.084030755 0.03565573 0.04139113 0.001750893
-0.10114606 0.0133964885 -0.020879688 0.21788934 -0.061047144 -0.064706765 -0.09291929 0.1943562
-0.014038709 0.014197663 0.18886596 0.0035985718 -0.12307813 -0.04948036 -0.117434785 -0.061811898
0.055776156 -0.11950908 0.009379732 0.00031460592 0.044500746 0.06394792 -0.043340754 0.06172076
-0.03148942 -0.07798017 0.044694956 -0.042743504 -0.07617906 0.122849956 -0.09358768 -0.031264704
-0.0933208 -0.07449826 0.0018728984 -0.0025162795 -0.026077224 0.050453477 0.041244783 -0.098303124
-0.012905162 0.020447155 -0.09613515 -0.017863588 0.07520814 -0.0570949 -0.0041018366 -0.122836396
-0.017232593 -0.0950068 -0.017268797 -0.1061837 -0.019615414 -0.0798266 0.052411795 0.0038064292
-0.08401452 0.10528696 -0.027415475 0.014690313 -0.015731871 0.09990662 0.0822619 0.015354901
-0.1032675 0.02112368 0.12910432 -0.05308302 0.0038391154 0.021227438 0.038185205 0.027704747
0.044303156 -0.04806949 -0.09918163 -0.094076335 0.0892202 -0.061089925 -0.04379293 0.07401741
0.07125656 -0.055553686 0.08713229 0.28765556 0.014997082 0.08038835 0.06083721 0.01253874
-0.1045668 0.07306241 0.031131877 -0.0045681032 0.009089408 -0.09323068 -0.12343649 0.09534487
-0.008488605 -0.029558564 -0.087400675 -0.08588092 -0.05391831 0.07219516 -0.11118807 0.08591403
-0.0810479 0.0101090735 0.098806836 -0.054947715 0.10818793 -0.10616794 0.024007292 -0.053141568

regressor.4.bias f4 [40]
00000000: 3bcb f6bc e9e0 113e de88 833e 64f0 1cbc
00000010: 59b7 b0bd 9f96 f83d 07b4 dc3e 7ae2 aabc
00000020: 0ca5 9c3e 6510 ac3e d3e0 d73d e464 ed3d
00000030: ef60 b03c 4b86 183f cecd fdbd 20a5 4c3d
00000040: 630c 50bd 6453 773d 7022 78bc ea4d c43d
00000050: 68c6 f9ba e5e3 403e 75db a6bd c453 49bd
00000060: 0147 3f3e a5f3 a7bd d205 b4bd a9fb bebd
00000070: 4430 f83d 787e 453d 978b b63d 6977 a7bd
00000080: 1a72 d0bc 4a80 9d3d c22b 463d 090f 5abd
00000090: ca31 f93d 1186 b13d f539 1f3e c3e8 aebd
-0.030126205 0.14245953 0.2569036 -0.009578798 -0.08628721 0.12138104 0.431061 -0.020859946
0.3059467 0.33606258 0.10540929 0.11591509 0.021530597 0.59579915 -0.1239277 0.049962163
-0.050793063 0.060382262 -0.015144929 0.095851734 -0.0019056322 0.18836935 -0.08147327 -0.04915215
0.1867943 -0.082007684 -0.08790173 -0.09325344 0.12118581 0.048216313 0.089133434 -0.081770726
-0.025445033 0.07690485 0.048381574 -0.053236995 0.121677 0.08668149 0.15549453 -0.085404895

regressor.6.weight f4 [1, 40]
00000000: 6d18 973d e0c8 21bd 5b4c 76bc cb16 cfbd
00000010: f56d e5bd 1549 05be dd27 c6bd 4858 1a3c
00000020: 04d5 acbd 162d afbd bb71 21be 410e 073e
00000030: c451 34bd eadb 8abd a785 acbd 45e5 14be
00000040: 5ce5 7c3c 3982 09be c153 7ebd be11 343b
00000050: e4c8 dc3b aee6 f7bc 4a37 be3c fb5c c63d
00000060: 07c0 d2bc 133d e8bd 622f 50bd 7c1d 07ba
00000070: b41d 4d3d 0897 67bc 0572 31bd 7bce 5ebd
00000080: 29bb 8b3d f8f4 25bc afe7 b03d 5579 e73d
00000090: 802e 193e f206 5a3d ebd6 c4bd 357c ff3d
0.07377706 -0.03949821 -0.015032853 -0.10111769 -0.11202613 -0.1301616 -0.09675572 0.009420462
-0.08439067 -0.08553521 -0.15766041 0.13189031 -0.04402329 -0.067802265 -0.0842393 -0.14540584
0.015435543 -0.13428582 -0.062091593 0.0027476395 0.006737815 -0.030261364 0.023219723 0.09685703
-0.025726331 -0.11339774 -0.050826438 -0.0005154235 0.050077155 -0.01413513 -0.043321628 -0.054396134
0.06822807 -0.010129206 0.0863794 0.11302439 0.14959145 0.05322928 -0.09611305 0.124748625
