experiments/models/landS_maml_model7.pt (torch, 31039 bytes, 7 tensors)

regressor.0.weight f4 [40, 10]
0	0xbe32843a	-0.17433253
1	0x3e617782	0.22018245
2	0x3e47190a	0.19443145
3	0x3e2cefc2	0.16888335
4	0xbd8c0832	-0.06837501
5	0xbd3449fb	-0.044015866
6	0x3e25d577	0.16194712
7	0x3db9f2f5	0.090795435
8	0x3dfef438	0.12448925
9	0xbe21fe93	-0.15819769
10	0xbe7e86d7	-0.24856125
11	0xbd9d1ada	-0.07671137
12	0x3e678b88	0.2261182
13	0x3dcfa426	0.10138731
14	0xbb0daf80	-0.0021619499
15	0x3dba02f4	0.090825945
16	0x3d0e7210	0.034776747
17	0x3dacff41	0.08447123
18	0xbea1aef5	-0.31578794
19	0x3e551ba6	0.20811328
20	0x3e00ba5c	0.1257109
21	0x3e15f80e	0.14645407
22	0xbe871da3	-0.263898
23	0xbe256c83	-0.16154675
24	0xbe796310	-0.24354196
25	0xbe00c21c	-0.12574047
26	0x3c83092c	0.015995584
27	0xbe4d5684	-0.20052534
28	0x3e92052b	0.28519568
29	0x3c801740	0.015636086
30	0xbe2d06fe	-0.16897199
31	0xbe4d3e39	-0.20043267
32	0xbdc04250	-0.09387648
33	0x3e82d00d	0.25549355
34	0xbe8f77b8	-0.28021026
35	0x3e344173	0.17603092
36	0x39eb8ce1	0.00044927656
37	0x3c0e39c7	0.008680767
38	0xbe385b53	-0.18003587
39	0xbe2b1ad5	-0.16709454
40	0xbd93f1d7	-0.07223862
41	0x3dc5c62d	0.0965694
42	0xbda62aaf	-0.0811361
43	0xbd1933c6	-0.03740289
44	0x3db72480	0.08942509
45	0xbe3094fe	-0.17244336
46	0x3e38f175	0.18060859
47	0x3eaeb92a	0.34125644
48	0x3e69b65a	0.22823468
49	0x3e3c79e6	0.18405876
50	0x3df2087a	0.11818023
51	0x3d878eae	0.06619011
52	0x3e632a79	0.22184171
53	0xbb71bb69	-0.0036885387
54	0xbe386f02	-0.18011096
55	0x3eb545d6	0.35404843
56	0x3dce3f54	0.10070673
57	0x3e7ce8ba	0.24698153
58	0xbe690791	-0.22756793
59	0x3e5ded96	0.21672663
60	0xbd5c6d58	-0.053815216
61	0x3cd45c20	0.025922835
62	0x3de03f19	0.10949535
63	0xbd3f627f	-0.046724793
64	0xbc8544e0	-0.016268194
65	0xbd91df0b	-0.0712262
66	0xbe448518	-0.19191396
67	0xbd985e1f	-0.07439827
68	0xbe3b86f9	-0.18313207
69	0xbe538a9c	-0.20658344
70	0x3d73b52b	0.059498947
71	0x3e37de47	0.17955886
72	0x3e37c058	0.17944467
73	0x3dceeb1e	0.10103439
74	0x3d864904	0.065568954
75	0xba7c03b8	-0.0009613591
76	0x3ea706ac	0.32622278
77	0x3ec05a55	0.37568918
78	0x3db24b64	0.08705786
79	0x3d59eaa0	0.05320227
80	0xbe2fe8dd	-0.17178674
81	0xbd303d0a	-0.04302696
82	0xbe1616ea	-0.14657179
83	0x3c2bfc46	0.010497158
84	0x3c8e42f0	0.017365903
85	0x3e126f04	0.14300162
86	0xbe36cf14	-0.17852432
87	0x3c53dd0f	0.012931122
88	0x3d16e3d8	0.036838382
89	0xbe74e428	-0.2391516
90	0xbd16082a	-0.03662888
91	0x3e78869e	0.24270102
92	0xbdc668ee	-0.096879825
93	0x3e5bfef4	0.21483976
94	0x3e64ad3a	0.22331706
95	0x3ebe106d	0.37121907
96	0x3e2ef173	0.17084293
97	0xbe122bad	-0.14274473
98	0xbd728418	-0.059208006
99	0x3e1cd2ec	0.15314835
100	0x3e862914	0.26203215
101	0x3de1f273	0.11032572
102	0xbe248285	-0.16065414
103	0xbd6056bb	-0.054770213
104	0xbe1c0521	-0.15236332
105	0xbb25f515	-0.0025323082
106	0x3dfbd011	0.12295545
107	0x3cb1801e	0.021667536
108	0x3c7e7500	0.015530825
109	0xbe8b4dfa	-0.2720793
110	0x3e4dab2d	0.2008483
111	0x3deca23f	0.115543835
112	0x3da78960	0.08180499
113	0x3de2b5cc	0.11069831
114	0x3e83b4e1	0.25723937
115	0x3eab6ab1	0.33479837
116	0xbddf6e14	-0.109096676
117	0x3dd689a1	0.104754694
118	0x3dfa1f98	0.12213057
119	0xbe0b1096	-0.13580546
120	0xbe088680	-0.13332558
121	0x3ca3c934	0.019993402
122	0x3d828a66	0.06374054
123	0x3bd5d83f	0.0065260227
124	0x3e839f25	0.25707355
125	0xbc924733	-0.017856216
126	0x3e1cdbeb	0.15318267
127	0x3eb0215f	0.3440046
128	0xbe4448f5	-0.19168456
129	0xbe9cecc8	-0.306494
130	0x3ddd8855	0.10817019
131	0x3ded798d	0.115954496
132	0xbcaf18e3	-0.021374172
133	0xbda958d8	-0.08268899
134	0xbe883fd2	-0.2661119
135	0x3ea67467	0.32510683
136	0x3e2fcdc3	0.17168336
137	0xbdb5c99d	-0.08876345
138	0xbe6f13ee	-0.23347446
139	0x3d45b0d8	0.048264354
140	0xbe7f71c5	-0.24945743
141	0xbe18c832	-0.14920118
142	0x3ec5294d	0.38508072
143	0xbce9fb1a	-0.028562117
144	0x3e5180de	0.20459315
145	0xbe2bafad	-0.16766234
146	0x3de205f1	0.110362895
147	0x3e64e6c7	0.2235366
148	0x3e864b9b	0.26229557
149	0x3dd197f8	0.10234064
150	0xbe5c7e13	-0.21532468
151	0xbdad0145	-0.08447508
152	0x3da6f05c	0.08151314
153	0xbdbd2b69	-0.092367955
154	0x3dd5e050	0.10443175
155	0x3e826a6d	0.2547182
156	0xbd17ab23	-0.037028443
157	0xbe0ab510	-0.13545632
158	0xbe918ffd	-0.28430167
159	0x3e9bbcef	0.30417582
160	0xbe1d2366	-0.15345535
161	0x3e2963f6	0.16542038
162	0x3ebee5db	0.3728474
163	0xbd9296c7	-0.07157665
164	0xbe4a45df	-0.19753216
165	0x3e822261	0.25416854
166	0x3e95caa0	0.29256153
167	0xbe2fefe0	-0.17181349
168	0x3e3f436e	0.18678066
169	0xbc308a80	-0.0107752085
170	0x3ea44110	0.3208089
171	0xbe619ed2	-0.22033241
172	0x3e3a6924	0.1820417
173	0x3d6fdabf	0.058558222
174	0x3e1ac418	0.15113866
175	0x3d7507d9	0.059821937
176	0x3e552a0a	0.20816818
177	0x3ebf5b95	0.3737456
178	0xbdfcdf44	-0.12347272
179	0xbe8b0d90	-0.27158785
180	0x3d8126c7	0.06306224
181	0x3e450365	0.19239576
182	0xbe524730	-0.20534968
183	0x3e72d886	0.2371541
184	0xbcf5c290	-0.030000001
185	0x3d4aab52	0.04947979
186	0xbda4d5ab	-0.080485664
187	0xbd165569	-0.036702547
188	0x3d86a930	0.06575239
189	0x3da8f96c	0.082506984
190	0x3e8e30fd	0.2777175
191	0x3e9993d8	0.29995608
192	0x3eb68eb4	0.3565575
193	0x3da1ebd7	0.07906311
194	0x3c8fda60	0.017560184
195	0x3e4b0429	0.19825806
196	0x3ed790cb	0.42102656
197	0x3e5f75f5	0.21822341
198	0x3e902be1	0.28158477
199	0xbde7f3e8	-0.11325818
200	0xbdbba80b	-0.09162911
201	0xbc8af015	-0.016960183
202	0x3ea9aecf	0.3314118
203	0xbe6e1c60	-0.23253012
204	0xbe79c0c4	-0.2438994
205	0x3e4ee4d3	0.20204477
206	0x3dec2360	0.11530185
207	0x3eb4164b	0.35173258
208	0xbc9f2ce0	-0.019430578
209	0x3dd5e268	0.10443574
210	0x3e6c93b6	0.23103222
211	0xbe471d04	-0.19444662
212	0xbdbab1c0	-0.09115934
213	0xbdf4a4e1	-0.11945511
214	0x3e107d42	0.14110282
215	0x3ea575a8	0.32316327
216	0xbe0021d2	-0.12512901
217	0xbe581132	-0.2110031
218	0xbe91775f	-0.28411385
219	0xbe34dba6	-0.17661914
220	0x3e2bf1ac	0.16791409
221	0xbe69852c	-0.22804707
222	0xbe2f8a5d	-0.17142625
223	0xbd89e842	-0.06733753
224	0x3e54f24a	0.20795551
225	0x3e371ffc	0.17883295
226	0x3eadca6e	0.33943504
227	0xbd8fef4c	-0.07028064
228	0xbdad0120	-0.0844748
229	0xbe93d0a2	-0.28870112
230	0x3c8975a7	0.016779734
231	0x3e415304	0.18879324
232	0xbe667add	-0.22507806
233	0x3e49710e	0.19672033
234	0x3e7a6e0e	0.24456045
235	0x3d00ff08	0.031493217
236	0xbc4319fc	-0.011908051
237	0xbdbe39bf	-0.09288358
238	0x3e0dce44	0.13848215
239	0x3e383744	0.17989832
240	0xbe229ea6	-0.15880832
241	0x3c2c4c94	0.0105163045
242	0x3eb118ec	0.34589326
243	0xbe581912	-0.21103314
244	0x3e9f043d	0.3105792
245	0x3e333505	0.17500694
246	0xbdbb0f5b	-0.09133788
247	0x3df7d229	0.12100632
248	0xbe9e650c	-0.30936468
249	0xbe408c6d	-0.18803568
250	0xbe32e685	-0.17470749
251	0xbdd09075	-0.10183803
252	0xbe504c48	-0.20341599
253	0x3e5149db	0.2043833
254	0x3dbcdce8	0.09221822
255	0x3e94f4d8	0.2909305

regressor.0.bias f4 [40]
0	0xbe1ee67c	-0.1551761
1	0x3e4871ba	0.19574633
2	0xbda60f79	-0.0810842
3	0xbe1b2e43	-0.15154366
4	0x3e858fb8	0.2608621
5	0x3e798993	0.24368887
6	0x3def3bd0	0.1168133
7	0xbc867e45	-0.016417632
8	0x3d6d69c1	0.057962183
9	0x3d8c54f5	0.06852142
10	0x3e22c6a8	0.15896094
11	0xbe90ec65	-0.28305355
12	0xbd852394	-0.065009266
13	0xbe17befa	-0.14818946
14	0x3e2400ec	0.16015977
15	0x3e2803ec	0.16407746
16	0x3d3af749	0.045645986
17	0xbe7c6be4	-0.24650532
18	0x3e318c2f	0.17338632
19	0xbd57980a	-0.05263523
20	0x3e0d0593	0.13771658
21	0xbe4aefbd	-0.19818015
22	0xbe8a561f	-0.2701883
23	0x3e90b575	0.2826344
24	0xbd57fac0	-0.05272937
25	0xbdaeec6f	-0.0854119
26	0x3de52191	0.11188043
27	0x3c1f7225	0.009731804
28	0x3e1cfcc7	0.15330802
29	0xbdf7c3c2	-0.12097885
30	0xbe75f218	-0.24018133
31	0xbe80db00	-0.25167084
32	0xbe9018c4	-0.28143895
33	0xbdb5d745	-0.0887895
34	0xbe3fc67f	-0.18728064
35	0x3e8282a5	0.254903
36	0xbe364425	-0.17799433
37	0xbdd6f348	-0.10495621
38	0xbd4e9f07	-0.05044463
39	0xbe0b961c	-0.13631481

regressor.2.weight f4 [80, 40]
0	0x3b90925a	0.0044119777
1	0x3db121f4	0.08649054
2	0x3cce45e1	0.025179805
3	0xbda0ef18	-0.078581035
4	0x3df080c9	0.11743314
5	0x3e1779b0	0.14792514
6	0x3df8e600	0.12153244
7	0x3e00dcd5	0.1258424
8	0xbd97c08b	-0.074097715
9	0x3de55b40	0.11199045
10	0x3c89f177	0.016838772
11	0xbde4ede9	-0.1117819
12	0x3bb1b07c	0.00542265
13	0xbe0c608f	-0.13708709
14	0x3d6d85c6	0.057988904
15	0xbe1df456	-0.15425238
16	0xbe2471d2	-0.16059044
17	0xbd7bba7c	-0.061457142
18	0xbaf1eadc	-0.0018456834
19	0xbe16a7bf	-0.14712428
20	0x3cbf888a	0.023380537
21	0x3d6c0ec0	0.057631254
22	0x3b3993c0	0.0028316826
23	0xbcf2ac1b	-0.029623082
24	0x3dd4f96e	0.103991374
25	0xbcd84d88	-0.026404157
26	0xbc34b485	-0.011029367
27	0xbdd9e9d5	-0.10640303
28	0x3dfaa012	0.12237562
29	0xbd4664f8	-0.048436135
30	0xbe2a526b	-0.16633002
31	0xbdd22f84	-0.10262969
32	0xbe0cf101	-0.1376381
33	0xbd985004	-0.07437137
34	0xbd3cf978	-0.04613635
35	0x3bbee980	0.005826175
36	0x3e072b86	0.13200197
37	0xbe0b7730	-0.13619685
38	0xbe2ad6f9	-0.16683568
39	0xbc2c79f0	-0.010527119
40	0xbbbadd02	-0.0057026157
41	0x3c856237	0.016282184
42	0x3db9832a	0.09058221
43	0x3cc4d5a7	0.024027659
44	0xbde6b889	-0.11265666
45	0xbdea1c45	-0.11431173
46	0x3d98fb1d	0.07469771
47	0xbc0fcb3c	-0.008776482
48	0xbd9c475e	-0.076308
49	0x3e13ecb5	0.14445765
50	0xbe10c129	-0.14136185
51	0xbdd164d5	-0.1022431
52	0x3d929a4c	0.07158336
53	0xbe03492c	-0.12820882
54	0x3e058b1d	0.13041349
55	0xbdb56c9c	-0.08858606
56	0x3d4d590b	0.050133746
57	0x3cb0da1e	0.021588381
58	0xbdb3efdb	-0.08785983
59	0x3cd29997	0.025708003
60	0xbdf791b0	-0.120883346
61	0xbda255d5	-0.079265274
62	0x3db24fd6	0.08706634
63	0xbe1969ab	-0.14981715
64	0xbd9dabe6	-0.07698803
65	0xbd548d91	-0.05189282
66	0xbd646140	-0.055756807
67	0xbe0543f2	-0.130142
68	0xbd73176a	-0.0593485
69	0x3df0f315	0.11765114
70	0x3dcd0597	0.10010832
71	0x3dd9dd76	0.106379434
72	0xbe01cd14	-0.12675887
73	0xbe0e8648	-0.13918412
74	0x3c436a10	0.011927143
75	0xbe0840ce	-0.13305971
76	0xbd5491e9	-0.051896963
77	0x3d917e45	0.07104162
78	0x3b2e0c95	0.0026557792
79	0xbbb42dc0	-0.005498618
80	0x3d0784c6	0.033085607
81	0xbdd454fc	-0.10367772
82	0x3ca5355f	0.02016705
83	0xbdaec28a	-0.08533199
84	0x3c8d3504	0.017237194
85	0xbd69f924	-0.057122365
86	0xbcdb4374	-0.026765563
87	0x3d7d3a32	0.061823077
88	0x3d51c747	0.051215436
89	0xbe351336	-0.1768311
90	0x3dbfc75a	0.09364195
91	0xbd8dc425	-0.06922177
92	0x3dca189e	0.098679766
93	0xbdbccce8	-0.0921877
94	0x3e8af0f3	0.27136955
95	0x3d2499d5	0.04018577
96	0x3d1857e7	0.037193205
97	0xbd4ec808	-0.050483733
98	0x3d9f4cb6	0.07778303
99	0x3d5ba62e	0.05362528
100	0xbd05aba8	-0.032634407
101	0x3dc125fa	0.094310716
102	0x3d8a8d31	0.067652114
103	0x3d904963	0.070452474
104	0xbcf4af22	-0.029868666
105	0x3de27859	0.11058111
106	0x3dc091f5	0.09402839
107	0xbcbcc31b	-0.023042252
108	0xbdbeaf2a	-0.09310754
109	0xbe4d2dda	-0.20037022
110	0xbd9ff0d0	-0.07809603
111	0xbe07ddea	-0.13268247
112	0x3dc45f27	0.09588461
113	0xbdf3447e	-0.11878298
114	0xbb40e39f	-0.0029432548
115	0x3c64c370	0.013962612
116	0x3e22ca05	0.15897377
117	0x3e5340ae	0.20630142
118	0xbdb8a676	-0.09016125
119	0xbcccca7f	-0.024998901
120	0xbdc37b94	-0.09545055
121	0x3d7b0b22	0.061289914
122	0xbd5b5bc3	-0.053554308
123	0x3dca9d6a	0.098933056
124	0x3e6058cb	0.21908872
125	0xbd6c13b7	-0.05763599
126	0xbcc284be	-0.023744937
127	0x3e09a0c2	0.1344023
128	0x3cf3a433	0.029741382
129	0xbcb7653f	-0.022387145
130	0xbd87ec00	-0.0663681
131	0x3dc0ab9d	0.09407733
132	0x3da5b919	0.08091945
133	0xbd48091b	-0.04883681
134	0x3db49d33	0.08819046
135	0x3e24475d	0.16042848
136	0xbe022411	-0.1270907
137	0x3e0d99e3	0.13828234
138	0xbd67c906	-0.056588195
139	0x3e2b03fb	0.16700737
140	0xbd250344	-0.040286317
141	0xbd8e1c7f	-0.06939029
142	0x3df1fb90	0.1181556
143	0xbd08061f	-0.033208963
144	0x3df8b17e	0.12143229
145	0xbde16fcb	-0.11007651
146	0xbd239837	-0.039940085
147	0x3df5b672	0.11997689
148	0xbb35740e	-0.0027687582
149	0xbdb8a493	-0.09015765
150	0xbbee1f6d	-0.00726693
151	0xbdde6bcd	-0.10860405
152	0xbd82850b	-0.06373032
153	0xbdc1e342	-0.09467174
154	0xbbbb6c99	-0.005719733
155	0x3e287474	0.16450673
156	0x3e2ae078	0.1668719
157	0x3ddc203e	0.10748337
158	0x3b11efcb	0.0022268172
159	0x3d6aa078	0.05728194
160	0xbdb48960	-0.08815265
161	0x3d62438a	0.05524019
162	0x3e012f38	0.12615669
163	0xbe015456	-0.12629828
164	0xbcb37b27	-0.02190931
165	0x3de86594	0.113474995
166	0x3c03437f	0.008011698
167	0x3e087993	0.13327627
168	0x3e20f0b3	0.1571682
169	0x3c2cc5c3	0.010545197
170	0x3e16afc0	0.14715481
171	0xbd4442e5	-0.047915358
172	0x3c8ea014	0.017410316
173	0x3db00e42	0.085964695
174	0x3d8634ec	0.06553063
175	0x3d96d6e6	0.073652074
176	0xbd00eb9b	-0.03147469
177	0x3d360564	0.044438735
178	0xbdada439	-0.084785886
179	0x3d28dee5	0.041228194
180	0x3d8173b2	0.06320895
181	0x3d4a8486	0.04944279
182	0x3e0c5239	0.1370324
183	0xbcb708b3	-0.022343015
184	0xbcefe987	-0.02928616
185	0xbe113aa5	-0.14182527
186	0xbe10addb	-0.1412882
187	0xbd336bce	-0.043803982
188	0x3e02af9a	0.12762299
189	0x3d1d8a03	0.038461696
190	0x39f1e29b	0.00046135936
191	0x3d85b059	0.06527776
192	0xbd0effff	-0.034912106
193	0x3d7ab3ba	0.061206557
194	0xbca0464b	-0.019564768
195	0x3dd2660e	0.10273372
196	0xbdb111b1	-0.086459525
197	0xbe0d9beb	-0.13829009
198	0xbda18a20	-0.078876734
199	0xbd9c6d60	-0.07638049
200	0x3cddb692	0.027064595
201	0xbce27e0d	-0.027647996
202	0x3d5ce00d	0.05392461
203	0xbc8dbe74	-0.01730273
204	0x3e532528	0.20619643
205	0x391c4038	0.00014901243
206	0x3d98a49e	0.07453273
207	0xbc2e623e	-0.01064354
208	0xbdb67533	-0.08909073
209	0xbda2b825	-0.07945279
210	0x3e2e74af	0.17036699
211	0x3d63df78	0.05563304
212	0x3e062625	0.13100488
213	0xbe0b6c24	-0.13615471
214	0x3c4d89a7	0.012545026
215	0xbdf488ab	-0.1194013
216	0x3dc3321d	0.09531043
217	0x3def5710	0.11686528
218	0x3e01504b	0.12628286
219	0xbe0825b9	-0.1329564
220	0xbd7f2837	-0.06229421
221	0x3d5801c1	0.052736048
222	0xbd881769	-0.0664509
223	0x3d565e97	0.0523363
224	0x3d1c2325	0.038119454
225	0x3d10caf3	0.035349797
226	0x3e0e03d9	0.13868655
227	0x3dc2b414	0.095070034
228	0xbdb3b34d	-0.08774433
229	0x3dc75c52	0.097344056
230	0x3d2be0cd	0.041962434
231	0xbdad997e	-0.08476542
232	0x3d0db623	0.034597527
233	0x3e1f8ab9	0.15580262
234	0x3e41a70d	0.18911381
235	0xbdc49491	-0.09598649
236	0xbd5031ff	-0.05082893
237	0xbdb447e4	-0.088027745
238	0xbe030944	-0.12796503
239	0xbd57d69c	-0.0526949
240	0x3d026806	0.031837486
241	0x3d3ac56f	0.045598444
242	0xbdf44ab9	-0.11928315
243	0x3d43eb34	0.04783173
244	0x3a9f1b5a	0.0012138889
245	0x3ce2e27d	0.027695889
246	0xbd3a0774	-0.045417264
247	0x3e11e3b4	0.14247018
248	0x3db6b0fa	0.08920474
249	0xbd6ee8d0	-0.058327496
250	0xbda51a18	-0.080616176
251	0x3deecd62	0.116602674
252	0x3e1daef9	0.15398778
253	0xbd1745cc	-0.036931798
254	0x3de7cb78	0.113181055
255	0x3e2c93bb	0.1685323

regressor.2.bias f4 [80]
0	0xbe2835b0	-0.1642673
1	0xbdc5f64d	-0.09666119
2	0x3d91fd32	0.07128371
3	0x3e0066cc	0.12539214
4	0xbc8b59ba	-0.017010558
5	0xbd221e27	-0.039579537
6	0xb950e747	-0.00019922583
7	0x3dce141a	0.10062428
8	0xbd89acb1	-0.067223914
9	0xbd61f018	-0.055160612
10	0xbd62b6ba	-0.055350043
11	0xbcf69550	-0.030100495
12	0x3cd20cb4	0.025640823
13	0xbd8cb8f6	-0.06871216
14	0x3d23307b	0.039841156
15	0xbd62bc68	-0.05535546
16	0xbdf51fd8	-0.11968964
17	0x3dfef00e	0.124481305
18	0x3dee8771	0.11646927
19	0xbdccedf3	-0.10006323
20	0x3ca1faf3	0.019772982
21	0x3e350225	0.176766
22	0x3d8f5820	0.069992304
23	0xbda8daa3	-0.08244827
24	0xbdc44b8c	-0.09584722
25	0xbd68e03a	-0.056854464
26	0x3d3b566b	0.04573671
27	0xbdb89583	-0.09012892
28	0x3dfa35b7	0.122172765
29	0x3dd8f1fa	0.10593028
30	0xbbacc435	-0.005272413
31	0xbd557506	-0.052113555
32	0x3bdb1ce9	0.006686796
33	0x3dadc6f1	0.08485211
34	0x3d9b44fa	0.075815156
35	0xbd80f24f	-0.06296217
36	0x3d0e925f	0.03480756
37	0x3db95150	0.09048712
38	0xbc8f27d9	-0.017475056
39	0x3db78bed	0.089622356
40	0xbe0e2c4a	-0.13884082
41	0xbd4d866f	-0.050177034
42	0x3e33c66c	0.1755616
43	0x3e225cc8	0.15855706
44	0xbd2f3d87	-0.042783286
45	0x3bcbced9	0.0062197265
46	0xbdb862ae	-0.09003197
47	0xbb9a5bac	-0.004710635
48	0x3d8893ec	0.06668839
49	0xbd35103b	-0.04420493
50	0xbd746bb8	-0.05967304
51	0xbda4f2d9	-0.08054132
52	0xbd890666	-0.066906735
53	0xbddff92a	-0.10936196
54	0xbd826708	-0.06367308
55	0xbda10cad	-0.07863746
56	0x3dfad5bd	0.122477986
57	0x3c1291b8	0.008945875
58	0x3d1b5602	0.03792382
59	0xbdfbb64f	-0.12290632
60	0xbd6f4da1	-0.058423642
61	0x3dde4640	0.10853243
62	0xbd5e4a95	-0.054270346
63	0xbdf0dfb3	-0.11761417
64	0xbd6e93af	-0.05824631
65	0x3df01a06	0.117237136
66	0x3da311e2	0.07962395
67	0x3d4668e4	0.048439875
68	0x3e344c70	0.17607284
69	0x3dfdfa90	0.12401307
70	0xbe027cd3	-0.12742929
71	0x3d613e48	0.054991037
72	0xbe1b3fe2	-0.15161088
73	0x3e335a3a	0.17514887
74	0x3e0950b9	0.134097
75	0xbd6a0b14	-0.05713947
76	0xbdb12b06	-0.08650784
77	0x3c2c6de7	0.01052425
78	0xbddb80b2	-0.10717906
79	0x3c3163a7	0.010826982

regressor.4.weight f4 [40, 80]
0	0x3c7c1150	0.015384987
1	0xbc842051	-0.01612869
2	0x3d1e896f	0.038705286
3	0xbdbe5d0e	-0.092950925
4	0xbd429819	-0.047508333
5	0xbcd385a2	-0.025820557
6	0xbb80b650	-0.0039279833
7	0x3d02c9a0	0.031930566
8	0x3dc601e4	0.09668329
9	0x3c2f6ab8	0.010706596
10	0xbd04697f	-0.03232717
11	0x3d0f907c	0.0350499
12	0xbdd03ccf	-0.10167848
13	0xbdb40823	-0.087906145
14	0x3b4fa84b	0.0031686004
15	0x3ce754d4	0.028238691
16	0xbd74047a	-0.05957458
17	0x3c9f21f7	0.019425375
18	0xbb3b028b	-0.0028535451
19	0xbd0fefe3	-0.035140883
20	0xbcbbc698	-0.022921845
21	0x3d8280a0	0.063721895
22	0x3d2af5f5	0.04173847
23	0x3cc8e6ea	0.02452417
24	0xbde3c4a5	-0.11121491
25	0x3c2f1c40	0.010687888
26	0xbd0f5596	-0.03499373
27	0xbd7e17e2	-0.062034495
28	0x3ba34a65	0.0049832338
29	0xbca52c28	-0.020162657
30	0xbdb0036c	-0.08594403
31	0xbd560af7	-0.05225655
32	0xbc5cbb66	-0.013472414
33	0xbcb92994	-0.022602834
34	0xbc1618f0	-0.009161219
35	0x3db05e79	0.08611769
36	0xbd1da1e9	-0.038484488
37	0x3d79a769	0.06095067
38	0xbdfce419	-0.12348194
39	0xbdc7643c	-0.09735915
40	0x3d891e3b	0.06695219
41	0x3dcd2ab2	0.10017909
42	0x3cdc19b5	0.026867727
43	0x3d8383f6	0.06421654
44	0xbdabda51	-0.0839125
45	0x3dbc6d8c	0.09200582
46	0x3d66bcca	0.056332387
47	0x3d3d4dd7	0.046216812
48	0x3d9440e1	0.07238937
49	0x3d9ee3a7	0.07758265
50	0x3da5e820	0.08100915
51	0x3da42714	0.08015266
52	0xbcc564bd	-0.024095887
53	0x3da9d8c1	0.08293296
54	0xbd2105b3	-0.039312076
55	0xbddd3b5e	-0.10802339
56	0xbdfc95d4	-0.12333265
57	0xbd728b6b	-0.05921499
58	0x3cdcf712	0.026973281
59	0xbdf16724	-0.11787251
60	0x3dcbd704	0.0995312
61	0xbd8c1408	-0.06839758
62	0xbd5d71fa	-0.054063775
63	0xbde82858	-0.1133582
64	0xbdf51b3f	-0.119680874
65	0xbd21c5db	-0.03949533
66	0x3d83592b	0.06413492
67	0x3d2c8917	0.042122927
68	0x38d86d70	0.00010320067
69	0xbccb8695	-0.024844447
70	0xbc1386d8	-0.009004317
71	0xbca437ee	-0.0200462
72	0xbc103ef4	-0.008804072
73	0xbd00be47	-0.031431463
74	0x3dabe03f	0.08392381
75	0x3c9500c0	0.018188834
76	0xbc49942e	-0.012303395
77	0x3d3f9e8a	0.046782054
78	0x3dcf3d9c	0.10119173
79	0xbd5dd468	-0.054157645
80	0x3dc877ab	0.0978845
81	0xbdc96f7b	-0.09835716
82	0xbda09cf1	-0.07842434
83	0xbcd5cddf	-0.026099144
84	0x3e1849b6	0.14871868
85	0xbd9fd8fc	-0.07805058
86	0x3c88e627	0.016711308
87	0xbcf225a4	-0.029558964
88	0xbd514b6b	-0.051097315
89	0xbdb734e4	-0.08945635
90	0x3de6f5ba	0.11277337
91	0x3cc68d60	0.024237335
92	0x3d9ea182	0.07745649
93	0x3d87ea9c	0.06636545
94	0x3c66a3ea	0.014077166
95	0x3e170b94	0.1475051
96	0xbca7dd62	-0.020491306
97	0xbda632be	-0.08115147
98	0xbd81c3ff	-0.063362114
99	0xbd8aa2e6	-0.06769352
100	0x3db77d23	0.08959415
101	0x3ccaf219	0.024773644
102	0x3d45166f	0.048117097
103	0x3db68488	0.08911997
104	0x3dd75144	0.10513547
105	0xbce2e7ff	-0.027698515
106	0xbda01609	-0.07816703
107	0x3cd9cdf7	0.02658747
108	0xbcb55b0d	-0.022138143
109	0xbdba0791	-0.090834744
110	0xbd848044	-0.06469777
111	0x3de80f44	0.11331037
112	0xbdadf76c	-0.084944576
113	0x3de53a6e	0.11192785
114	0xbb3ac2ce	-0.002849746
115	0x3de3ac98	0.11116904
116	0xbdb9a2e0	-0.09064269
117	0x3dd3a5f3	0.10334387
118	0x3c813b55	0.015775362
119	0x3d53597f	0.051599022
120	0x3db08c42	0.08620502
121	0x3c816c5c	0.01579874
122	0x3caa5daf	0.020796625
123	0x3d7fcb9f	0.062450048
124	0x3c99a4cc	0.01875534
125	0x3d82ed60	0.06392932
126	0x3d4c8070	0.049927175
127	0xbd60e6a8	-0.05490747
128	0x3cd8a26d	0.026444638
129	0x3c8e9879	0.017406689
130	0x3dae31b3	0.08505573
131	0xbd33ae54	-0.043867424
132	0x3dae68a2	0.08516051
133	0xba2204d8	-0.00061805313
134	0xbce11204	-0.02747441
135	0xbd2a5a25	-0.041589875
136	0x3d855f8a	0.06512363
137	0xb9409dff	-0.00018369405
138	0x3de8fcbb	0.113763295
139	0x3d757b7d	0.05993222
140	0x3d28f235	0.04124661
141	0x3d359df6	0.044340096
142	0x3cf1921c	0.029488616
143	0x3c094189	0.008377441
144	0x3bf4a2fa	0.0074657174
145	0xbd00c6e2	-0.03143967
146	0x3dcbd1d9	0.09952135
147	0x3d84ab97	0.06478041
148	0xbd9f2b7d	-0.077719666
149	0xbd5e73e5	-0.054309744
150	0xbdc540bd	-0.096314885
151	0x3dbd9207	0.09256368
152	0x3cbbde51	0.022933157
153	0xbcb7a77e	-0.022418734
154	0x3dabafa4	0.0838311
155	0xbdb80a22	-0.08986308
156	0x3d7a3466	0.061085127
157	0xbcb3fc95	-0.021971026
158	0x3daf3082	0.08554174
159	0x3ded9277	0.116002016
160	0xbce64033	-0.028106784
161	0x3cf611ff	0.030037878
162	0xbe3df84f	-0.18551753
163	0x3da3b6ab	0.079938255
164	0xbc6a8325	-0.014313494
165	0x3cc2ad6f	0.02376434
166	0xbce02798	-0.02736263
167	0xbd015e76	-0.031584226
168	0x3dcdf898	0.10057181
169	0x3d76473c	0.06012653
170	0xbd9f44e5	-0.077768125
171	0xbd23cba4	-0.03998913
172	0x3c91d8e3	0.017803615
173	0xbd8ccec3	-0.06875374
174	0x3d7f1b52	0.062281914
175	0x3e218c62	0.15776208
176	0xbded39b4	-0.115832716
177	0xbd1a5f28	-0.037688404
178	0xbd155e92	-0.036467142
179	0x3d8a13df	0.06742071
180	0x3d8279e6	0.063709065
181	0xbd9894be	-0.07450245
182	0x3db5d426	0.08878355
183	0x3d7df293	0.061998915
184	0xbd55cb58	-0.052195877
185	0xbda58ec9	-0.08083875
186	0x3d14e62e	0.03635233
187	0xbd7f1233	-0.062273216
188	0x3c96c923	0.018406456
189	0x3ddebf28	0.10876304
190	0xbd81ebcd	-0.063438036
191	0x3dcf7d88	0.10131365
192	0x3c445b3b	0.011984642
193	0xbbf2f62d	-0.0074146003
194	0xbd684300	-0.05670452
195	0xbd574092	-0.052551813
196	0x3c91b671	0.01778719
197	0x3df0a680	0.11750507
198	0x3d9fc1b2	0.07800616
199	0x3cdb77bd	0.026790494
200	0x3da41d09	0.080133505
201	0x3dcb2f7d	0.09921167
202	0x3da4c047	0.080444865
203	0xbce60039	-0.028076278
204	0xbdaf766b	-0.08567508
205	0xbd158929	-0.03650776
206	0xbd226865	-0.03965034
207	0x3d447dea	0.047971644
208	0xbd57f720	-0.05272591
209	0x3c34c93b	0.011034305
210	0x3db28b62	0.087179914
211	0x3e03ea02	0.12882236
212	0x3de9aee0	0.11410308
213	0x3ccbaec7	0.024863614
214	0x3d96a6a0	0.07356
215	0x3dc0ab1b	0.09407636
216	0xbc8cf06c	-0.017204486
217	0x3e1eaf65	0.15496595
218	0xbbb25121	-0.0054418
219	0x3cf90923	0.030399865
220	0x3bdba480	0.0067029595
221	0xbd492957	-0.04911169
222	0xbd36a050	-0.04458648
223	0xbdaf15d5	-0.08549086
224	0xbda434c0	-0.08017874
225	0xbd05f455	-0.032703716
226	0xbcc6a345	-0.024247775
227	0xbdbdcb37	-0.09267276
228	0x3d464f66	0.048415564
229	0xbdbc90e4	-0.09207323
230	0x3dce7436	0.10080759
231	0x3ad0bc39	0.0015925235
232	0xbdb09547	-0.086222224
233	0x3de93c98	0.113885105
234	0xbce09e23	-0.027419155
235	0x38c83c00	9.547919e-05
236	0xbdc67ebc	-0.096921414
237	0x3d9678aa	0.073472336
238	0xbd8e1e04	-0.06939319
239	0xbd82b90d	-0.06382952
240	0xbd821c61	-0.06353069
241	0x3c67e39d	0.014153388
242	0xbe4afd6d	-0.19823237
243	0x3d8fc049	0.07019097
244	0x3e367d55	0.17821248
245	0x3dabbdf2	0.083858386
246	0xbcc7e034	-0.0243989
247	0x3ccd60b0	0.025070518
248	0xbde424ee	-0.11139856
249	0x3d7c6ba4	0.06162609
250	0xbbd71e66	-0.006564903
251	0xbd948169	-0.072512455
252	0xbd03dd08	-0.032193214
253	0x3d89e14b	0.06732424
254	0x3d298123	0.04138292
255	0xbbb3a572	-0.005482369

regressor.4.bias f4 [40]
0	0xb9914ce6	-0.0002771385
1	0x3d818cd1	0.06325687
2	0x3e0925c8	0.13393319
3	0x3cd4ed4b	0.025992056
4	0xbd1764c4	-0.036961332
5	0x3dd180e5	0.10229663
6	0xbcb5ad0d	-0.022177244
7	0xbc1d5561	-0.009602875
8	0xbd4f022c	-0.05053918
9	0x3d1fe4b1	0.039036456
10	0xbde5e80e	-0.112259015
11	0x3bc49f7f	0.0060004587
12	0x3ca04b2b	0.019567093
13	0xbcd3a273	-0.025834298
14	0xbd32c391	-0.043643538
15	0xbdbe1d9b	-0.092829905
16	0x3d609adc	0.054835185
17	0x3bb7d1d0	0.0056097284
18	0xbcb77e8e	-0.022399213
19	0x3df68fcb	0.12039145
20	0x3dfd60fb	0.12372013
21	0xbc668a87	-0.014071113
22	0x3d9ac213	0.07556548
23	0x3df3a59f	0.11896824
24	0xbd53076b	-0.051520746
25	0x3c376cf5	0.011195411
26	0xbda7bb95	-0.08190075
27	0x3db3d6d5	0.0878121
28	0x3c8eddce	0.01743975
29	0xbd97c4a7	-0.07410555
30	0x3e0b1be8	0.13584864
31	0xbda3dc4a	-0.08001001
32	0xba540e07	-0.00080892484
33	0xbc4377f7	-0.011930457
34	0xbcd57942	-0.026058797
35	0xbc880564	-0.016604133
36	0x3d77831b	0.060427766
37	0x3dd3c6b7	0.10340636
38	0x3e00e004	0.12585455
39	0xbce656c0	-0.028117537

regressor.6.weight f4 [1, 40]
0	0xbe22dc8a	-0.15904441
1	0x3db37d0b	0.087640844
2	0x3d1b21c2	0.03787399
3	0x3cac066b	0.020999154
4	0xbdb31dd4	-0.08745924
5	0x3dfc3fae	0.123168334
6	0xbc94715d	-0.018120462
7	0xbce1d365	-0.027566621
8	0xbdeb3809	-0.11485297
9	0x3e32a1d7	0.1744455
10	0xbd238d04	-0.039929405
11	0x3dc44b3b	0.095846616
12	0x3d68f2e0	0.05687225
13	0xbde505b1	-0.11182726
14	0x3c092da9	0.008372703
15	0xbe038f9a	-0.12847748
16	0xbd9c9a0f	-0.07646572
17	0x3dd6b89a	0.10484429
18	0xbdf3942c	-0.11893496
19	0x3d1de879	0.03855178
20	0x3de79060	0.11306834
21	0xbe107c3b	-0.1410989
22	0xbda9a35b	-0.08283111
23	0x3daa9c54	0.083305985
24	0xbe2295a6	-0.15877399
25	0x3b12f571	0.0022424127
26	0x3db55334	0.0885376
27	0xbe29a7b0	-0.16567874
28	0x3e0d23db	0.13783209
29	0xbdba27c2	-0.090896145
30	0xbe15bd00	-0.14622879
31	0x3e082ef5	0.13299163
32	0x3e3105fe	0.17287442
33	0x3c966cae	0.01836237
34	0xbe00e440	-0.1258707
35	0xbc99afc0	-0.018760562
36	0xbe1c7939	-0.15280618
37	0x3e1f3bd0	0.1555016
38	0x3c9b0971	0.0189254
39	0x3e12056d	0.14259882
