experiments/models/landS_maml_model6.pt (torch, 31039 bytes, 7 tensors)

regressor.0.weight f4 [40, 10]
00000000: a84e c53d 77d5 9fbe f6f1 0fbe 8ae0 5dbe
00000010: 0070 bf39 5faa 40be 21cd 89be 7f8d 42be
00000020: a0f1 aabc 4323 953e 8ef4 f93c 5333 2fbe
00000030: 44a0 8d3e ff07 ef3d d42c 203e e64b be3e
00000040: 0de6 afbe edd6 8cbe fbd6 3fbe afdf 8e3e
00000050: 1c3d dcbd ca32 9c3e bd58 8d3e a265 a13d
00000060: 0003 f9bc 6594 4e3e c5c8 5f3e 4148 b03e
00000070: ba64 41be 00e2 1bbb 5f9c b3bc 450c 803e
00000080: 008d 3d3e 7b01 89be a993 38be e07c 8f3e
00000090: 8664 43be 3467 3f3e 1b87 963e d887 873d
000000a0: 9ce6 5abe a94d 963c ebc2 eebd 4e81 a2bd
000000b0: a9e3 9dbe 9060 3d3d f6be 52be 982b 75be
000000c0: 3d27 47be 5c34 82bd dd84 dd3d b1f7 473e
000000d0: e6f4 3c3e 5476 8abe 80a1 0abb e33b 173d
000000e0: 926a 9e3e 8b55 a23e e2f5 35be c997 873e
000000f0: 9cb5 0bbd 6c84 d3bd 704f eebc 936d 8e3e
00000100: 137b 963e 7dda 2e3e c2c8 5abe 99d2 c43c
00000110: b056 943d 10a4 9b3d d153 8bbd 128e b9bd
00000120: 621d 5fbe 450e f6bd f1fc 823e 08f9 3f3e
00000130: 603f 10be bddd ad3e 94fc 82bd a081 993c
00000140: 3b20 ae3e 4dbb 63be 2e05 4f3c a20a 54bd
00000150: 5f47 8bbe ab21 9cbd 4ad2 ab3e da0b ab3e
00000160: 8cd3 65be 20bb bdbd b4ab 99bd b413 4abd
00000170: e1ba 3bbd b89e 543d 1a60 d9bd 7aa1 8d3e
00000180: 39b9 f93d 254d c13e 9ccf 323e 0679 753e
00000190: 0b55 56be a6ae 82be 9799 8f3e 6afa 853e
000001a0: b039 d43d 3f95 25be 1b33 f43d 9728 b5bb
000001b0: e8fb 833d a8bb 383d 45dc f23d fc9d c83d
000001c0: afec 953e 6deb 103e e21d 89be 2c19 96be
000001d0: 977f 15be d6dd 023e ec33 d23d 3416 dfbd
000001e0: ef11 17be a281 04bd e28d e33b 2326 49be
000001f0: 5c63 b83d b62e a63e c207 d33e 64df 36bc
00000200: 9018 863c b828 64be b7f4 133e dea1 823e
00000210: f26e 2f3e 7739 fdbb 8d7f 7dbe 8ded af3d
00000220: c88d 27bd e13d 913e 65ac 8c3e 6c96 eebd
00000230: 2887 9a3e 43d2 cdbd 2734 2f3d a9b7 473e
00000240: c0b4 cf3d 44f4 aa3e 129c 4abe 3266 7cbe
00000250: f4df 033e 1ec8 8cbe 9a56 dbbc 9b63 8e3e
00000260: 1feb 593e 0a01 293c 0be1 853e ba03 6dbe
00000270: 60c5 d53d 662d 9a3d fe7d 413e 2092 583d
00000280: 07b7 c1bc cbf6 b33d 6e92 8abe 9bd7 f2bc
00000290: 3a6b 543e b055 e23d b433 d4bd 0929 723b
000002a0: c03a b73c 4846 8dbe 18bb 853e 5940 9c3e
000002b0: 4870 13be 46a7 8abe e35d 9dbe 3f36 4e3e
000002c0: 3481 873d e0a5 45be 2621 2f3e 888f 7abd
000002d0: 9e61 803c 88d8 72bc 3d74 71be e281 d9bd
000002e0: 1cce 863d 00d7 4f3d 4620 a6bd fb18 573e
000002f0: a85e 843d 39e4 7fbe fd6b d9bd 04a3 6dbe
00000300: ca4e 6abd 19a2 863a a056 47bc f039 f23d
00000310: 0a2f a13e c362 613e 96e7 773e 1ef2 5abe
00000320: 5c79 063e 24d8 9d3d 1eed 713e 61fe 313c
00000330: 2494 24be a642 d03d 43da 3dbe 0010 b2bd
00000340: b5d0 9b3e f14e 72be b191 0dbe 89be cc3d
00000350: c8c6 14be 7926 973e e683 2bbe 49bd a73e
00000360: 670e b23e 5120 e53c 1ad8 3ebe 10af 2fbd
00000370: 6d78 cb3d d3cf 24be 9d5d 33be b6f1 8d3e
00000380: 4590 1cbe 1d28 243d 16ce 443e a940 723d
00000390: 4e50 80be 1e97 f8bd 3722 54be da7a 76be
000003a0: 95d5 a43e 1240 383d a8ea 00be 293b cf3d
000003b0: a36e 873d 3a7c 2bbe c077 043d f038 76be
000003c0: 2e0e fbbd c8a2 eebd 2360 7cbe c3b7 c13d
000003d0: 20e9 913c b130 3abe 224b 5ebc a458 b63e
000003e0: be31 7b3e 14d3 94bd c2ed 473e cb8f cf3d
000003f0: b4a8 babd e6eb 903e 0022 a4ba eaf1 b5bd
0.09634143 -0.31217548 -0.14057145 -0.21667686 0.00036513805 -0.18814991 -0.26914313 -0.18999289
-0.020867169 0.29128465 0.03051212 -0.17109422 0.27661335 0.11671447 0.156421 0.3716728
-0.34355202 -0.27507725 -0.18734352 0.27905032 -0.10753843 0.305075 0.27606764 0.07880713
-0.030396938 0.20173796 0.21853931 0.34430125 -0.1888608 -0.002378583 -0.02192515 0.2500936
0.18510818 -0.26758942 -0.18025078 0.2802496 -0.19081315 0.18691713 0.29399952 0.06617707
-0.21377033 0.018347578 -0.116582714 -0.07934819 -0.30837753 0.046234667 -0.20580658 -0.23942411
-0.19448562 -0.06357643 0.10816357 0.1952808 0.18452796 -0.27043402 -0.002115339 0.036922347
0.30940682 0.3170589 -0.17769578 0.2648299 -0.034108743 -0.10327992 -0.029090613 0.27817973
0.29390773 0.17075534 -0.21365646 0.024026202 0.07243097 0.07599652 -0.06803096 -0.09060301
-0.21788552 -0.120144404 0.25583604 0.18747342 -0.14086676 0.33958235 -0.06395832 0.018738568
0.34008965 -0.22239418 0.012635512 -0.051767953 -0.2720289 -0.07623609 0.33558875 0.3340748
-0.2244398 -0.09264207 -0.07503453 -0.049335197 -0.04583252 0.05190918 -0.10614033 0.2766226
0.121935315 0.3775417 0.17462009 0.23971948 -0.20930879 -0.2552387 0.28046867 0.26167613
0.103625655 -0.16170214 0.1192381 -0.0055285203 0.06444532 0.045100838 0.11858419 0.09795758
0.29282138 0.14152308 -0.2678061 -0.2931608 -0.14599453 0.12779936 0.102638096 -0.10892907
-0.14752935 -0.03235019 0.006944404 -0.19643454 0.09003326 0.32457513 0.41216856 -0.011161659
0.016369134 -0.22281158 0.1444882 0.2551412 0.17132166 -0.0077277976 -0.24755688 0.08590231
-0.040906698 0.28367522 0.27475277 -0.116497844 0.3018124 -0.1004987 0.042774346 0.19503655
0.10141897 0.33389485 -0.19786099 -0.2464836 0.128784 -0.27496427 -0.026774693 0.27810368
0.21281098 0.010315189 0.26148257 -0.23145953 0.10438037 0.0752819 0.18895718 0.05287373
-0.023646845 0.087873064 -0.27064842 -0.029643824 0.20744029 0.110515 -0.10361424 0.0036950728
0.022366881 -0.27592683 0.26119304 0.30517843 -0.143983 -0.27080745 -0.30735692 0.2013788
0.066164404 -0.19301558 0.17102489 -0.06117204 0.015671548 -0.014822133 -0.23579498 -0.10620476
0.06582281 0.05074215 -0.081116244 0.21005623 0.06463367 -0.24989404 -0.106163 -0.23206717
-0.057204045 0.0010271698 -0.012166649 0.11827457 0.314812 0.22010331 0.24209437 -0.21381423
0.13132232 0.07707241 0.2362561 0.010863871 -0.16072136 0.10168962 -0.18540291 -0.08694458
0.30432668 -0.23662926 -0.13825108 0.09997279 -0.14528954 0.2952154 -0.16749534 0.327616
0.34776613 0.027969511 -0.18637124 -0.042891562 0.09935079 -0.16094904 -0.1751618 0.27723473
-0.1528941 0.040077318 0.1921924 0.059143696 -0.25061268 -0.12138198 -0.20716177 -0.24070302
0.321942 0.044982977 -0.12589514 0.10118706 0.06612899 -0.16746607 0.032340765 -0.24045157
-0.12258564 -0.11652142 -0.24646048 0.09458878 0.017811358 -0.18182637 -0.013567718 0.35614502
0.24530694 -0.072668225 0.19524291 0.10134848 -0.09114209 0.28304976 -0.001252234 -0.08884032

regressor.0.bias f4 [40]
00000000: f035 36be 6b69 2ebe 8b47 88be 0bc9 a0bd
00000010: a118 963c ed10 7cbe 57a9 7e3d 738c 833e
00000020: e7c3 6f3e d06d 4f3e 7af1 1dbe f51a 303e
00000030: 3139 e7bd 975f 79bd 9020 033e 5d7d de3b
00000040: 664b 9c3e c7c0 163d 11b8 56be c319 98bb
00000050: 26b3 85be 30f4 143e a771 84bd 26cf f43d
00000060: e6ca 80be 8715 633e 29a3 25bd 2e4f 2bbe
00000070: 46d9 a23b 1a78 3abe 1a69 87be cb9a 8b3e
00000080: 1fe6 d33d 5d1d 4c3e 7ff9 10be 81d0 763e
00000090: a207 0dbe 9275 efbd b401 eabd 08ed 2fbd
-0.17794013 -0.17032401 -0.26617083 -0.07850846 0.01832229 -0.24615832 0.062173214 0.25693092
0.23414575 0.20256734 -0.15424147 0.17197783 -0.11290205 -0.060882177 0.1280539 0.006789847
0.30526274 0.03680494 -0.20968653 -0.004641743 -0.26113242 0.14546275 -0.0646699 0.11953573
-0.251548 0.22176181 -0.040438805 -0.16729423 0.0049697487 -0.18209878 -0.26447374 0.27266535
0.103466265 0.19933076 -0.14157675 0.24102975 -0.13772443 -0.11692347 -0.11426106 -0.04295066

regressor.2.weight f4 [80, 40]
00000000: aeef 84bd 9adc 97bc 8d19 c1bd 8b89 17be
00000010: cc65 273d bb3c c53c d580 e8bd 80d8 ee3b
00000020: 958c 0cbe 5a25 0b3e a4fa 033e bd15 b03d
00000030: 362c cb3d 919a 0b3e 47da a5bd 9bac df3b
00000040: 9af6 13be a262 28be 7284 0ebe 6fd1 733d
00000050: e95a b73d 099b bc3c dc9a bdbd 020f 15be
00000060: 0307 393b 58f3 95bd 1297 073e 6a0e 093e
00000070: 5d16 d5bd 4997 7cbd 97b6 c7bd 30a4 4dbc
00000080: 616f 05be 2195 343d a87b 923d 264a 71ba
00000090: b317 b6bd fac6 923d 2aae e2bd 4326 c43c
000000a0: 219e af3d f20d 15be 2d2a 8bbd 1624 bdbc
000000b0: 5683 b8bd d585 febc 6926 35bd 4bb9 143e
000000c0: 840e 9b3d 5ad7 033e 39ce be3d dfdd 6b3c
000000d0: 5cef ce3c ff54 9b3d 5507 73bd 6ab6 aa3d
000000e0: 20ef e23d a016 e23d d529 163e 4123 9bbd
000000f0: 28ed dd3d a4db e13d 9c4e 0c3e d7d5 113d
00000100: c35d b83d 2b8d d73d 1336 68bd fa66 a5bd
00000110: 4f77 67bd 1157 16bd 4f48 6c3d 3a89 563d
00000120: 7efe 483c 91f1 cdbd 86d3 03be f830 0f3e
00000130: 440a 9a3b ff09 a6bc 5486 9d3c 43a2 643d
00000140: 2d58 febd d54c a13d 2233 10be dc7b 143d
00000150: d8e1 9cbd cb5a 5f3d d315 f53d 0082 0f3a
00000160: 6a60 43bd c610 4c3d 97f9 f9bd a926 bc3d
00000170: 7ca2 c73d 8d0b 513d 47c3 dcbd 94b2 a73d
00000180: 0a45 04be 3b59 c6bd c444 cdbd 945f 183e
00000190: 413a 0cbe 9b68 013d 43c6 b9bb 578f 593d
000001a0: fcef ef3d 256e 53bd 6d99 f13d 2e45 ef3c
000001b0: 0591 063d 4e51 80bd f3e1 d83d 9f3b 083e
000001c0: fad0 02be 0fd7 16be 00d2 963c b56b d1bd
000001d0: 5702 70bd efb0 873d e5c9 39bd 211b 1b3d
000001e0: 624d acbd 7bff 9c3c cb75 d53c 9edc 0bbd
000001f0: a7af e5bd eaab 303e 2300 1fbd b5fa f4bc
00000200: ed61 e53d 263f 75bd ca19 abbd 7907 09be
00000210: 6827 0f3d 2d51 053e 6ccd 54bc d583 0f3d
00000220: 4fa2 f6bc ad12 c53b 0dd7 d8bd 5fda debb
00000230: 1bfe 89b8 aece 1f3b 36a4 ffbd 7ff6 093e
00000240: 0d28 30bd 6f80 b8bd 101f c6bd 5eb7 8dbd
00000250: 29a2 943d 2fbb d23d b7f9 0e3d 436d 54ba
00000260: 3b09 0bbe 433c 3e3d 533d 88bd f1be d43d
00000270: 45f5 ae3d 0852 953d 757d ba3c 2d51 01bd
00000280: 830b 0cbe 117e af3d 3ba9 77bd 9fca 013e
00000290: 4285 89bc bc18 8a3d 5638 dcbc 1d70 023d
000002a0: bbd8 653e 6bb1 9c3a f136 9dbb 1eab d63d
000002b0: c702 7ebd 231f 053e 766c b4bd 8648 b53d
000002c0: e0ec 263d 3cf4 ccbd 6970 023e a69e 2ebd
000002d0: 11c2 01be 7556 d63d 51b3 183e 3cf8 9bbb
000002e0: 3155 3b3e 9abf e03d 8328 293b 2cb8 7abd
000002f0: 2323 223e 48e2 3dbd 9902 fa3c 6cb2 b5bd
00000300: 252f d9bd c16b a93d 4faa fd3d 4c63 12be
00000310: 423e e0bc 00e5 9c3d aae5 1c3e e2fc f43d
00000320: f7cc 293e b977 1cbd 877a a73c e018 1a3e
00000330: 4375 13be 885f 423c 2ccf cdbd c84a cebc
00000340: 310c 17bd ee3b b5bd dd88 e83d 9061 bd3c
00000350: 1815 203e a83f fcbd 89f0 3b3c 2b90 f43d
00000360: dbe8 053e e2cf 833d 53eb 423c ac43 abbc
00000370: 3114 34bd 1bee 393d be19 c5bd 758e b33d
00000380: 7032 993d 775c 9d3b 5ec5 3ebd 88f5 1a3e
00000390: b3e3 c9bd cfbf 293e 5828 773d db31 f13d
000003a0: b1c8 1d3d 4979 8f3d 664e 813c 5a1f 58bd
000003b0: 24c8 0c3e 05e5 4bbd 3d26 533d c98a 2c3e
000003c0: de42 b43d 8496 dabd af8f d3bd 7913 0e3e
000003d0: 8fa0 1f3e 3346 b43d cfa3 81bd b117 153e
000003e0: f8b3 c0bd 575c 39bd e70e 473b 8397 04be
000003f0: 5eb2 90bc 4287 07be 71ad 25be bf3d e7bc
-0.06491028 -0.018537808 -0.094287015 -0.14798562 0.040868565 0.02407681 -0.11352698 0.0072889924
-0.13725503 0.13588467 0.1288858 0.08597896 0.09920542 0.13633181 -0.08098274 0.006825996
-0.1444954 -0.16443875 -0.13917711 0.059525903 0.089528866 0.023023145 -0.09258053 -0.14556506
0.002823294 -0.07321805 0.13241223 0.13384405 -0.10404656 -0.061667714 -0.09751623 -0.012551352
-0.13030769 0.044087533 0.07152492 -0.00092044694 -0.08891239 0.07166858 -0.110683754 0.023944026
0.085750826 -0.14556101 -0.06795154 -0.023088496 -0.09009425 -0.031069675 -0.044226084 0.14523809
0.07571128 0.12875119 0.093166776 0.01439616 0.02526062 0.07584571 -0.059333164 0.08335574
0.11080766 0.110394716 0.14664395 -0.075750835 0.108362496 0.11028221 0.13701862 0.035604324
0.09002259 0.105249725 -0.056692194 -0.08076282 -0.056510266 -0.036704127 0.057686146 0.052376963
0.012267707 -0.10055841 -0.12873659 0.13983524 0.004700931 -0.020268438 0.019229092 0.055818807
-0.12419162 0.07875983 -0.14082006 0.036250934 -0.07660264 0.054529946 0.11967053 0.00054743886
-0.04769937 0.049820684 -0.122058086 0.09187061 0.09747788 0.051036406 -0.10779434 0.08188358
-0.12916961 -0.09684988 -0.100228816 0.1488021 -0.13694097 0.0315939 -0.0056693866 0.053115215
0.11715695 -0.051618714 0.11796842 0.029207792 0.032853145 -0.06265508 0.105899714 0.13303994
-0.1277503 -0.14730476 0.018410683 -0.102256216 -0.05859598 0.06625544 -0.045358557 0.03786767
-0.08413197 0.019164791 0.026057145 -0.034145944 -0.11215144 0.1725308 -0.03881849 -0.029904703
0.112003185 -0.059874676 -0.08354528 -0.13381757 0.03494969 0.13019247 -0.0129884295 0.035037834
-0.030106692 0.006014189 -0.10587893 -0.006800934 -6.58e-05 0.0024384665 -0.124824926 0.13472937
-0.043006945 -0.09008872 -0.096738935 -0.0691974 0.07257492 0.10289609 0.034906115 -0.00081034395
-0.1357774 0.04644419 -0.06652322 0.10387982 0.08542875 0.07291037 0.0227649 -0.031571556
-0.13676266 0.08568967 -0.060464125 0.1267495 -0.016787175 0.06742999 -0.026882332 0.0318452
0.22445957 0.001195473 -0.0047978093 0.10481857 -0.062014367 0.13000159 -0.0880975 0.088517234
0.040753245 -0.100075215 0.12738194 -0.042631768 -0.12671687 0.10465709 0.14912154 -0.0047598165
0.18294217 0.10974045 0.00258115 -0.061210796 0.15833716 -0.046358377 0.030518817 -0.08871922
-0.10604695 0.082725056 0.123859994 -0.14295691 -0.027373437 0.07660866 0.15321985 0.11962296
0.16582094 -0.038200114 0.020444168 0.15048552 -0.144002 0.011863597 -0.100492805 -0.025182143
-0.03687686 -0.08849321 0.113542296 0.02311781 0.15633047 -0.12316829 0.011470922 0.1194156
0.13077109 0.06436135 0.011896926 -0.020906292 -0.04396457 0.04539309 -0.096240506 0.08767406
0.07480323 0.0048022824 -0.046574943 0.15132725 -0.09857883 0.16577075 0.06034121 0.11777087
0.038521472 0.07005555 0.015784454 -0.052764274 0.13748223 -0.049778957 0.05155014 0.16849817
0.088018164 -0.1067324 -0.1033014 0.13874616 0.15588592 0.08802452 -0.06330072 0.14559819
-0.09409326 -0.045254078 0.0030373873 -0.12948422 -0.017663177 -0.1323519 -0.16179444 -0.028227685

regressor.2.bias f4 [80]
00000000: 2798 60bd fcf9 a1bc 4ae7 bebd 35fb b03d
00000010: db37 77bd 2a55 1dbd 1a1a cdbd e909 afbd
00000020: cdcb 9a3d 9b0f 9c3d 7439 143e e491 dabd
00000030: 3c16 2abd 271a 873d 0ead 5f3d b874 babd
00000040: 012f 263d f004 183d 1e0a fe3d 0cfc 80bd
00000050: 346b 57bd 71df 523d c1ff 31bd 59d1 9cbc
00000060: ebba f0bd 3eb3 be3d 2dd2 1e3c 3100 2b3e
00000070: 78dd cf3d 8c6e 6c3d 19f8 503d 5700 32bd
00000080: 8656 d3bd 899f a4bd ca8c f4bd 133d 8dbc
00000090: 0435 fabc 304b a33d b79d 283e a2de 8e3d
000000a0: f272 13bc f03b 883c 2756 85bd 44e4 0e3e
000000b0: 27c9 b83d 4be1 0c3e 7650 01be 918d a1bd
000000c0: 5b70 b83c 8146 d6bd b6b4 873d 0744 e9ba
000000d0: 0757 80bd c070 05bc ae92 d83d 66e6 cbbb
000000e0: e84d 0e3e 6606 973d 29d8 61bd efb0 553d
000000f0: 9a6d 313e 42ba 0a3e 5163 1ebd 121f eb3d
00000100: 29bd ef3d 9d98 b03d 2d37 31bd 2f1f bf3c
00000110: 0a95 8a3d 5d14 ae3b 1261 ff3d 6c4b 883d
00000120: 6bfa 243e 8a50 a93d ad06 acbd 2d2b b5bc
00000130: 0ed2 043e e621 2238 e18e da3d 4cf3 e13d
-0.054832604 -0.019772522 -0.09321459 0.08641664 -0.060356002 -0.038411297 -0.10014744 -0.08546812
0.07558403 0.07620164 0.14475042 -0.10672358 -0.04152511 0.06596785 0.054608397 -0.091042936
0.04057217 0.037114084 0.124042735 -0.06298074 -0.05259247 0.05148262 -0.043456797 -0.019142793
-0.11754402 0.093115315 0.0096936645 0.16699292 0.10149664 0.057722613 0.051017854 -0.043457355
-0.103192374 -0.080382414 -0.11940916 -0.017241037 -0.030542858 0.07973325 0.16466413 0.069760576
-0.008999573 0.016630143 -0.06510573 0.13954264 0.09022742 0.13757817 -0.1262835 -0.0788833
0.022514513 -0.10462666 0.06626265 -0.0017796763 -0.06266599 -0.0081445575 0.10574852 -0.006222534
0.13896906 0.07374267 -0.055137787 0.05217069 0.17326966 0.13547614 -0.038668934 0.114805356
0.11706001 0.08622859 -0.04326551 0.0233303 0.06766708 0.005312486 0.124696866 0.066550106
0.16111152 0.08267315 -0.08399711 -0.022115314 0.12970755 3.865538e-05 0.10671783 0.11032733

regressor.4.weight f4 [40, 80]
00000000: fca7 0dbd f66d 96bd 2468 a3bd e629 09bd
00000010: eebb d33b 30cf 27bd 41f9 cdbd 4cd7 75bd
00000020: e351 c13c 3daf 763c 5ebf f7bc b6f4 523d
00000030: f834 8dbc 0349 4abd df7b 74bd 7ee5 bc3d
00000040: 8f87 8d3a 3bdf debd 4fa5 bd3d 5447 9a3d
00000050: 1ecc bdbd ca5e 583d 22c2 a83c df52 9fbd
00000060: f67c 003c 4282 f2bc 3b35 683d a7b3 c53d
00000070: 73e9 ebbd 16a6 2bbd e036 463a aa9c 9fbd
00000080: 623e dd3c 3062 8cbd 9156 d13d 2eae b73d
00000090: 3285 9f3d 79d1 223c 5403 c63d 400d c9ba
000000a0: 3053 d4bd 8cdd da3d 0e01 9ebd 8704 ebbd
000000b0: 7f82 f1bc 1f2d 163d b0b7 2f3c 0f91 d9bd
000000c0: 2bb0 01bc 583c edbd cee0 99bd 582b 963d
000000d0: 989c c83d ac87 bfbd 2c9b 0e3d 58df ddbd
000000e0: 33ed 93bc 830f 623d fb9f 7fb9 c73b 83bd
000000f0: b020 29bd 81bc e2bc 2efe a9bd efd0 e6bd
00000100: a014 e73c 9f45 50bc 6c94 acbd eb59 abbb
00000110: 881f 03bc 0770 203d efab 9bbc 261d c83c
00000120: 6d64 c83d e8f5 d8bd aba4 1dbd 5d2f dfbd
00000130: c2f2 ebbc 4ed9 03bd c389 dbbc 2fd3 14bb
00000140: c8d0 8abd 8ad1 a33d 132b 34bd b9ae babd
00000150: 75ef 6d3d 4ef6 8e3b 740a 663d a29c 1d3d
00000160: 145e b7bd a0c2 8e3b fe2d aa3d 37cc b23d
00000170: 5080 603d 6b4e f6bd e293 403c de44 0f3d
00000180: e058 5f3d 6e7b b13d 8237 29bd 9e1c 9a3d
00000190: e97c 73bd e8c0 e23c 984c c1bd e3fd 043d
000001a0: 68f3 05bd 90ba 9fbd 655b 4dbd b0ba 11bd
000001b0: 0b5a 77bd b81a cebd 885c 33bc d07e d53c
000001c0: 433b 89bd 01ab 4ebd d199 463c 6511 9fbd
000001d0: 9739 9cbd e0e3 c23d b420 0d3d 30e8 90bd
000001e0: 39da d8bb 9092 153d 5df2 5bbd 5155 c73d
000001f0: f4e2 86bc 20eb b6bc ac31 d33c 66ed 00be
00000200: c639 9a3d 9569 f4bd d572 a13c 0833 9dbd
00000210: 60c9 163d 1008 293d 9c10 abbc 7e61 5fbb
00000220: 902a 53ba 1146 253d a12d 6fbd 25ce 8dbc
00000230: 8348 e23c 87c8 92bd 4f2c dabd c0ae 37bb
00000240: c8ea 00bd a022 d1bd 18c7 ad3d 8e65 a93d
00000250: 1077 9fbd fbdb f5bd 6544 4b3d 7037 97bd
00000260: 548c 5d3d 0902 9dbc baa0 8b3b 33be bd3d
00000270: ad2d cabd f539 d13b 5c69 99bd 6865 aebd
00000280: fb0a 44bb dad6 5abc 9844 67bc 2f5a c93d
00000290: 4286 873c c64a 22bd f74e f53c 0afb 06bd
000002a0: 163b 7a3d e771 91bd 3c3f 46bd ccf1 b73d
000002b0: 22ea 9abd 3c8f d63d c2c6 94bb 77bf e93d
000002c0: 836a 023e 7075 9f3c 5d0e f73d d58e d33c
000002d0: 141e 65bd 368c c53b 0c60 46bd db42 28bd
000002e0: 3193 19bd eb50 683d ef0c ce3c 6c12 993d
000002f0: 2ec7 893d 6c38 a93d bfc1 8e3c 2887 333a
00000300: 92f7 babd e014 c53c 0ae9 d13c 7c82 223c
00000310: b082 c2bb 5eda a5bc 218a 2dbd d7ce 51bd
00000320: 0f2e b2bd d687 c23d 9869 8c3d 5963 7dbd
00000330: 8641 c13d dd67 76bd 5138 953d aba2 31bd
00000340: b556 ce3d aacb eabc 915c 343d eecf 4dbd
00000350: 892e f2bc aa63 c3bd 1428 393d 7bcb bc3d
00000360: 13e8 17bd bb23 56bb 46fc c7bb 2a0a 36bd
00000370: 4d63 97bc 2183 62bd 4207 c73d 59ef d2ba
00000380: 26e7 0f3d 55e0 f23d b557 4f3d 76cc 5e3d
00000390: 43df 06be 1d83 0e3d dbf8 31bc b25c cf3d
000003a0: 08e5 7dbd 3e94 b3bd bfa7 17bd 3976 193d
000003b0: 9355 d03c f525 cabd fdbf 40bd d82f cbbd
000003c0: 981a 39bd c943 533d a3d4 f63c 2f24 ed3c
000003d0: 4481 afb9 74db 923d 35c1 8abd d6cc f1bc
000003e0: c180 d43d 58d1 e73c afe3 a43c 5776 d23c
000003f0: a063 9d3c b544 4dbd 8752 babd 9af5 883c
-0.03458403 -0.07345192 -0.079788476 -0.033487223 0.006461612 -0.040969074 -0.10057307 -0.060019776
0.023598617 0.0150564285 -0.030242618 0.051502906 -0.017237172 -0.049386036 -0.059688445 0.0922346
0.0010797846 -0.108824216 0.09260046 0.07533136 -0.09267448 0.052824773 0.020600382 -0.07779478
0.007842293 -0.029603127 0.05669139 0.096534066 -0.11519136 -0.04190644 0.00075612776 -0.07793553
0.027007286 -0.06854665 0.10221589 0.08968769 0.07789077 0.0099376375 0.096686035 -0.0015339032
-0.10367429 0.10686788 -0.07715045 -0.11475473 -0.02948117 0.036664125 0.010724947 -0.10623371
-0.007915537 -0.11583775 -0.07513581 0.07332486 0.09795493 -0.09352049 0.034815952 -0.10833615
-0.018057441 0.055190574 -0.00024378292 -0.06407886 -0.04129094 -0.027677776 -0.08300434 -0.1127032
0.028208077 -0.012711911 -0.08426747 -0.005229225 -0.008003123 0.039169338 -0.019002883 0.024427962
0.0978478 -0.10593778 -0.038487118 -0.10897706 -0.02880228 -0.03218966 -0.026799088 -0.0022708883
-0.06778103 0.07998951 -0.04398639 -0.09115357 0.058089692 0.004362858 0.056162313 0.038479455
-0.08953491 0.004356697 0.083095536 0.08730357 0.05480987 -0.12026676 0.011754008 0.034977786
0.054528117 0.086661205 -0.041312702 0.075249895 -0.059445295 0.027679875 -0.09438437 0.032468688
-0.032702833 -0.07799256 -0.05013599 -0.03557843 -0.060388606 -0.1006369 -0.010947354 0.026061445
-0.067007564 -0.05045605 0.012121634 -0.077669896 -0.07628172 0.0951612 0.034455016 -0.07075536
-0.006617811 0.036516726 -0.053697933 0.0973307 -0.016465642 -0.022328913 0.025780521 -0.1259056
0.07530551 -0.11934201 0.019708076 -0.07675749 0.03681314 0.041267455 -0.020881943 -0.003408521
-0.00080553535 0.040350024 -0.058393124 -0.017310211 0.027622467 -0.07167154 -0.106529824 -0.0028027743
-0.031473905 -0.10211682 0.0848524 0.08271323 -0.07786381 -0.120048486 0.049625773 -0.07383621
0.054088905 -0.01916601 0.0042611035 0.09264793 -0.09871993 0.006385083 -0.07490799 -0.085154355
-0.0029913771 -0.013356889 -0.014115475 0.09831654 0.016543511 -0.03962209 0.02994488 -0.032954253
0.061091505 -0.07101803 -0.04840015 0.08981666 -0.075641885 0.104765385 -0.0045402953 0.11413472
0.12735943 0.019465178 0.120632865 0.025824944 -0.055936888 0.0060286773 -0.04843144 -0.041079383
-0.03749389 0.056717794 0.025152652 0.07474217 0.06727444 0.08262715 0.01742637 0.0006848448
-0.091292515 0.024057806 0.025623817 0.009918805 -0.0059359893 -0.020245727 -0.042368058 -0.05122265
-0.08700191 0.09498565 0.06856078 -0.061862323 0.09436326 -0.060157645 0.07286132 -0.043368023
0.10075132 -0.028661568 0.04403359 -0.050247125 -0.029563205 -0.09540494 0.045204237 0.09218498
-0.037086558 -0.0032675106 -0.0061030714 -0.044443287 -0.018479967 -0.055300836 0.09718181 -0.001609306
0.03513255 0.11859194 0.050620753 0.054394208 -0.13171105 0.034793008 -0.010862554 0.10125102
-0.061986 -0.08768509 -0.03702521 0.03746626 0.02543143 -0.09870521 -0.047058094 -0.09921235
-0.045191377 0.051578317 0.03013069 0.028947918 -0.00033474911 0.071707636 -0.067751326 -0.029516619
0.1037612 0.028298065 0.0201281 0.025691194 0.019212544 -0.050114352 -0.09097772 0.016718674

regressor.4.bias f4 [40]
00000000: 17a3 013d 271e 67ba e660 a1bd b0a0 1dbd
00000010: 50c6 963b 6a31 36bd 3f41 77bd 9957 893c
00000020: b108 32bd bf97 913d be55 41bd 8b0e 09bb
00000030: d7aa 84bd b4a1 8c3d e7ff 0f3e 2907 31bd
00000040: ba11 dc3d a1a2 c4bd 22bb 16bd cf5d d73d
00000050: 8ee3 c43d cfea 163d a1f5 67bd 0258 91bc
00000060: 053d c43d 919b 563c c4ae 383c 093f c83d
00000070: 0076 dabc d094 a93c 1be0 84bc 4c75 af3d
00000080: 9456 dbbc 69e2 803d 67c7 3e3c b918 9b3d
00000090: fd1f b13c aef9 ca3c 7913 e3bc f53b 70bd
0.031649675 -0.0008816444 -0.0787981 -0.03848332 0.0046012774 -0.04448072 -0.060364958 0.016765403
-0.04346532 0.071090214 -0.04720091 -0.002091321 -0.064778976 0.0686678 0.14062463 -0.04321972
0.107455686 -0.096013315 -0.036799558 0.105159394 0.09613715 0.036845025 -0.056630734 -0.01774216
0.09581951 0.013098613 0.011272136 0.09777648 -0.026667595 0.020700842 -0.016220143 0.085672945
-0.026774682 0.06293184 0.011644221 0.07573075 0.021621699 0.02477726 -0.027719246 -0.05865093

regressor.6.weight f4 [1, 40]
00000000: aa10 f9bd e62d 02be f6ba 6e3d f75c df3d
00000010: 00f2 4a3c 6851 b93c 3045 da3d 0dfe babd
00000020: e79c 2dbe 5606 163d 1527 8d3c 86da 9cbd
00000030: 3032 46bd f4d1 193e 56e2 14be 23f9 833d
00000040: 6468 06be f4a8 83bd 44c0 453d aaab da3c
00000050: 4361 f8bd 8118 f83d d1b4 18be 5944 14be
00000060: aa47 85bd bcc2 223e c98c ac3d 4224 203e
00000070: ee09 01bd 90f8 18bc c226 0f3e a5d8 18be
00000080: b48e 52bd 2a42 f43d e6d9 1b3d d237 e93c
00000090: 501b 01be 94cf 493d 56de 153e 379e 21bd
-0.121613815 -0.12712821 0.05828377 0.109064035 0.012386799 0.022621825 0.10657728 -0.091304876
-0.16954385 0.036627136 0.01723055 -0.076588675 -0.048387706 0.15021497 -0.14539465 0.064440034
-0.1312576 -0.064287096 0.048279062 0.026693184 -0.12127926 0.12114049 -0.14912726 -0.14479198
-0.065078095 0.15894598 0.0842529 0.15638831 -0.03150361 -0.009336606 0.13979629 -0.14926393
-0.051405624 0.11926682 0.0380496 0.028469 -0.12608075 0.049270228 0.14635596 -0.039457526
