experiments/models/landS_maml_model8.pt (torch, 31039 bytes, 7 tensors)

regressor.0.weight f4 [40, 10]
0.22370341 0.20225789 0.21740395 -0.21701194 0.30194256 -0.29695565 0.09719518 0.3568784
-0.08807884 -0.0478687 0.3515202 0.239167 -0.0900811 -0.081263244 -0.18236093 -0.3379636
-0.1277533 -0.0031378479 -0.015803367 0.1485227 0.14220572 0.1569215 0.16925313 -0.022415077
-0.0044484437 0.021986341 0.5789666 -0.0055030943 -0.08857848 0.28118423 0.05218599 0.07427276
-0.032751504 0.08975868 -0.051632196 -0.094828054 -0.1433231 0.1271385 0.17693093 0.15378532
-0.1634381 -0.09652615 -0.08284383 -0.039613694 -0.19120868 0.29320168 0.70825195 0.12253753
0.10872033 0.13945994 -0.10054111 0.23879305 0.20638308 0.24134575 0.021937132 -0.25508013
-0.15203325 0.26653287 0.2799469 -0.21840161 -0.19513685 0.19797267 0.007829903 0.03733177
0.20999858 -0.2700582 0.27758577 0.4071903 0.23803923 0.01914075 0.23360123 0.16313611
0.071680166 0.30014423 0.2970126 0.07806455 0.4614893 0.2443068 -0.14467423 0.19574115
-0.1581081 -0.059499547 0.26959464 0.29850248 -0.2779739 0.22046013 0.19339676 0.056185294
-0.24925023 0.17279151 0.12248632 -0.079180025 0.30277795 0.29836178 0.28444245 0.19925125
0.1076089 0.04735276 -0.30939716 -0.20809242 -0.11551045 -0.10062061 -0.15971576 -0.30311435
0.12510121 0.19548687 -0.20271015 0.06604493 0.042048126 -0.30048308 0.077042416 0.03300247
0.16465189 0.19680713 0.01977241 -0.3553658 -0.043118402 0.21450934 -0.3146983 -0.28487653
0.11138887 -0.05851054 -0.2342719 0.014163132 -0.022954077 0.44252753 0.24425285 0.08238143
-0.12893784 0.31005248 -0.26804915 0.2517035 -0.03879592 0.15211175 0.09246236 0.023906922
0.5550954 -0.25615647 -0.1560464 0.22131827 0.28849655 -0.08964904 0.013735026 0.30754066
0.0052772164 0.4555259 0.5563558 -0.21730594 -0.12082735 0.2246106 0.17708562 0.022758808
0.2579033 0.20747061 0.0014345944 -0.4237069 0.034110487 0.22452001 -0.11730224 -0.054352462
-0.135332 0.15477507 -0.098807335 -0.11867058 -0.089508474 0.208797 0.37142947 0.31604517
0.30149445 -0.122033134 0.23869306 -0.12893921 0.31264216 -0.1155031 -0.21821406 0.25751054
0.6226763 0.27546933 -0.21099097 -0.28183585 -0.045256354 0.23442781 0.28726017 0.12536101
0.013749987 0.07852019 0.546543 0.010999618 -0.14552054 0.04159355 0.2105224 -0.20181234
0.23813932 -0.031917546 0.108971596 0.3914123 0.41019252 0.23641384 -0.13564472 -0.22421226
0.2544099 0.23732725 -0.07169515 -0.18776119 0.31558517 0.14564501 0.66295 0.2246482
0.2632825 0.019473076 0.0053834617 -0.29285812 -0.09087089 -0.066306174 0.3045968 -0.17405945
-0.16614096 -0.065357685 0.25408366 0.087385744 0.22486967 -0.24272962 0.31752738 0.21988669
-0.063245535 0.4046551 0.2886009 0.24845429 0.030442506 0.018066525 0.17299512 -0.06989359
0.07817243 -0.061297532 -0.021003246 0.39063516 0.41277415 -0.0047059236 -0.101338565 0.28383866
-0.0017678569 0.17087714 -0.1729875 0.30488005 -0.20842725 0.37493062 0.24997419 0.02628719
-0.23321897 0.2492812 -0.053674836 0.19159085 -0.2815689 -0.020619892 0.31532732 0.28796536
00000000: 8212 653e b11c 4f3e 249f 5e3e 6138 5ebe
00000010: 3798 9a3e 920a 98be 440e c73d c4b8 b63e
00000020: ae62 b4bd f811 44bd 75fa b33e 32e8 743e
00000030: 717c b8bd 586d a6bd d3bc 3abe 9109 adbe
00000040: c3d1 02be 5aa4 4dbb 1076 81bc 5616 183e
00000050: 609e 113e 08b0 203e b150 2d3e d39f b7bc
00000060: 40c4 91bb b31c b43c 2837 143f 4d53 b4bb
00000070: a268 b5bd 61f7 8f3e fac0 553d 511c 983d
00000080: 7126 06bd 66d3 b73d 487c 53bd 3635 c2bd
00000090: 4ac3 12be 9830 023e 622d 353e e679 1d3e
000000a0: 515c 27be 81af c5bd 07aa a9bd f841 22bd
000000b0: 35cc 43be 881e 963e 0050 353f f5f4 fa3d
000000c0: c4a8 de3d 96ce 0e3e 7fe8 cdbd 2a86 743e
000000d0: 1656 533e 5723 773e 80b5 b33c dd99 82be
000000e0: 9bae 1bbe ff76 883e 3355 8f3e aca4 5fbe
000000f0: f4d1 47be 59b9 4a3e fe48 003c 33e9 183d
00000100: de09 573e 1245 8abe b91f 8e3e 3f7b d03e
00000110: 8ec0 733e 10cd 9c3c 2935 6f3e 270d 273e
00000120: 0dcd 923d 81ac 993e 0912 983e 4fe0 9f3d
00000130: 5348 ec3e 902b 7a3e 7b25 14be 5e70 483e
00000140: 17e7 21be ccb5 73bd 4f08 8a3e 51d5 983e
00000150: 9852 8ebe 4dc0 613e cd09 463e 8d22 663d
00000160: 743b 7fbe 42f0 303e 1cda fa3d 2329 a2bd
00000170: b605 9b3e e0c2 983e 71a2 913e 8508 4c3e
00000180: 0e62 dc3d f8f4 413d 4e69 9ebe 2e16 55be
00000190: be90 ecbd 2e12 cebd 878c 23be ce31 9bbe
000001a0: 881a 003e b62d 483e 4093 4fbe 9042 873d
000001b0: a83a 2c3d ebd8 99be 6ac8 9d3d 992d 073d
000001c0: 819a 283e cf87 493e c0f9 a13c 82f2 b5be
000001d0: ec9c 30bd 56a8 5b3e 2320 a1be 56db 91be
000001e0: d91f e43d bfa8 6fbd f9e4 6fbe 7b0c 683c
000001f0: 300a bcbc f892 e23e 6b1d 7a3e 98b7 a83d
00000200: 4808 04be 33bf 9e3e bd3d 89be 48df 803e
00000210: 78e8 1ebd 2fc3 1b3e e85c bd3d 73d8 c33c
00000220: bb1a 0e3f f126 83be a1ca 1fbe 42a1 623e
00000230: d2b5 933e ea99 b7bd e008 613c f875 9d3e
00000240: 80ec ac3b b13a e93e 556d 0e3f 7385 5ebe
00000250: 5474 f7bd 5200 663e ef55 353e ae70 ba3c
00000260: e70b 843e 2d73 543e 0009 bc3a 1cf0 d8be
00000270: 70b7 0b3d 93e8 653e 283c f0bd b0a0 5ebd
00000280: 7994 0abe 5b7d 1e3e 805b cabd 9009 f3bd
00000290: 3850 b7bd e1ce 553e 012c be3e acd0 a13e
000002a0: 7b5d 9a3e 82ec f9bd f46b 743e a408 04be
000002b0: a212 a03e e48c ecbd 8273 5fbe 6cd8 833e
000002c0: b767 1f3f 510a 8d3e 040e 58be ca4c 90be
000002d0: ba5e 39bd d80d 703e c413 933e a35e 003e
000002e0: a047 613c 32cf a03d 3eea 0b3f be37 343c
000002f0: 5603 15be 005e 2a3d 2f93 573e e5a7 4ebe
00000300: cbda 733e f9bb 02bd 802c df3d 3167 c83e
00000310: c104 d23e 7816 723e 73e6 0abe e697 65be
00000320: 0442 823e ea05 733e e8d4 92bd 7844 40be
00000330: 6194 a13e f723 153e 17b7 293f 2e0a 663e
00000340: f7cc 863e 0086 9f3c c067 b03b 80f1 95be
00000350: 841a babd 88cb 87bd 1df4 9b3e a43c 32be
00000360: db20 2abe 40da 85bd 4117 823e 4cf7 b23d
00000370: 3c44 663e 1d8e 78be f392 a23e fa29 613e
00000380: e086 81bd f42e cf3e 7fc3 933e cd6a 7e3e
00000390: 9062 f93c 4000 943c a225 313e 5f24 8fbd
000003a0: de18 a03d 1f13 7bbd 000f acbc 5501 c83e
000003b0: 2257 d33e 2634 9abb 988a cfbd 4d53 913e
000003c0: 6fb7 e7ba 6bfa 2e3e a323 31be 3d19 9c3e
000003d0: f46d 55be e8f6 bf3e 3cf9 7f3e 3c58 d73c
000003e0: f4d0 6ebe 9243 7f3e 25da 5bbd 6430 443e
000003f0: cd29 90be 0ceb a8bc 9572 a13e 3270 933e

regressor.0.bias f4 [40]
-0.1209722 0.035676915 -0.18077691 -0.18455225 -0.06796769 -0.27279583 0.10144656 -0.22579382
0.1314663 -0.29891565 -0.20113637 -0.0761811 -0.09555028 -0.21575275 0.04358604 0.23874743
-0.20157404 -0.11878318 -0.30675477 -0.20644714 -0.18829869 -0.23635992 -0.21209097 0.10645067
-0.3090418 0.18406104 0.07685816 -0.23990181 0.292241 -0.061179377 -0.26764977 -0.31539816
-0.22007841 0.085685536 -0.04137867 0.06882166 -0.19837327 -0.21038364 -0.0823076 0.24361014
00000000: 46c0 f7bd f521 123d 951d 39be 44fb 3cbe
00000010: a532 8bbd e5ab 8bbe 37c3 cf3d 7f36 67be
00000020: 1a9f 063e 790b 99be b1f6 4dbe d604 9cbd
00000030: ddaf c3bd 4aee 5cbe 4787 323d 357a 743e
00000040: 6d69 4ebe 9944 f3bd f60e 9dbe e166 53be
00000050: 5fd1 40be 5608 72be 602e 59be cf02 da3d
00000060: ba3a 9ebe 7f7a 3c3e d067 9d3d d2a8 75be
00000070: 9da0 953e 3a97 7abd 6409 89be de7b a1be
00000080: 3c5c 61be e67b af3d ae7c 29bd 5ff2 8c3d
00000090: 5d22 4bbe cf6e 57be e390 a8bd f074 793e

regressor.2.weight f4 [80, 40]
0.0559244 0.09647351 0.014050401 0.09722066 0.073826596 -0.09429529 -0.11892578 -0.08006923
-0.08799826 -0.13228932 -0.02221772 0.031723112 -0.019591283 -0.062372386 0.020879073 0.010779779
0.07818891 -0.0045563676 0.0041309786 0.10995133 0.04620747 -0.08783653 -0.07318647 0.11934603
0.06159928 -0.033594646 0.08577756 0.057069004 -0.01015836 -0.08670326 0.001959129 0.14365412
-0.07655776 -0.106204875 0.12277244 -0.08709065 0.09803524 0.008289009 -0.1485237 0.02388625
-0.20536613 -0.10017899 0.0115980655 0.06861631 0.15673612 0.011950052 0.05720214 -0.025465922
0.16351889 0.090644225 -0.085510224 -0.051928405 0.22906475 0.047180112 -0.08050679 -0.13137779
0.11649402 0.3189597 -0.10224697 0.13065308 -0.02206364 -0.017461225 0.15356936 -0.04534329
0.056764808 -0.0246278 0.07358117 0.11297391 -0.025683973 0.14853711 0.092287846 -0.11266305
-0.067722365 0.1454298 -0.02028327 0.22963592 0.16958067 0.16923292 0.13585898 0.034087528
0.114678904 0.06356023 -0.0020214766 -0.078893125 0.0485743 -0.123905666 0.011197224 0.08101705
-0.1361083 0.03104788 -0.0112454 0.061584517 0.060419664 -0.10291041 -0.12990677 0.015650317
-0.15331966 0.11016266 0.010068744 -0.14562297 -0.08632867 -0.111586794 -0.016262263 0.056366608
-0.1261155 0.0061416924 -0.06240563 -0.06441671 -0.0043632984 -0.09778213 -0.0113710165 0.04196407
0.021172002 -0.11975821 -0.09702096 0.123691365 0.0923491 0.07319695 0.0067173243 0.13100095
-0.08176203 0.10455193 -0.086723186 0.058858525 0.13625534 -0.07197474 -0.09516674 -0.0068429834
0.183185 -0.028735254 -0.029100358 -0.2510604 0.036002055 0.06416516 0.060546298 -0.19573738
0.23518594 0.17265414 0.055475496 0.2251908 -0.0034557134 -0.10799477 0.085984394 0.057140537
0.16359887 0.23546597 -0.0005757441 -0.12808432 0.24341214 0.044207063 0.052015256 -0.06404973
0.006908286 -0.014342291 0.16108112 0.13721162 0.09924966 0.13282253 0.06030081 0.11141165
0.012041848 -0.03163967 -0.014195052 0.019899786 0.29866222 0.11429654 0.034365356 0.0677829
-0.07334911 0.057663612 -0.04939136 -0.09004527 0.10955005 0.16811693 0.04445686 -0.0129203275
0.12569389 0.16413844 0.03185636 0.04368659 0.13992447 -0.124958985 0.17976888 0.08864162
0.01709259 0.09624189 0.1542239 0.1200809 0.26891223 0.06320667 0.12897037 -0.035724208
0.14982167 0.020167353 -0.0953857 0.15077417 -0.10879852 -0.012681477 0.21213374 0.15264304
-0.093004316 0.06077595 -0.01286678 -0.05163791 0.035392642 -0.15635103 0.0050758272 0.10597415
-0.14649588 0.02215439 -0.10092439 -0.030605987 -0.087977216 -0.099442616 0.0023316592 0.119055316
-0.09909099 0.018133268 -0.07814275 -0.0018601418 0.06866573 0.13985677 -0.0598678 0.08322762
-0.040636487 -0.050072305 -0.13365 -0.011945367 0.07241753 -0.105435185 0.023406371 0.005562082
0.01273872 -0.13099772 -0.03521192 0.005571723 -0.09541677 -0.06894434 -0.031157523 -0.02469176
0.30728006 0.24211222 0.09737274 0.11444854 0.11265784 0.2171736 0.24382295 0.11181442
0.006932902 -0.11535589 -0.07232373 0.6149657 -0.1330768 0.113783054 -0.21473826 0.8145853
00000000: fc10 653d e793 c53d a733 663c a01b c73d
00000010: 6632 973d e41d c1bd 5c8f f3bd 56fb a3bd
00000020: 6f38 b4bd da76 07be f001 b6bc 18f0 013d
00000030: e67d a0bc 307a 7fbd 970a ab3c ac9d 303c
00000040: 8221 a03d 954d 95bb 295d 873b 2a2e e13d
00000050: 0b44 3d3d a3e3 b3bd cae2 95bd b16b f43d
00000060: 874f 7c3d 8a9a 09bd 25ac af3d 30c1 693d
00000070: 406f 26bc 7b91 b1bd bb64 003b 111a 133e
00000080: 51ca 9cbd f181 d9bd 1e70 fb3d 955c b2bd
00000090: b3c6 c83d a0ce 073c 9916 18be 19ad c33c
000000a0: 804b 52be a42a cdbd d005 3e3c b586 8c3d
000000b0: 6f7f 203e 27ca 433c cb4c 6a3d e99d d0bc
000000c0: 7f71 273e aea3 b93d fc1f afbd e1b2 54bd
000000d0: f38f 6a3e ef3f 413d bee0 a4bd e687 06be
000000e0: 6b94 ee3d b04e a33e dc66 d1bd ecc9 053e
000000f0: cfbe b4bc d80a 8fbc 4941 1d3e e3b9 39bd
00000100: 3782 683d 3dc0 c9bc b9b1 963d de5e e73d
00000110: 3267 d2bc 1d1a 183e 6901 bd3d e3bb e6bd
00000120: 06b2 8abd 8deb 143e 1a29 a6bc ae25 6b3e
00000130: 8ea6 2d3e 654b 2d3e 9e1e 0b3e 5d9f 0b3d
00000140: c6dc ea3d de2b 823d c07a 04bb b892 a1bd
00000150: d8f5 463d 41c2 fdbd 9074 373c 44ec a53d
00000160: f95f 0bbe 2058 fe3c a03e 38bc 0c40 7c3d
00000170: 9c7a 773d b1c2 d2bd 4806 05be 1835 803c
00000180: d4ff 1cbe f69c e13d 60f7 243c 301e 15be
00000190: 16cd b0bd 9e87 e4bd 7038 85bc ace0 663d
000001a0: 6c24 01be 4040 c93b 0c9d 7fbd e8ec 83bd
000001b0: 00fa 8ebb ff41 c8bd 804d 3abc 84e2 2b3d
000001c0: e870 ad3c cb43 f5bd edb2 c6bd e651 fd3d
000001d0: 8621 bd3d 48e8 953d 001d dc3b 1d25 063e
000001e0: da72 a7bd 531f d63d ed9b b1bd a315 713d
000001f0: 8586 0b3e 7e67 93bd c8e6 c2bd 1b3b e0bb
00000200: d994 3b3e 3266 ebbc e063 eebc fd8a 80be
00000210: e476 133d 0669 833d 65ff 773d 616f 48be
00000220: 95d4 703e 3fcc 303e 463a 633d 6b98 663e
00000230: 4079 62bb 5d2c ddbd 9618 b03d 320c 6a3d
00000240: 7686 273e fe1d 713e 88ed 16ba 8928 03be
00000250: 0841 793e 7712 353d f30d 553d 812c 83bd
00000260: e75e e23b eefb 6abc 73f2 243e 3481 0c3e
00000270: 6843 cb3d a102 083e fbfd 763d cb2b e43d
00000280: 2c4b 453c 9998 01bd 5d92 68bc e004 a33c
00000290: 41ea 983e 4e14 ea3d b0c2 0c3d c3d1 8a3d
000002a0: 0f38 96bd ae30 6c3d 984e 4abd a869 b8bd
000002b0: c75b e03d d826 2c3e 6518 363d c8af 53bc
000002c0: e6b5 003e e813 283e d17b 023d b6f0 323d
000002d0: 5c48 0f3e 7fea ffbd 5515 383e bd89 b53d
000002e0: c205 8c3c 781a c53d dfec 1d3e faec f53d
000002f0: ddae 893e 8072 813d cf10 043e 8c53 12bd
00000300: da6a 193e 0136 a53c 9459 c3bd 8b64 1a3e
00000310: c2d1 debd f8c5 4fbc 9639 593e 754e 1c3e
00000320: 0c79 bebd 34f0 783d 30cf 52bc 4682 53bd
00000330: e0f7 103d 7c1a 20be 2053 a63b fa08 d93d
00000340: 0403 16be 207d b53c 72b1 cebd 68b9 fabc
00000350: 662d b4bd 92a8 cbbd c0ce 183b 46d3 f33d
00000360: 38f0 cabd 388c 943c 4e09 a0bd 00d0 f3ba
00000370: 9ea0 8c3d 9d36 0f3e f037 75bd 3e73 aa3d
00000380: 7272 26bd 9e18 4dbd 8cdb 08be 80b6 43bc
00000390: a44f 943d 67ee d7bd b8be bf3c 2042 b63b
000003a0: 10b6 503c 4424 06be 603a 10bd 0093 b63b
000003b0: de69 c3bd b132 8dbd 103e ffbc 6046 cabc
000003c0: d053 9d3e 44ec 773e 5c6b c73d ff63 ea3d
000003d0: 27b9 e63d c262 5e3e b9ac 793e f5fe e43d
000003e0: 662d e33b b53f ecbd 771e 94bd 646e 1d3f
000003f0: 4945 08be 1707 e93d 59e4 5bbe aa88 503f

regressor.2.bias f4 [80]
-0.11189217 0.0098853875 -0.112569585 -0.019841531 0.06658949 -0.08952927 -0.09055744 -0.16426921
0.07178342 0.14301261 -0.07185898 -0.09451494 -0.09269287 -0.12044368 0.13237329 0.043835815
-0.107866675 -0.10949313 -0.058897506 0.08272161 -0.09930194 -0.16812417 -0.1285773 0.055414893
0.10358428 0.12429662 -0.046786383 0.013741035 -0.037892617 0.117191896 0.18523079 -0.121238105
0.05544811 -0.036988232 0.1521026 -0.105131164 -0.010133347 0.13274027 0.1690617 -0.0039221533
-0.008204828 -0.061191525 -0.117608786 0.09213204 0.14843793 0.095378555 0.15448162 0.1496143
-0.008470594 -0.020482007 0.035739955 0.03539181 -0.11367048 -0.17227224 0.16649987 -0.114752054
0.16257766 -0.08220322 0.17814402 0.13873737 0.09003208 -0.110002264 0.07305154 0.16776587
-0.025052506 0.032230414 0.117701255 -0.11604281 -0.13942847 -0.016949205 0.013284919 -0.07833095
0.112760246 0.15030268 -0.12853743 -0.001259312 0.1479474 0.015453137 0.05442131 -0.1276966
00000000: b927 e5bd 52f6 213c e28a e6bd b58a a2bc
00000010: 1260 883d 1f5b b7bd 2e76 b9bd 3036 28be
00000020: 3003 933d e671 123e cd2a 93bd 0d91 c1bd
00000030: c2d5 bdbd 2dab f6bd dd8c 073e 2f8d 333d
00000040: 34e9 dcbd ef3d e0bd 833e 71bd f369 a93d
00000050: d15e cbbd be28 2cbe c5a9 03be bafa 623d
00000060: ff23 d43d 3a8f fe3d 14a3 3fbd 1422 613c
00000070: 4a35 1bbd 4e02 f03d 24ad 3d3e af4b f8bd
00000080: 8f1d 633d f980 17bd c9c0 1b3e 024f d7bd
00000090: 5606 26bc 11ed 073e 831e 2d3e 6885 80bb
000000a0: 8b6d 06bc f7a3 7abd e0dc f0bd b9af bc3d
000000b0: 1d00 183e d555 c33d 6e30 1e3e 7e34 193e
000000c0: 3fc8 0abc e2c9 a7bc 0f64 123d 01f7 103d
000000d0: 12cc e8bd 2268 30be f17e 2a3e 2003 ebbd
000000e0: c27a 263e 295a a8bd 636b 363e 2b11 0e3e
000000f0: bd62 b83d de48 e1bd 0c9c 953d d1ca 2b3e
00000100: ea3a cdbc 0a04 043d 5b0d f13d daa7 edbd
00000110: 56c6 0ebe 0fd9 8abc fda8 593c fa6b a0bd
00000120: d8ee e63d f2e8 193e 519f 03be 800f a5ba
00000130: 867f 173e 282f 7d3c e1e8 5e3d e6c2 02be

regressor.4.weight f4 [40, 80]
0.0075140274 0.11370678 0.0623945 -0.112519585 0.07912821 0.027561307 -0.05084036 -0.04870425
0.044028733 -0.0031367727 -0.01836582 -0.04229126 0.10036105 -0.05944298 -0.053020433 -0.04667751
0.020366415 -0.08817689 0.09718701 -0.09783744 -0.044198617 0.12442869 -0.047542773 0.015438253
0.041341577 0.06212185 -0.09653348 -0.06651459 -0.026597856 -0.102197796 -0.02109305 -0.050668053
0.09884005 0.017428251 -0.03658499 0.08430329 0.0179887 -0.08113967 0.020905444 -0.051933173
0.044789616 0.026816027 -0.063889064 0.061267138 -0.05180929 -0.07381641 0.10920834 -0.058803666
0.008650618 0.082122184 0.10480364 0.009276735 -0.031208064 0.06840438 -0.030443791 0.03404951
-0.00608423 -0.06715265 -0.057059783 0.03206866 -0.06460507 0.032296766 -0.16210122 0.08422009
-0.10977076 -0.10117479 0.010640386 0.011991877 -0.03666173 -0.011014465 -0.0387016 0.09193566
-0.087546304 -0.054655246 -0.07550608 0.029682979 -0.008351888 0.0094512785 -0.051420722 -0.059018735
0.06914527 0.043340318 0.09844202 0.030218482 -0.047222767 0.04385531 0.036689002 0.006160669
0.085256785 -0.061503977 0.015246459 -0.12344249 -0.110428065 -0.016733231 0.08293108 0.048130505
0.081936255 -0.024410717 -0.10149567 0.04218363 0.04576132 -0.06867987 -0.027966445 -0.08748245
-0.02488275 -0.08880576 -0.07285717 0.065616615 -0.06365679 -0.098286204 -0.05225739 0.07332035
0.06681929 0.07488644 0.055542227 -0.042127203 0.03635718 -0.0044863373 -0.024110222 -0.092955574
-0.0073992535 -0.11815279 -0.017623276 -0.03604686 0.023192216 -0.07973614 -0.036849756 -0.052874554
-0.047456335 0.014276433 -0.112957604 -0.07785471 -0.10110892 0.026972685 0.0722506 -0.008587338
-0.05394017 -0.024531262 0.04423438 -0.008718522 0.05918494 -0.007415831 -0.06993813 0.07596583
0.011740905 -0.069509335 0.03078142 -0.06410586 -0.057884693 -0.01204897 -0.012018369 -0.06804872
-0.013014332 0.045050137 0.053332288 -0.106717035 0.02996735 -0.031785753 -0.10983607 0.04607659
0.0006668222 0.018605333 0.05547446 -0.023733487 0.029660102 0.025478765 -0.1900113 -0.027942572
0.011571518 0.119276494 0.07744538 -0.02672117 0.061493255 -0.058115598 0.031564053 -0.16227604
-0.03562201 0.11872985 0.058712818 0.08900356 0.04259173 0.05041512 -0.032898743 0.033126228
0.046323407 0.0149720935 -0.0777027 -0.100432254 0.08086623 -0.009060704 0.13026299 -0.0133092655
-0.05328572 0.046189286 0.06743053 0.09494077 0.024204463 0.10851608 0.007819088 -0.0016278229
0.044654462 0.0630183 0.0028219717 -0.049875442 0.048069585 0.041283906 0.100219935 0.061466366
0.08204795 0.049644034 0.033327196 0.1307431 0.013423033 -0.009929516 0.038054418 -0.009570785
0.09037232 0.04081199 0.039712813 0.112516575 0.0002411202 0.13313754 -0.25914595 -0.032277655
0.07499118 0.11948421 0.07057401 0.08592821 0.049928885 -0.079276 0.08086751 -0.023643516
-0.0028897387 0.033639286 -0.03306723 -0.018985473 -0.049645398 0.11435578 -0.01850619 -0.057922166
-0.03968186 -0.062378686 0.08916645 0.10101422 0.06532908 -0.016612679 -0.046589095 0.028202096
0.11167126 0.10525981 0.11337265 0.027686244 0.124167904 0.05265636 -0.04644952 -0.14431575
00000000: 3b38 f63b 1adf e83d 6091 7f3d ab70 e6bd
00000010: f90d a23d 40c8 e13c fb3d 50bd 1c7e 47bd
00000020: 7957 343d 5092 4dbb eb73 96bc 9a39 2dbd
00000030: 188a cd3d 7b7a 73bd f42b 59bd eb30 3fbd
00000040: 78d7 a63c 1696 b4bd fc09 c73d ff5e c8bd
00000050: 9c09 35bd 78d4 fe3d 36bc 42bd baf0 7c3c
00000060: c955 293d 7b73 7e3d 58b3 c5bd cd38 88bd
00000070: bfe3 d9bc 144d d1bd 55cb acbc 4e89 4fbd
00000080: a76c ca3d b1c5 8e3c 24da 15bd 34a7 ac3d
00000090: 0a5d 933c 8e2c a6bd e541 ab3c e1b7 54bd
000000a0: 5175 373d 49ad db3c 45d8 82bd 40f3 7a3d
000000b0: fa35 54bd 0f2d 97bd 9fa8 df3d 1ddc 70bd
000000c0: 52bb 0d3c ad2f a83d 4aa3 d63d 72fd 173c
000000d0: 0ea8 ffbc 9817 8c3d 4265 f9bc 8077 0b3d
000000e0: 385e c7bb 5487 89bd 85b7 69bd 6d5a 033d
000000f0: aa4f 84bd 9d49 043d ddfd 25be 957b ac3d
00000100: 7ecf e0bd ba34 cfbd 0355 2e3c 9479 443c
00000110: 9c2a 16bd 0476 34bc 9285 1ebd c348 bc3d
00000120: 7a4b b3bd 2ede 5fbd efa2 9abd b829 f33c
00000130: 5bd6 08bc 89d9 1a3c 899e 52bd a1bd 71bd
00000140: 099c 8d3d 9e85 313d f89b c93d c08c f73c
00000150: a96c 41bd a0a1 333d 3547 163d 70df c93b
00000160: 1c9b ae3d 98eb 7bbd 49cc 793c 6bcf fcbd
00000170: 1c28 e2bd 2114 89bc c5d7 a93d 7e24 453d
00000180: 32ce a73d fcf8 c7bc f6dc cfbd bec8 2c3d
00000190: 3970 3b3d 08a8 8cbd e319 e5bc 002a b3bd
000001a0: e9d6 cbbc cbdf b5bd 2436 95bd 0162 863d
000001b0: 7e5e 82bd 474a c9bd d80b 56bd fb28 963d
000001c0: 8dd8 883d 105e 993d 3f80 633d 938d 2cbd
000001d0: 44eb 143d 2002 93bb cd82 c5bc 7e5f bebd
000001e0: 7075 f2bb 17fa f1bd b05e 90bc dfa5 13bd
000001f0: 9afd bd3c b44c a3bd c5ef 16bd fd92 58bd
00000200: 9361 42bd b3e7 693c 5156 e7bd 4a72 9fbd
00000210: 3212 cfbd d2f5 dc3c 1ff8 933d e8b1 0cbc
00000220: 5ef0 5cbd c9f5 c8bc 1c2f 353d 22d8 0ebc
00000230: e86b 723d 8000 f3bb b93b 8fbd f993 9b3d
00000240: ed5c 403c e95a 8ebd 5129 fc3c ef49 83bd
00000250: 8018 6dbd 0b69 45bc b1e8 44bc 215d 8bbd
00000260: 113a 55bc 7e86 383d f572 5a3d 768e dabd
00000270: 177e f53c c731 02bd bcf1 e0bd ceba 3c3d
00000280: aecd 2e3a 366a 983c 3039 633d bb6c c2bc
00000290: bef9 f23c d8b8 d03c 5292 42be d2e7 e4bc
000002a0: 7796 3d3c 3c47 f43d af9b 9e3d 5be6 dabc
000002b0: 5ae0 7b3d 9f0a 6ebd 4f49 013d b12b 26be
000002c0: 62e8 11bd a328 f33d da7c 703d 8047 b63d
000002d0: aa74 2e3d 1680 4e3d d5c0 06bd 5eaf 073d
000002e0: 9dbd 3d3d 834d 753c 9822 9fbd 6daf cdbd
000002f0: 329d a53d 5973 14bc a963 053e 1b0f 5abc
00000300: 2142 5abd fa30 3d3d 0519 8a3d 4e70 c23d
00000310: 7048 c63c ae3d de3d a21b 003c ac5c d5ba
00000320: 99e7 363d bd0f 813d d4f0 383b 314a 4cbd
00000330: 9de4 443d 5019 293d 1c40 cd3d 28c4 7b3d
00000340: c108 a83d 8b57 4b3d 1982 083d 85e1 053e
00000350: 48ec 5b3c 69af 22bc f3de 1b3d c8ce 1cbc
00000360: 1f15 b93d 792a 273d e7a9 223d 176f e63d
00000370: 36d5 7c39 3555 083e c7ae 84be 9335 04bd
00000380: fa94 993d 23b4 f43d 1b89 903d 21fb af3d
00000390: 3b82 4c3d 755b a2bd dd9d a53d 0cb0 c1bc
000003a0: c561 3dbb 59c9 093d 8171 07bd 6c87 9bbc
000003b0: f958 4bbd 5d33 ea3d 4b9a 97bc cb3f 6dbd
000003c0: 7289 22bd cb80 7fbd e69c b63d 8be0 ce3d
000003d0: 41cb 853d 5017 88bc 35d4 3ebd 1508 e73c
000003e0: e7b3 e43d 7592 d73d ec2f e83d 43ce e23c
000003f0: be4b fe3d 32ae 573d da41 3ebd 82c7 13be

regressor.4.bias f4 [40]
-0.009758444 -0.055751212 0.13592638 0.1556874 -0.04403947 0.053834453 -0.04721543 -0.026849138
-0.047235943 0.07157433 0.014376401 0.0056386082 -0.023343153 0.027748462 0.027540687 0.09758992
-0.09258668 -0.09243672 0.003367728 -0.06918271 -0.036876034 -0.09638311 0.1260879 -0.009014979
0.040651202 0.0017670933 0.12164317 -0.0024482403 0.021528931 0.07267326 0.02833043 -0.04409478
-0.08637553 0.046911795 0.10715632 -0.100291535 0.09476564 0.084631525 -0.019473348 0.09691902
00000000: e1e1 1fbc 625b 64bd 4930 0b3e 856c 1f3e
00000010: bb62 34bd 8481 5c3d f764 41bd b9f2 dbbc
00000020: 7a7a 41bd 9095 923d ff8a 6b3c 13c4 b83b
00000030: 243a bfbc be50 e33c 029d e13c 39dd c73d
00000040: 169e bdbd 774f bdbd 1ab5 5c3b aaaf 8dbd
00000050: 530b 17bd 8264 c5bd 301d 013e 90b3 13bc
00000060: e081 263d d09d e73a 0e20 f93d a872 20bb
00000070: 715d b03c b8d5 943d 3815 e83c ba9c 34bd
00000080: a7e5 b0bd 9526 403d c674 db3d a665 cdbd
00000090: 7d14 c23d 4b53 ad3d 9286 9fbc 7b7d c63d

regressor.6.weight f4 [1, 40]
0.16704716 -0.10360264 -0.0029682764 0.047854897 0.08007178 0.15648292 -0.17160559 0.09416964
-0.026052829 0.03204075 -0.098602094 0.058597807 0.058733087 -0.08805694 -0.057532083 -0.13911632
-0.053743053 -0.09518586 -0.047770787 -0.055083085 -0.08560887 -0.1333533 0.0049599214 0.15500842
-0.027457107 0.027261844 0.014399373 0.051045332 0.1067439 -0.0355557 -0.08445598 0.08812759
-0.035610747 -0.07209016 -0.07259803 -0.04659605 -0.09323638 -0.026682803 -0.165819 0.16300805
00000000: 690e 2b3e 9f2d d4bd 6a87 42bb 7f03 443d
00000010: acfc a33d 0f3d 203e 60b9 2fbe 03dc c03d
00000020: be6c d5bc 293d 033d e5ef c9bd 4104 703d
00000030: 1b92 703d 3257 b4bd c3a6 6bbd 8274 0ebe
00000040: ad21 5cbd cef0 c2bd 4dab 43bd cd9e 61bd
00000050: b453 afbd c48d 08be d686 a23b 87ba 1e3e
00000060: baed e0bc 3b54 df3c 59eb 6b3c e914 513d
00000070: 8c9c da3d dba2 11bd 42f7 acbd 3d7c b43d
00000080: 93dc 11bd 01a4 93bd 47ae 94bd 80db 3ebd
00000090: b7f2 bebd e595 dabc 75cc 29be 95eb 263e
