experiments/models/landS_maml_model10.pt (torch, 31039 bytes, 7 tensors)

regressor.0.weight f4 [40, 10]
00000000: b6f4 9d3e 8e4f 1ebe c2a6 7bbb 20bd ea3d
00000010: 5c16 e53d d555 db3e 6797 163f 9848 7c3c
00000020: d979 90be ea2a bfbd 0f2a 14be 28c6 ec3d
00000030: f636 1fbe 00bc 993e b019 b93c 8a8f 813e
00000040: 3cdd f33e 5541 253e 00b8 cc3a 6a25 3bbe
00000050: 90c9 fc3d 592c 8c3e 6de2 863e 3d0d 583d
00000060: 9071 623d 844d bd3e 7648 ef3e 3a2d 5ebe
00000070: e47f a13d 08bf 113e 2f21 19be 0256 493e
00000080: 7055 a93e b5b1 653d 7f73 8e3e d3b8 613d
00000090: efbf 033f 5628 3cbe f3f1 993e 7051 9c3c
000000a0: f37b 8a3e c5e1 d5bd 01b7 01be 4016 9a3e
000000b0: 6099 9d3c 3f02 1ebd a56f 8c3e 8d21 9e3e
000000c0: 6613 04be 7cc8 a83d b0a1 40bd 4782 afbd
000000d0: a1a3 9a3e 4a71 bc3d cc62 123e 58f6 9abe
000000e0: 44a1 b93e d15f cc3e 2c0c f13d f036 1a3e
000000f0: 7a78 1e3e c538 243d 8c80 893e b045 963d
00000100: 00a6 2ebb cec5 0cbf ab50 bb3e c607 733e
00000110: 2345 16be 1947 8f3e 824d 223e bc90 313e
00000120: c05d 233e d200 893e a068 dc3d 001f f83d
00000130: 3e5f 1cbd 41fb c23d 819b 90be c005 89bc
00000140: cf4b dc3d f9c7 183e 1536 55be ef05 6dbc
00000150: ee8e 8bbe 7db0 17be 4e9e 5e3e 113c 413e
00000160: 0e54 87be 4afa 153e ee45 b83d 866c 733d
00000170: 4b4b c33d a1d0 3d3e e4b1 dc3d e7eb 21bf
00000180: 959d 32bd 5a35 a33e a4f7 c7bd 68ef 09be
00000190: 4070 9c3e 6e4a 56bb f99a a3bc bd71 553d
000001a0: 2e1c febd a7bd 873e 8656 0c3e 77a4 90bd
000001b0: ec11 933d 28fa 693d a945 a6bc 4a17 883d
000001c0: 0e48 12be 5bb3 cc3d a846 983d 1001 ec3e
000001d0: 97bf 073f 0b96 2c3e c122 8e3e 30b9 97bd
000001e0: 8f7a f0bd 76d6 483e 68da f33c 4c01 003e
000001f0: 14c5 d9bd ce3a da3e 00ae 093f c528 ca3d
00000200: b0f6 9f3c 40c8 de3d 74f0 99bb 1e3f 953e
00000210: 330e 0ebe 1cf7 27be 32d3 3fbe a430 b83e
00000220: 6ccf aa3e 8e59 eebb 9fd2 83be 9e53 89bd
00000230: 1bae a73e 03bd 5abe bbeb 76be d870 2e3e
00000240: 7294 cabd 2cdd 2c3e 5a76 243e f38e 753c
00000250: 3254 013e 92f1 3bbe b72f 34be 1e09 053e
00000260: d369 cd3e 666d dabd 446f 183e 25e2 35be
00000270: d89c d03e deef d33d ab82 34be c0af 33bc
00000280: 0143 e33d 24a5 5fbe 481a 81be 58ae 303e
00000290: b0c1 493d 54dc 2fbe cbf5 1bbe 1aa5 143e
000002a0: 5381 85be 0ad4 783e 3e21 4c3c 015c da3c
000002b0: 1d4b 78be 19ab 5a3e f827 13bd 3e77 8f3d
000002c0: 0911 fb3e 7664 cd3d eebc 72be 48f5 afbd
000002d0: 333e 88be 1db9 91be 70f3 9b3d 0f34 66be
000002e0: 3826 8fbe 8c52 c0bd 7c99 edbd ce8e bcbd
000002f0: 60ef 683c 7e4d ddbd 5a6c 51bd d9e6 05be
00000300: 829d aa3e 78f4 acba 1f2f 20be 9d7d a13e
00000310: 3370 913e d7cc 303e 7eee 643e 909e 4bbe
00000320: 7864 d0bd eff2 c93d d06e a0bd f78e 21be
00000330: 36fc 02be 8d4e 343e 7cad 9c3c f49c 8e3e
00000340: b867 87bd e2b0 6a3e c59a 93be c826 433e
00000350: 866d 01be 4eaa 6abe 202a 7bbe 6dfe febd
00000360: db5e 8fbd 789e 8d3e 4ad7 a1bd 4850 32bd
00000370: 5df5 92bd dd0c 03be ed0d 20be 1b90 e43d
00000380: ae2c 103e 54f0 8a3e e0a8 173f 852b cc3e
00000390: 4062 8b3c 80cf 52bd 91b5 29be 2bd4 103e
000003a0: c129 af3e d546 f8bd 90b6 8abd 2b78 583e
000003b0: b28f 003f c789 3e3e d0c8 5cbe 6686 4dbe
000003c0: 7e58 443e 30ab bcbb c83a 43be d449 16bd
000003d0: caa8 203e a2ac af3e 01da f83e 1234 573e
000003e0: ac9e 873d 2013 b63c 8ff0 08be 34ec 043c
000003f0: 6642 79be 271c ad3c 5ad1 3f3e b590 df3e
0.30850762 -0.15460035 -0.0038398956 0.11461854 0.11185905 0.42838922 0.5882477 0.015398167
-0.28217962 -0.09334357 -0.14469169 0.11561233 -0.1554831 0.30026245 0.022595257 0.25304824
0.47629726 0.16138203 0.0015618801 -0.18275991 0.123431325 0.27377585 0.26344624 0.052747
0.055284083 0.36973202 0.4673497 -0.2169694 0.07885721 0.14233029 -0.14954065 0.19661716
0.33072996 0.056077678 0.27822492 0.055107903 0.5146474 -0.18374762 0.30067405 0.019081801
0.2704769 -0.10443453 -0.12667467 0.300951 0.019238174 -0.03857636 0.27428928 0.30884972
-0.12898025 0.08241364 -0.047029197 -0.0856977 0.30202964 0.09201296 0.142955 -0.3026607
0.36255848 0.39916852 0.117699 0.1506002 0.15475646 0.040093202 0.26855886 0.073375106
-0.0026649237 -0.54989326 0.36584982 0.23733434 -0.14674811 0.2798393 0.1584988 0.17340368
0.15953732 0.26758438 0.10762143 0.12115288 -0.038176768 0.09520579 -0.2824364 -0.016726375
0.10756647 0.14920034 -0.20821412 -0.014466747 -0.27257484 -0.14813419 0.21740076 0.1887057
-0.26431316 0.14646259 0.08997713 0.059429668 0.09535845 0.18536617 0.107761174 -0.63250583
-0.043607313 0.31876642 -0.097640306 -0.13470232 0.3055439 -0.0032698172 -0.019971358 0.052110422
-0.124077186 0.2651188 0.13704881 -0.07062619 0.07181153 0.057123333 -0.020296888 0.06645067
-0.14285299 0.09995147 0.074353516 0.4609456 0.5302672 0.16854112 0.2776089 -0.074083686
-0.11742126 0.1961306 0.02976723 0.12500495 -0.10633293 0.4262299 0.5378113 0.098710574
0.01952681 0.108780384 -0.0046978537 0.29149717 -0.13872604 -0.16402858 -0.18732908 0.3597461
0.33361375 -0.0072738593 -0.2574663 -0.06705402 0.3275002 -0.21361165 -0.24113362 0.17035234
-0.09891595 0.16881245 0.16060773 0.014987695 0.12629774 -0.1835387 -0.17596327 0.12991759
0.401198 -0.10665397 0.14886194 -0.17762049 0.40744662 0.103484854 -0.17627971 -0.010967195
0.11096764 -0.2184034 -0.25215364 0.17254007 0.04925698 -0.17173892 -0.15230481 0.14516106
-0.2607523 0.24299636 0.012459097 0.026655199 -0.24247403 0.21354331 -0.03592679 0.070051655
0.49036434 0.10028927 -0.23704883 -0.085917056 -0.26609954 -0.28461543 0.076147914 -0.22480796
-0.27958846 -0.093907446 -0.116015404 -0.09206925 0.014217228 -0.10805796 -0.051128723 -0.13076343
0.33323294 -0.0013195416 -0.15642975 0.31541148 0.28405914 0.1726564 0.22356603 -0.19884706
-0.10175413 0.09860789 -0.07833636 -0.15777193 -0.12791523 0.1760809 0.019125693 0.2785412
-0.0661158 0.22919038 -0.28829017 0.19057763 -0.12639436 -0.22916529 -0.24527788 -0.124508716
-0.07000514 0.27659965 -0.07902391 -0.043533593 -0.071757056 -0.12797876 -0.15630312 0.111602984
0.14079544 0.2713648 0.5924206 0.39876953 0.017014623 -0.05146742 -0.16573168 0.14143436
0.34211543 -0.12122885 -0.06773102 0.2113959 0.5021926 0.18607245 -0.21560979 -0.200708
0.19174382 -0.005757712 -0.19065392 -0.0366915 0.15689388 0.34311396 0.48603824 0.21015957
0.06622061 0.022225916 -0.13373016 0.008112956 -0.24341735 0.021131588 0.18732205 0.4366509

regressor.0.bias f4 [40]
00000000: 3315 183e 7845 aabb ae80 36bd 9565 60be
00000010: da98 9c3e f153 b4bd db6e 59bd 9a76 9ebb
00000020: 2bb7 21be 1bc1 d4bd d171 173e 1bc3 f13d
00000030: e371 913d 7739 3c3e 6e9a a0bd 4a04 3e3e
00000040: 1866 cbbd fea3 00be c648 19be 4c2b 14be
00000050: 773e 1dbe 758d a43c 3044 ab3d d178 8d3e
00000060: 0dde e8bd a1f6 ab3e 4f8a 5b3d 05df 6e3c
00000070: 3c7d 743e c3d8 82bd 7f67 9c3e f516 4e3c
00000080: 849a 80be c6e0 553d 2965 083e eb58 383e
00000090: e815 773e 31e9 39be cb3b 4abe d453 193e
0.14851837 -0.0051962696 -0.044556312 -0.2191375 0.30585366 -0.08805073 -0.053084236 -0.0048359158
-0.1579253 -0.103883944 0.14789511 0.118047915 0.071018 0.18381296 -0.07841955 0.18556324
-0.09931582 -0.12562558 -0.14969167 -0.14469641 -0.1535586 0.020086983 0.08362615 0.27631238
-0.11370478 0.335866 0.0535987 0.014579539 0.23875898 -0.06389 0.3054771 0.012578716
-0.25117886 0.052216314 0.1331984 0.1800267 0.2412945 -0.18155362 -0.19749372 0.14973384

regressor.2.weight f4 [80, 40]
00000000: b808 00bd b9ec f1bc c748 0f3e ecd0 4ebd
00000010: 8259 2a3d 8910 abbe e7a1 9e3e c7c5 9e3d
00000020: 7fbb f63d ff63 c23e 31a3 25be db2b 163d
00000030: 1eb1 d1bd 8a8c 1fbd 4c78 bd3c 16c4 023e
00000040: 173a 813e 5fb1 233e 00bd 643a d459 34bf
00000050: 6ba6 443c b5de 003f ce5a ffbe da7d d6bd
00000060: 232e c0be c161 9fbe b2f8 463e b606 dabe
00000070: daa3 69be b66d e6be fe72 253e 3890 003e
00000080: 75a3 753d 5243 9d3e 6347 cbbe 0a22 af3d
00000090: 3a0c cc3c b191 c5be e814 e8bc c5c8 dd3d
000000a0: e807 ecbc 855f 4c3e f8ce 983d a247 0f3e
000000b0: ee73 e9bd 34cb 97bd 4ce1 dabe ef75 4c3e
000000c0: 1ca0 063d 3d37 98bc a4dd 93bd f321 633d
000000d0: 0f72 f63d 318e cc3d 7b4d c83d 44d7 b73c
000000e0: b3a4 f83d b73c 79bd b64f 21bd f2af 2b3e
000000f0: 8c34 713d 64bb 283d 1892 293e 1160 a43c
00000100: 7207 59bd 2ffd 8d3d 93c6 bcbd 89ef fe3c
00000110: 8259 103e 3f8a e63d 13d9 3b3e 7e50 863d
00000120: 0985 09be 92b1 133e 8155 583e 513a 163e
00000130: d2b6 133e 2f66 193e bb91 a3bc ff68 3f3e
00000140: 1132 2ebe 8580 0bbe 7381 033e 2fef 20be
00000150: d86c 17be ca1c 67bd 9b2d 9c3b e8bc 2abd
00000160: ed82 0cbe 84c6 24be 28f2 9d3d 2602 b4bd
00000170: a6fd 9ebb 1de9 61bd cd3c 8ebc bd1d 81bc
00000180: b343 003e b3b9 443d c6e2 24bd 2f9f 8bbd
00000190: 7431 903d 1f3d 003e 9b06 adbd 8416 02be
000001a0: cbc4 b1bd 1f4f bb3c 1c04 d83d dc13 9c3d
000001b0: 2980 32bd 6c20 e0bd 19c9 24be 3946 7dbc
000001c0: 6ce9 c9bc ef68 1f3d 0609 96bd b1f3 933c
000001d0: bbe6 47bc 554d 16be d2f4 18be 9bd2 ce3d
000001e0: d12b b6bd c15e d0bc 1908 473b 7c06 253e
000001f0: f53e fd3c 77ea 993c 662d 9abe 4e58 443e
00000200: 8fce a93d ecad 6bbe f9a4 123b a49a 99bd
00000210: c45e 103d 7311 e23c 75a4 41bd 67e8 58be
00000220: 0e0e 91bd 8f7b a73d 00be 663d 5346 5e3e
00000230: e356 c7bc 27b6 1bbd d7dc 6e3e e0d6 073e
00000240: d743 46bd 7213 ae3d 5bf0 6cbc c6d0 863d
00000250: 776f 203d b57a 1b3e 3374 913d 9245 203e
00000260: a1da d3bd 834e 123d 231b 993d 0939 a63d
00000270: eb58 463e 9763 593d 6407 77bd 51ca cebd
00000280: 6414 293e 5acf 55bd d469 99bd c444 153c
00000290: edc2 22bd 8065 12be a81c d2be 594d f33d
000002a0: adc8 4dbc 575b f6bd 78f2 063e a55f 753d
000002b0: 1d7a 893d f641 d83c 186d adbc 6db8 49be
000002c0: 3217 353d e8e3 c43c 30d0 6b3c 239f 1e3e
000002d0: 6859 dabd adc4 fcbc 7d85 3e3e 848b 133e
000002e0: e52e e2bd 74b6 983d dedc 243e 622f d23d
000002f0: e81a 2ebd 5eda c83d 912c 0cbc 8c1c 1d3e
00000300: 4b99 d93d 597c e7bd a6d1 36bc b009 2f3e
00000310: 33d5 623e 0444 2abd 87d5 a83d 62e5 ffbd
00000320: 6485 10bd 41f9 8abd a93e c43d 3223 abbc
00000330: ab46 0b3e ef6b ea3d 3ecb 2dbe 1bed b5bd
00000340: c5a3 cdbc 6c4f 303a bce8 43bb fd9f 44bd
00000350: b77d b4bd 197c 57bd d880 823d 4590 11bd
00000360: b6f9 02be fa1c e73d 485e 0cbd f767 d63d
00000370: 5f00 303e bf0a a7bb 95d5 493e b3c2 a03d
00000380: 5674 a1bd 4d3c a7bd d6fe 203e 2edd 08bd
00000390: 1064 413e f13b 233d 335f 163d a456 233e
000003a0: 4425 e2bc 5a77 65bd 2aea 7abc e116 473d
000003b0: 55c1 c73d d00c 843e a9ad 583e 516e 363e
000003c0: 7cc7 9b3d 5ac2 243e 9da2 083d a40d 12bd
000003d0: 366e 2b3e fd95 093c 0ac0 e9be 17de 9a3d
000003e0: 8a04 8dbc e2aa 01bd 9117 4b3e a17d 0ebd
000003f0: 02fc c83d a6ee 353e c160 e23d 0a0b 64be
-0.031258315 -0.029531823 0.13992606 -0.050492212 0.041589268 -0.33411053 0.30982897 0.07752567
0.12047481 0.37966916 -0.16175534 0.036662918 -0.102388605 -0.038952388 0.023128651 0.12770113
0.25239632 0.1598563 0.0008725673 -0.70449567 0.012002568 0.50339824 -0.49873966 -0.10473223
-0.375352 -0.31129268 0.19430807 -0.42583245 -0.2281641 -0.45005578 0.16157147 0.12555015
0.059970338 0.30715424 -0.397029 0.08551414 0.024908174 -0.38587716 -0.028330281 0.108293094
-0.028812364 0.19958313 0.07461351 0.1399217 -0.11399065 -0.07411805 -0.42750013 0.19966863
0.032867536 -0.018581027 -0.07220009 0.0554523 0.12033474 0.09988058 0.09780403 0.022441514
0.12140789 -0.060848918 -0.03938266 0.16766337 0.058888003 0.041194335 0.16559637 0.02006534
-0.052985616 0.069330566 -0.092175625 0.031120079 0.14096645 0.11256837 0.18344526 0.065583214
-0.13429655 0.14423206 0.21126367 0.14670683 0.14425209 0.14980386 -0.01996695 0.18692397
-0.17011286 -0.13623245 0.1284235 -0.15716241 -0.14787614 -0.05642394 0.004766179 -0.04168406
-0.13721819 -0.16091353 0.07712203 -0.08789472 -0.0048520146 -0.055153955 -0.017362976 -0.01576125
0.12525825 0.04802866 -0.04025533 -0.06817471 0.070406824 0.12523316 -0.084485255 -0.12703902
-0.086801134 0.022864876 0.10547659 0.076209754 -0.043579254 -0.10943684 -0.16092338 -0.015458637
-0.024647437 0.03891843 -0.0732594 0.018060537 -0.0122010065 -0.14677937 -0.14937142 0.100987636
-0.08895076 -0.025435807 0.0030369817 0.16115755 0.03091381 0.01878856 -0.3011276 0.1917431
0.08291351 -0.23015565 0.0022376163 -0.075001985 0.035246626 0.027596211 -0.04727598 -0.21182404
-0.07082759 0.08177864 0.056333542 0.21706514 -0.024333423 -0.03801551 0.23326431 0.13265562
-0.04840454 0.08499803 -0.014461602 0.06582789 0.0391688 0.15183528 0.07102241 0.15651539
-0.103444345 0.035719406 0.07475879 0.08116347 0.19369857 0.053073492 -0.060309783 -0.100971825
0.16511685 -0.0521997 -0.07490888 0.009110633 -0.039736677 -0.14296532 -0.41037488 0.11879987
-0.012560052 -0.120291404 0.13178432 0.059905667 0.067127444 0.02639864 -0.021170184 -0.19699259
0.044211574 0.024034455 0.0143928975 0.15490393 -0.10661584 -0.030855501 0.18605609 0.1440869
-0.11044101 0.07456675 0.16099879 0.10262944 -0.04250613 0.09807275 -0.008555547 0.15342921
0.106249414 -0.11303014 -0.0111583825 0.17093539 0.22151642 -0.04156877 0.08243852 -0.12494923
-0.03528346 -0.06785823 0.09582264 -0.020890806 0.13601176 0.11446368 -0.16972062 -0.08883115
-0.025102505 0.0006725702 -0.002989336 -0.04800414 -0.08813041 -0.052608583 0.06372231 -0.035537977
-0.1279057 0.11284824 -0.0342696 0.104690485 0.17187642 -0.0050977166 0.19710381 0.07849636
-0.078835174 -0.08165798 0.15722212 -0.03341406 0.18885827 0.039852086 0.036711883 0.1595102
-0.02760566 -0.056022026 -0.015314618 0.048605803 0.09753672 0.25791025 0.21159996 0.1781552
0.07606408 0.16089764 0.033358205 -0.03565754 0.16741261 0.008397576 -0.45654327 0.075618915
-0.017214078 -0.031657107 0.19833209 -0.034787778 0.09813692 0.17766818 0.110536106 -0.22269836

regressor.2.bias f4 [80]
00000000: 36d5 d8bc be84 323e 7be7 943d 3d29 b53d
00000010: bc3c 87bd a76c 843d 01e7 cebb 0392 473e
00000020: 46c3 acbd 640d 15be 1086 2d3d cbe4 b13c
00000030: bdc0 b53d 3152 ebbd a97e 1f3d 9e76 1bbb
00000040: feea b0bc 06f7 713d e026 4c3e 2f35 053b
00000050: c82c 8a3d 5540 d3bb 474d cbbd 88d5 00bd
00000060: 37f2 03bd 67a5 123c 3adb 3d3e 9e76 003e
00000070: b6f2 cd3d 193a 483e 1d5d 063e 994d 9d3d
00000080: b14e a6bd 96ef 14be 99ba 923d 36f3 b7bb
00000090: 95ce cdbd f0d7 473d fdf9 ecbc 5733 e3bc
000000a0: 15af 243e ff82 593d ed03 3c3e a753 f8bd
000000b0: 7a20 14bd e057 233e 4b8e 92bd 4891 8abd
000000c0: 730e c33d a1e5 dc3d 881c c6bb 64b5 ec3c
000000d0: 2694 c93d 6ea5 0c3d a0c5 9d3d 1c16 8bbd
000000e0: 8350 583e 207b ce3d f83c c0bd 0d1e d93d
000000f0: faad a73d 3514 153d 272b ee3d 875e a0bd
00000100: 9ad7 0c3e ba40 98bd 1c24 273d 5e4f 86bd
00000110: 66dc 21bd c114 4a3c 165c 0a3e 5132 95bb
00000120: 1cc9 0f3e d682 c0bc 4a67 523e b80b 113d
00000130: a7f5 cebd 3fee 4e3e 8a62 85bc 3963 b03d
-0.026468854 0.1743345 0.07270714 0.08845756 -0.06603381 0.06466036 -0.006314159 0.19489293
-0.08435683 -0.1455589 0.04236418 0.021715542 0.088746525 -0.11490286 0.038939152 -0.0023721824
-0.021596428 0.05907347 0.19936705 0.002032589 0.067468226 -0.006446878 -0.09926849 -0.03145364
-0.032213416 0.008950568 0.1854066 0.12545249 0.10056059 0.19553412 0.13121457 0.07680816
-0.08120478 -0.1454452 0.07164497 -0.00561371 -0.10049168 0.04878992 -0.028927797 -0.027734442
0.16082413 0.053103443 0.18360873 -0.121253304 -0.036163785 0.1595149 -0.071560465 -0.067659914
0.0952424 0.10785986 -0.0060458817 0.028895088 0.0984271 0.034337454 0.077037096 -0.067913264
0.21124463 0.10082078 -0.09386629 0.10601435 0.0818748 0.036396224 0.116293244 -0.0783053
0.1375412 -0.074342206 0.04080592 -0.06558107 -0.03951683 0.01233405 0.1351169 -0.0045531173
0.14041561 -0.023499887 0.20547214 0.035411566 -0.10105448 0.20208071 -0.016282339 0.08612675

regressor.4.weight f4 [40, 80]
00000000: 7c8c e3bd 50e4 85bd 0032 a03d c021 1c3d
00000010: d065 873d 96a7 34bd 3a14 a2bd 7fcc dabd
00000020: 4055 ee3b f013 d83d 60dd 14bd 9e38 dd3d
00000030: 3808 ef3c ae3c c43d a8b1 67bc 0ea4 21bd
00000040: ae7b a3bd b837 82bc 484c 3f3c 7c7a c63d
00000050: 2cd7 3d3d 6e4c a2bd 1903 dbbd 9419 613d
00000060: 0229 03bd 1898 073d f66b 56bd dd74 8abd
00000070: 406f 593c 48e0 abbc 6865 b3bd e2bb 8f3d
00000080: 8a96 e13d 94eb dcbc e813 563d 386c 16bc
00000090: 0cc8 b7bc 0481 a43d 5088 b2bd 8a5e 01bd
000000a0: 18ee 6e3d 73e9 76bd accf c7bc dd0b b7bd
000000b0: 1056 de3c 40fc 8f3d 0840 0e3d 74d6 9fbd
000000c0: 54ff 493d a8df d3bd c08d fabc 3cf7 aebd
000000d0: 603d 3dbd 74b7 d9bc 80a6 c1ba e02c 54bc
000000e0: bcde 91bd 38e7 7d3d 1ae4 a53d 1a89 d0bd
000000f0: 8598 dcbd 7083 8e3c 7ced 433d 9289 dbbd
00000100: 6823 48bc 5610 c3bd 9881 ca3d 0481 febc
00000110: f0cb 483d b0cd c33b d2bf b43d e809 b03d
00000120: e048 34bb fe7f 883d 1e3c 63bd ee07 06bd
00000130: eced a3bd 7093 37bd b019 fa3b f03e 67bc
00000140: a5ed e83e 803b 9f3d 6475 e9bd 728b 67b9
00000150: e57c e4bc 43b7 933d 3a85 363d dd3a e4bd
00000160: 9a9b 39bc 2c51 47bd b836 bcbd 251d 57bb
00000170: ec0e 5e3d eb1d b7bd e1f9 67bd d6d4 c73d
00000180: 4b42 aebd 019a 983d 1db1 b13d 3df8 65bd
00000190: 0bb4 803b efa1 a03c 3811 f1bd 2ad0 863c
000001a0: 60a8 de3d f384 473a 81bb d8bd e196 6f3d
000001b0: 3d24 8bbd 04b1 b5bd 87f5 fe3c dad8 e6bd
000001c0: 4bf8 fb3a 68ec 8f3d be5c 943c 8d2b ebbd
000001d0: 5962 90bc c9fe ee3c 6ecd a03d 7548 713d
000001e0: 38c2 3ebd 9033 09bd c6e6 ab3d 8830 35bd
000001f0: 9afe a7bd 57c4 853d 0f6e 523d e321 063e
00000200: 72bf 95bd e4b2 a93d af17 a03d d54a ccbd
00000210: 29b3 f7bd 4aad 943d 8cf1 2d3d 661f 9fbd
00000220: e068 7c3d 558d 0d3c 22bc 8d3c 70a8 a8bb
00000230: d540 6ebd 90a0 f1bd 7c6a a5bd 0fc9 4cbd
00000240: 2f3a 39bd 38aa 123d 1f51 6cbb 2873 92bc
00000250: 7275 ad3d 2e56 863d 2fed be3d a48e 843d
00000260: 69aa ec3c e8f9 76bd e808 473d f015 c0bb
00000270: 0d2f c7bd dece 333d 94b5 bf3d d132 01be
00000280: 707f 8abd 4d1f 213c 910e 563d 74b0 71bd
00000290: aa14 bdbb 191f b3bd d813 6b3d e408 4b3d
000002a0: e73d e43b 70df 67bc f46c 2c3d 6432 453d
000002b0: 8d2c 9abd 8679 94ba 1e24 55bd 4093 a9bb
000002c0: 9fa9 e93c 8438 d9bd ddfb ad3d 8b39 b13d
000002d0: 1a29 f33b ebe5 6c3d b044 53bd 4c4e e6bd
000002e0: 50e6 6b3c 2f31 953d 5c40 aebd 7d3b 363d
000002f0: f4e5 c9bd b553 ddbd fbe9 d0bd 94ef b83d
00000300: 538c 42bc 7233 7ebd c1b7 523d b11a 843d
00000310: a2da 953c bdcd b83d 6a4e bf3d 398a 993d
00000320: 9cc5 9ebd e44a 99bd 5d8d 833c 529e a3bd
00000330: 9706 6e3c e458 643d 43b7 88bc b9fb ba3c
00000340: d09f a43c f3e5 0bbd 4efa f9bd 9f85 b93c
00000350: 6e5d b73b 1d03 fb3b 0cb5 a6bd e0b9 e2bc
00000360: b1ae 203c 81b3 c4bd bf14 303c 8077 d93c
00000370: 8162 6a3d 1285 7d3d 4f4a dfbd e044 7abd
00000380: 28d1 a53d 3ac8 233d 863a dabd 6021 4bbb
00000390: 5cbf 0a3d 22b8 cabd 494d 97bd 1b9a e03c
000003a0: 9772 e5bd 48b4 09bd 7296 e0bd ba45 b9bd
000003b0: 3e4b 3fbc 0673 3abd d386 293d 4eb3 20bc
000003c0: f593 8dbe ed38 553e 311a 5f3d be89 b63d
000003d0: 1353 793e 2d56 de3d 8ba7 443e 52b4 d43d
000003e0: 9c4c 173e e8ee a63d 6d61 213e c638 be3d
000003f0: d1ca f93d fe6c bc3c 4141 4c3e b297 6bbb
-0.1111078 -0.06537688 0.07822037 0.038118124 0.06611216 -0.044105135 -0.07914014 -0.10683536
0.007273346 0.10550678 -0.036343932 0.108018145 0.029178724 0.09581886 -0.014141478 -0.039463095
-0.079825744 -0.01589571 0.011675902 0.09691331 0.046347782 -0.07924734 -0.1069395 0.054956034
-0.03202153 0.033104032 -0.052349053 -0.06760571 0.013271153 -0.02098097 -0.08759576 0.07018258
0.11015041 -0.026967801 0.052265078 -0.009181075 -0.022434257 0.0803242 -0.08717406 -0.0315843
0.058332533 -0.06028123 -0.024391018 -0.089378096 0.027140647 0.07030535 0.034729034 -0.078045756
0.049315766 -0.103453934 -0.03058517 -0.0854325 -0.04620111 -0.026576735 -0.0014774352 -0.012950152
-0.07122561 0.061988086 0.081001475 -0.101824 -0.10771278 0.017396659 0.047833905 -0.10719599
-0.012215473 -0.095246 0.09887999 -0.031067379 0.049022615 0.0059754476 0.08825649 0.085956395
-0.0027509257 0.066650376 -0.055477254 -0.032722406 -0.08004364 -0.04481834 0.0076324567 -0.014114127
0.45493808 0.077750206 -0.113993436 -0.00022081824 -0.027891586 0.07212689 0.04456065 -0.1114404
-0.011328602 -0.048661396 -0.09190124 -0.0032823768 0.05421345 -0.08941253 -0.056634787 0.09757392
-0.08508738 0.07451249 0.0867636 -0.05614494 0.003927713 0.019608466 -0.11770862 0.016456682
0.10871959 0.00076110585 -0.105826385 0.0584935 -0.06794021 -0.08871654 0.031122936 -0.1127183
0.0019223777 0.07027513 0.01811063 -0.11482916 -0.01762502 0.029174225 0.078516826 0.05890699
-0.04657194 -0.03349644 0.08393626 -0.044235736 -0.08202858 0.065315895 0.05137449 0.13098864
-0.07311906 0.08286074 0.07817017 -0.099752106 -0.12094719 0.07259615 0.042466685 -0.07769661
0.061623454 0.008639653 0.017301623 -0.0051470324 -0.058167297 -0.11798203 -0.08076951 -0.049996432
-0.045221504 0.035806865 -0.0036059094 -0.017877176 0.084696665 0.06559406 0.09322583 0.06472519
0.028889852 -0.060296923 0.048592478 -0.00586199 -0.09725771 0.043898456 0.09360805 -0.12617041
-0.06762588 0.009834123 0.052259985 -0.05900617 -0.0057702856 -0.08746166 0.05739197 0.049569026
0.006965387 -0.014152393 0.042096093 0.04814376 -0.07528029 -0.0011327721 -0.052036397 -0.0051750243
0.028523264 -0.106064826 0.08495305 0.086535536 0.007420671 0.057836454 -0.051579177 -0.11245403
0.0143981725 0.07284772 -0.08508369 0.044490326 -0.09858313 -0.108069815 -0.10200878 0.09030071
-0.011874276 -0.06206078 0.051444773 0.064504035 0.018292729 0.090236165 0.09341128 0.07497067
-0.07752535 -0.074849874 0.016058618 -0.079891816 0.014527938 0.055748835 -0.016688948 0.022825109
0.020095736 -0.034154844 -0.12205945 0.022646723 0.0055958545 0.0076602832 -0.08140001 -0.027676523
0.009807275 -0.0960455 0.010747134 0.02654624 0.057222847 0.061894484 -0.10902845 -0.06110084
0.08096534 0.039985873 -0.10655694 -0.0030995235 0.0338739 -0.09898402 -0.07387788 0.027417233
-0.11203497 -0.033619195 -0.10966195 -0.090465024 -0.011675654 -0.04551985 0.041388344 -0.009808375
-0.27651945 0.20822497 0.054468337 0.08912991 0.24348097 0.108562805 0.19204538 0.10385956
0.14775318 0.081510365 0.15759821 0.092881724 0.12196887 0.02300119 0.19946767 -0.0035948572

regressor.4.bias f4 [40]
00000000: 40d4 21bb fe64 79bd c6a6 a8bd ad1f 4f3e
00000010: 8cab 793d c2dd eebd 9c79 a23d 6969 303e
00000020: 1dd8 63bc 7929 113c 241e dabd 5591 003e
00000030: 850c bf3d 4b2c f83d 8efb 983d d439 443e
00000040: a4bc 293e aaa0 143e 1c31 cfbd c98f 063e
00000050: 0194 1bbd 2ef6 ba3d a283 df3d fd0b 453e
00000060: 7c2b d33d 3ea4 053f e94c 153e 7eae 07bb
00000070: 4c82 d23d b26f e33c 2fbb 263d 4e0f 163e
00000080: fe0e 2f3e 2b57 b93d 911f d33d 776d 4abc
00000090: 26d5 54bd 4048 4bbd c72b 313d f58a 533c
-0.0024693161 -0.06088733 -0.082349345 0.20226927 0.060954615 -0.11663391 0.079333514 0.17227711
-0.013906506 0.0088599855 -0.1065028 0.1255544 0.0932856 0.12117823 0.07469855 0.19162685
0.16575867 0.14514413 -0.10116789 0.13140787 -0.037982944 0.09128986 0.10913779 0.19242854
0.10311028 0.5220374 0.1458012 -0.002070337 0.102787584 0.027763221 0.040705856 0.14654276
0.17095563 0.09049829 0.10308755 -0.0123552 -0.051961087 -0.04962945 0.04325464 0.012911548

regressor.6.weight f4 [1, 40]
00000000: 70c4 eebd 45bd b7bc 15e9 c3bd e914 cfbd
00000010: da14 e7bd cd59 a0bd 8f7c ca3c 31c1 a23d
00000020: b4d7 e1bc 9886 febd 251a d6bd 49f9 15bf
00000030: 3f03 a0bd c28f e13d 431b 563d ba02 133b
00000040: 4a7b 693d 391c 773d bc22 d6bd 8b2b ee3d
00000050: c4c4 ba3d cabd c3bd 9a43 193e f3f6 68bd
00000060: dfcc 3bbd 39b5 79be 4342 87be f4e1 b73c
00000070: 50a9 b8bc 0ce2 b2bd 5939 0c3e 112b f0bc
00000080: 70de a0bd 5c6a f73d cfc2 ed3d 159a 17be
00000090: 0f0d 3dbd 2923 fc3d 0b0b 03be 1c2c 513c
-0.11658561 -0.022429118 -0.09565941 -0.1011141 -0.11283274 -0.07829628 0.024717597 0.079470046
-0.027568676 -0.124280155 -0.104542054 -0.58583504 -0.07813119 0.11013748 0.052272093 0.0022432045
0.057002343 0.06032965 -0.10455844 0.11629399 0.09119561 -0.09557684 0.14967194 -0.056876134
-0.045849677 -0.24385537 -0.2641774 0.02244661 -0.022541672 -0.08734521 0.13693751 -0.02931741
-0.078549266 0.12080833 0.116094224 -0.14804871 -0.04615503 0.12311394 -0.12797181 0.012766864
